SaVSTr/models/Coco2014_epoch_3_batchSize_4.pth (torch, 369643 bytes, 196 tensors)

seq16.0.conv.weight f4 [8, 3, 3, 3]
00000000: a7a8 1a3c a859 043e d367 1cbd 6e42 0f3f
00000010: 84e1 13bf f88c 80bd dd7f 383e 72ff 2e3d
00000020: 2cf2 7dbe 425b c2be c3d0 bb3d e7b5 db3c
00000030: 9b69 d63e eb6e 06bf 5c75 453e 2131 f2bd
00000040: 9db4 6c3d 924a ba3c 955a b7be ce3e 243e
00000050: 378a 2d3e 29b4 713e 8cb0 c0be 6330 893d
00000060: 07d1 adbd 0338 9f3e 03a4 8d3c ad95 cb3c
00000070: 94d3 3fbc 55df b0bc 5fdf b73e 3623 fdbc
00000080: 8db8 a2be 7467 05bf d7f8 903d dafe f43e
00000090: 21db a8bb 298a db3c 365a 8a3b da1b a83e
000000a0: 1a25 28bd c474 c6be 9837 0ebf 45c7 b7ba
000000b0: 474f 103f 65f9 cf3d 69c3 29bd dbd5 ecbd
000000c0: 5137 a73e 87e7 dd3d 25a2 aabe bdb4 88be
000000d0: c545 bcbd 6cd2 993e d4d2 8cbe f681 8dbe
000000e0: f7d4 d53e c3b6 6dbe ccdf 443e b0f7 4a3e
000000f0: 6cd5 f93e 90b2 113e 6828 15bf ced9 7f3c
00000100: f276 6abd d39d 953d 3cd9 83be 35cc acbd
00000110: b715 3d3e f733 b33e 6a74 a93d 4510 d8be
00000120: 35da acbc 916e 59bd 86ab 283e 6fa1 d0be
00000130: eb2d eb3d 4ebb ac3e 04c5 7e3e 0a02 a63c
00000140: d0bf b3be a10d 653c e125 223e 86c7 38bd
00000150: 17e8 e6be 1534 74bd a54c d23e 8343 fb3e
00000160: c8df 3abe 5d08 bdbe 0ac6 93be 066f 6e3e
00000170: f56b 5bbd 0d7c 11bd d24f eb3c eac4 883e
00000180: 62dd 9d3e d94d 68be 8d1b c3be 857b 8dbe
00000190: 657d ea3c f250 3a3d 9196 17bd 6f01 453e
000001a0: 886f a73e 65a9 c83e 81e2 9cbe e107 b3be
000001b0: 1690 cc3e b40c aa3c 9c60 c2be 3eab 953e
000001c0: e406 7ebd c5e5 c2be 7514 ac3e 2e88 74bd
000001d0: 6bc3 91be 5ce0 123e 23eb bf3d f560 4cbe
000001e0: 01e5 7e3e 7dbf 0d3e 20f1 1abe d635 d73e
000001f0: 823d 61bd cb9e a7be a9e2 8b3e e683 67bd
00000200: 3da4 63be 7035 e83e 05cd 0abe 302c f8be
00000210: c349 d83d f533 3e3d f6ad 45be 2110 9ebe
00000220: d433 223d f8f3 743e 0203 32be a22d 253d
00000230: decb 633e b1c1 d4be b323 84bd 4f66 ce3e
00000240: 91e9 04bf 7856 d9bd 625c 1f3f fabe 60be
00000250: 5960 863d d193 0c3e 77a7 e4bd ee0a 18be
00000260: 4ae6 7a3e 16fa 05bf 1df2 953d bf97 023f
00000270: 2252 b5bd bf19 cabd 8a21 d13d 9172 42be
00000280: 3f8b 0b3e 1f28 a43d 0b54 e73e 0a82 383e
00000290: f24e ecbe 4bdd d6bd ac7c be3e 9219 89be
000002a0: 8f7e d43d 9a43 febd 0ab6 f7bc 1657 da3e
000002b0: d881 8cbe 9938 d9be bcf1 a3bc 8a96 dc3e
000002c0: 16cc 52be 21be a4bd 3b7f 803c 49b9 b8bd
000002d0: 6766 f43e 09c5 2e3c df90 f1be 7637 dfbd
000002e0: e514 573e 4d39 1dbe 9d8d 9a3d 4d3a 9d3d
000002f0: 2421 d7bc e1c3 8d3e 4f15 d53e ab43 14bf
00000300: 2cf6 bfbe 1080 adbe d8ab c63e 8a45 ca3d
00000310: 66aa a1bd c2e6 893e d5fc 533e d946 513e
00000320: a1d6 f8be 4a0b 35be 0b97 b9be 2514 863e
00000330: 4b62 8ebd a8d6 eabc ce04 613d 1230 9d3e
00000340: d292 483e 9698 89be d695 0dbe 0573 8dbe
00000350: e115 b53d 003c e6bd 145a 8d3c 2003 623e
0.009439624 0.12924826 -0.038184952 0.5596074 -0.57765985 -0.06276888 0.18017526 0.04272408
-0.24799412 -0.3796025 0.091706775 0.026820136 0.41877446 -0.52513 0.1928305 -0.11825777
0.057789434 0.022740636 -0.35811296 0.16039583 0.16947256 0.23603882 -0.37634695 0.06698682
-0.084871344 0.3109742 0.017290121 0.024851644 -0.011708159 -0.021590868 0.35912606 -0.030900579
-0.31781426 -0.5211098 0.070787124 0.47850686 -0.0051530753 0.026799278 0.0042221798 0.3283375
-0.041051008 -0.3876096 -0.5555358 -0.0014021179 0.5637097 0.1015499 -0.041446123 -0.11564227
0.3265939 0.10835176 -0.3332683 -0.26700392 -0.09192995 0.30043352 -0.275046 -0.27638215
0.41764042 -0.2321425 0.19225997 0.19821048 0.4879564 0.14228272 -0.5826478 0.0156158935
-0.05724234 0.07305493 -0.25751674 -0.08437387 0.18465315 0.35000584 0.08274157 -0.42199913
-0.021100143 -0.05308396 0.16471681 -0.40748164 0.114833675 0.33736652 0.24879843 0.020264644
-0.3510728 0.0139803 0.15834762 -0.045112155 -0.45098945 -0.05961998 0.410741 0.49074945
-0.18249428 -0.36920443 -0.2886203 0.2328454 -0.053569753 -0.035518695 0.028724585 0.26712734
0.30832964 -0.22685947 -0.38106957 -0.276333 0.028624246 0.04548735 -0.037008826 0.19238828
0.3270228 0.39191738 -0.3064156 -0.3496695 0.3995368 0.02075801 -0.37964332 0.2923221
-0.06201829 -0.38065925 0.33609357 -0.059700184 -0.28469405 0.14343399 0.09371021 -0.19958861
0.24892046 0.13842578 -0.15131044 0.4203326 -0.0549903 -0.32738337 0.27321365 -0.056522273
-0.2223062 0.4535327 -0.13554771 -0.48471212 0.10560944 0.04643627 -0.19304642 -0.3087168
0.03960021 0.23921192 -0.1738396 0.040326722 0.22245738 -0.41554025 -0.064521216 0.4031243
-0.51918894 -0.10612196 0.6225034 -0.21947852 0.065613456 0.13728262 -0.11164754 -0.1484792
0.24501911 -0.52334726 0.0732157 0.51012796 -0.08853556 -0.09868192 0.10211475 -0.18989016
0.13627337 0.08015465 0.45181307 0.18018356 -0.4615398 -0.10491427 0.37204492 -0.2677732
0.10375702 -0.12415238 -0.03023817 0.42644566 -0.27442813 -0.42425993 -0.020012729 0.43083602
-0.20585665 -0.08044077 0.015685668 -0.09019715 0.47734377 0.010667094 -0.4718084 -0.1089925
0.21004064 -0.1535389 0.07546542 0.076771356 -0.02626092 0.27688506 0.4161782 -0.57915753
-0.37492502 -0.33886766 0.3880298 0.09876545 -0.07893829 0.26933867 0.20701917 0.20437182
-0.4860125 -0.17680088 -0.3624805 0.26187244 -0.06952342 -0.02866681 0.054936223 0.30700737
0.19587258 -0.26874226 -0.13826689 -0.27626815 0.08842064 -0.11241913 0.017254867 0.22071505

seq16.0.conv.bias f4 [8]
00000000: 9842 e93e 9227 8a3e 740d 1bbe 7a9f 01be
00000010: 3ef7 c3bd 75b4 84be 6a20 04bf 4610 e63e
0.4555862 0.26983315 -0.1514185 -0.12658492 -0.09568642 -0.25918928 -0.5161196 0.4493429

seq16.0.norm.weight f4 [8]
00000000: dcc7 453f e5a8 b53f 6ad9 dc3f 5adc 1b3f
00000010: d251 c23e 608e 333f 9db8 5c3f 4b9a 7e3f
0.77258086 1.4192168 1.725385 0.60883105 0.3795305 0.7013912 0.862192 0.9945418

seq16.0.norm.bias f4 [8]
00000000: c251 353c e30c eabb 9a9e 463e efe2 143d
00000010: 82f2 3ebd 189b ff3b 08ef 353c bc94 f23c
0.011066856 -0.0071426495 0.19396439 0.036349233 -0.046617992 0.007800471 0.011104353 0.029611938

seq16.0.norm.running_mean f4 [8]
00000000: 993c 78c0 87eb 84c0 382f a540 4001 73c1
00000010: b171 85bf d7ef 54c0 b3e0 1ac0 fae9 f4c1
-3.8786986 -4.153751 5.162014 -15.187805 -1.0425321 -3.3271387 -2.4199646 -30.614246

seq16.0.norm.running_var f4 [8]
00000000: 06bc 7345 fda4 9f45 b048 9245 c9b4 9445
00000010: 1f17 2646 0627 2446 df71 e545 5476 a245
3899.7515 5108.6235 4681.086 4758.598 10629.78 10505.756 7342.234 5198.791

seq16.1.conv.weight f4 [8, 8, 3, 3]
00000000: 5cf7 5a3e 6fd2 d13e 6041 123f c20b a23c
00000010: 2128 873e deb3 c0bd d5a2 1bbe 8a26 4fbe
00000020: 95a9 3bbd b398 b83e f802 bbbd 4b5a 8fbd
00000030: a38f e8bc 6573 b8bc 6e7d 35be 543e 7bbe
00000040: f238 b6be 67e8 59be ecf9 ca3d ed00 b33e
00000050: 00f6 f63d 9f64 a1bd b991 303d 6705 213d
00000060: 75f6 45bd 875a ffbc b46c a1be 7d66 5c3e
00000070: c19c 1b3e 5722 b23e 0d7a 233e 87d9 23bd
00000080: dd09 d43d 3dbd 88be 97ae 28be ffa7 9bbd
00000090: 90fb a33d c87e 73be 1f33 65bc 7aa9 8cbd
000000a0: 3df6 aabe 615a 18be a471 1abe d8a9 01bf
000000b0: 2b90 eabe a3af 133f b7d4 523e 77a1 fb3b
000000c0: b757 d13d 7bb2 c83d 24a4 babd 31c8 b0be
000000d0: 7f2a b1be fc87 11bf 366b cd3e f306 9b3e
000000e0: 7ad6 d73e 91ca f6bd 86e9 db3d d0ad cf3d
000000f0: 6dc0 a7be 5211 96be 1ce4 c5be d55c 8e3e
00000100: be9a fc3d ff68 a53e 5537 aebd b451 c53e
00000110: d5a6 fc3d bac8 5bbe adc0 7abd af2c 7abe
00000120: 27a4 fb3c 8726 e53d 4cd8 63be f515 583e
00000130: 5fa5 313d f4e6 38be 8693 313e 25c5 43be
00000140: 3121 3ebd f7e0 333f c5fe e2be 6717 06bf
00000150: e093 483e f152 18bf a9b1 81be d928 0e3f
00000160: b39b a8be 7020 9abe 7a95 3b3e 35b5 96be
00000170: 2cd3 74be a51f 7c3e 2afd 61be 5e65 a2bd
00000180: 610e e23e 2d81 e8bd cd66 80be e275 023c
00000190: 8150 243c 7aff 81bd 4ced 9f3e 55f8 0abe
000001a0: f863 9abe f16b 7f3e d721 8cbe d500 06be
000001b0: 57d6 903c e224 87be 0aec f83d 5d0c 973d
000001c0: 6078 acbd d866 d43c 013a 783d 8884 99be
000001d0: ccc6 283e e34b 923e e7da c2be 0898 afbe
000001e0: 4e8a ac3e 8bce a5be 27a3 77be 7317 053f
000001f0: 09de 00be 5152 1fbe 3447 8d3e e73d 00be
00000200: abf0 6ebe 9c39 4b3e c16a c4be 3b04 ee3c
00000210: 5f02 2e3c bf13 b43d 598e 903d fe82 183e
00000220: 9ba2 e73b 500a 88be 498a 253e 5ca9 153e
00000230: 8052 1cbe 8ca7 f03d d38f bebc 7613 b0bd
00000240: d871 95be e748 6d3b 6a9c a53e 1325 8fbe
00000250: 9514 b5bd 9f6d 573e 4105 25be dcef bd3d
00000260: c8b3 303e 631b 8e3e 3e4e 8e3e 2cfa b6be
00000270: 3fc1 19bc 2dcb 133c 5620 d8bd 54b2 b4be
00000280: 1b11 033c faae 8f3e 1d52 00bf 348b 40bb
00000290: d9b1 ef3e 12c9 fcbd 453f ef3b 3162 ba3d
000002a0: de46 1a3f 4fed 043e 0953 23bf c58a 9dbe
000002b0: 1158 abbc 6027 aa3e b1a4 28bd 77d3 8c3d
000002c0: b08b c63c 391e 823d fc48 2b3e 9fb1 45be
000002d0: 32f7 25bd c909 593e f3a2 bdbd 9599 60be
000002e0: 10c3 b83d afd3 963d fb9c 78be 6a0a aa3e
000002f0: 1b8e fc3d f7c5 3cbd 4724 093e 42e6 043c
00000300: a3a5 313e 2f52 083d 7c01 2dbe 0d05 423e
00000310: 2398 8cbd 489f aebe 534a e8bd 3914 aebb
00000320: 4bb4 083e 415b 76be 2b3f a63d 9be0 993e
00000330: c749 ebbe 8612 5ebd 46b1 a53e 7158 abbd
00000340: 6a58 743c 03a6 5f3d e5e0 e83e ac73 83bb
00000350: d548 edbe 0522 d5be 57c2 e5bc f000 bf3e
00000360: 9e92 143f 67be a5bd aaa8 82be 6347 f43e
00000370: c3d7 e3be 1b3f 8bbe 1e61 aa3e 8c8c 93bd
00000380: 9b87 27be 08e5 183f a7b1 5a3d f245 4cbe
00000390: 8dde fe3e aa53 0cbe 7606 3abe 8609 303f
000003a0: 090a cd3d 9b20 2fbe b1df 143f c3ee 96bc
000003b0: 5802 98be 331b 2d3c 488b c9bd d605 29bd
000003c0: 7ee2 b83e c5ce 1d3c 9e8d f6bd 3841 c53e
000003d0: 8915 3bbe 987a 4dbe 3fb7 863e 7ab1 3fbd
000003e0: 4376 3ebe ade8 a13e 5340 3dbd 72a3 303e
000003f0: 6a8c 433d c793 a8bd baea efbc ae35 a63d
0.21383423 0.4098086 0.57131004 0.019780997 0.26397803 -0.09409307 -0.15198834 -0.20229545
-0.045816023 0.36054 -0.091314256 -0.06999644 -0.028388804 -0.022515962 -0.17723629 -0.24535495
-0.3559032 -0.2128006 0.0991095 0.34961644 0.120586395 -0.0788052 0.043107722 0.039311793
-0.048330743 -0.031171096 -0.31528246 0.21523471 0.15196516 0.34791824 0.15964527 -0.040002372
0.10353444 -0.26706877 -0.1647285 -0.07600402 0.08006966 -0.23778832 -0.013989239 -0.068682626
-0.3339099 -0.14878227 -0.15082413 -0.50649786 -0.45813116 0.57689875 0.20588957 0.00767916
0.102218084 0.097996674 -0.091133386 -0.34527734 -0.34602734 -0.5684812 0.40120858 0.3027874
0.4215582 -0.12050355 0.107379004 0.10140574 -0.32763997 -0.2931009 -0.38650596 0.278052
0.12334202 0.32306668 -0.085066475 0.38538897 0.12336508 -0.2146329 -0.061218906 -0.24431108
0.030717922 0.11188989 -0.2225048 0.21102126 0.0433706 -0.18056852 0.17341432 -0.19118173
-0.046418373 0.70265144 -0.44335 -0.5237946 0.1958766 -0.5950156 -0.25330856 0.5553108
-0.3293129 -0.30102873 0.1831874 -0.29435125 -0.2390868 0.24621446 -0.2206923 -0.079294905
0.44151595 -0.11352763 -0.2507843 0.007962676 0.010028959 -0.063475564 0.3123573 -0.13571294
-0.30154395 0.2494352 -0.27369568 -0.13086255 0.01768033 -0.26395327 0.12154396 0.07375405
-0.08421397 0.025927946 0.06060219 -0.29983926 0.16482085 0.28573522 -0.38057634 -0.34295678
0.33699268 -0.32384142 -0.24183331 0.51988906 -0.125847 -0.15558745 0.27593386 -0.12523614
-0.23333995 0.19846195 -0.38362697 0.029054752 0.0106206825 0.08792829 0.07058401 0.1489372
0.0070689446 -0.26570368 0.16166033 0.14615387 -0.15265846 0.11750707 -0.02326194 -0.08597462
-0.29188418 0.0036206783 0.32345897 -0.27957973 -0.08841816 0.21037911 -0.16115285 0.09274265
0.17256081 0.2775527 0.2779407 -0.3573774 -0.009384452 0.009020609 -0.105530426 -0.35292304
0.007999684 0.28063184 -0.50125295 -0.0029379847 0.46815374 -0.123430386 0.0073012435 0.0910076
0.60264385 0.12981151 -0.63798577 -0.30769935 -0.020916017 0.33233166 -0.041172687 0.06876271
0.02423653 0.06353421 0.1672706 -0.19306038 -0.040518947 0.21195139 -0.09259596 -0.21933587
0.0902158 0.07364594 -0.24278633 0.3321107 0.12331792 -0.04608723 0.13392745 0.008111538
0.17348342 0.0332815 -0.16895097 0.18947239 -0.06864955 -0.34105897 -0.11342301 -0.0053124693
0.13350026 -0.24058248 0.08117517 0.30054173 -0.45954725 -0.054216884 0.3236181 -0.08366478
0.014913658 0.05460168 0.4548408 -0.004011592 -0.4634463 -0.41627517 -0.02804677 0.37305403
0.5803622 -0.08092957 -0.25519305 0.47710714 -0.4450055 -0.27196583 0.3327722 -0.072045416
-0.16360323 0.59724474 0.05339208 -0.19948557 0.49779168 -0.1370379 -0.18166527 0.6876453
0.1001168 -0.17102282 0.58153826 -0.018424397 -0.29689288 0.010565567 -0.09841019 -0.04126533
0.361103 0.009631817 -0.1203873 0.3852632 -0.18269934 -0.20066297 0.2631168 -0.046800114
-0.18599801 0.3162283 -0.046203922 0.1724985 0.04774133 -0.08231311 -0.029286731 0.08115707

seq16.1.conv.bias f4 [8]
00000000: 8de8 4abe 21c8 113e 03cb 93be cd88 41be
00000010: 7e8c 173e b1f8 a03e e335 0e3e d57e 963e
-0.19815274 0.142365 -0.28865823 -0.18899842 0.14799687 0.31439736 0.13887744 0.2939364

seq16.1.norm.weight f4 [8]
00000000: cb28 093f b737 8f3f 74b8 9f3f 9719 693f
00000010: 5c77 3d3f 6b03 9f3f 5145 473f 5c7b 953f
0.5357787 1.1188878 1.2478166 0.9105467 0.7401025 1.2422918 0.77840143 1.1678271

seq16.1.norm.bias f4 [8]
00000000: 19e9 a03e 26a2 923e a53d 933c 4b81 3a3f
00000010: 2730 f5be 2ab4 b63c 058a d73e f948 f83a
0.3142784 0.28639334 0.01797373 0.72853535 -0.478883 0.022302706 0.42097488 0.0018942646

seq16.1.norm.running_mean f4 [8]
00000000: 52d8 a4bd 7aff 09bf 04cd 9abe 74de 433f
00000010: 54c1 83bf af6e a53e c982 3e3d 8c1f 513e
-0.08049072 -0.5390545 -0.3023454 0.7651131 -1.0293374 0.32311007 0.046511445 0.2042219

seq16.1.norm.running_var f4 [8]
00000000: 8a84 933f 8dbf 1840 ac47 2041 3d92 e23f
00000010: b30a 0440 f5f0 0841 8081 9d3f 36a9 f13f
1.1524823 2.3866913 10.017498 1.7700878 2.063153 8.558827 1.2305145 1.8879764

seq16.2.conv.weight f4 [8, 8, 1, 1]
00000000: ca35 20bf 0014 923e f18c 0d3d 327a a33d
00000010: 3423 b63d 9bd9 81bd d751 4dbf 2b48 283d
00000020: 578a 9e3d 3611 133f 5a01 a53d 8793 fb3e
00000030: 5d04 7c3e e219 d2bd 0bb1 933c 0ecc f23e
00000040: 4335 fc3c 27e8 f13d e339 58bf 82b8 c33b
00000050: bf0e 113e 6fcb 3fbf 3634 06ba 7e6b 23be
00000060: 07eb 733c d8cf abbe c6e8 e93e 5dad 7bbd
00000070: 2477 febe 0b10 cc3e 8b25 353e 32bc 733e
00000080: 88ca d43e a309 093d a0cc 7dbc d2c4 c3be
00000090: d66f a73e 9cd7 4a3d 2c77 c83e 0793 cb3e
000000a0: 97c3 02bd 1db5 22bf 38d6 5f3e 4492 08bf
000000b0: 3cc2 39be 0c23 4a3d 6519 4bbc 48c4 13be
000000c0: 1eab 74be f3e8 9abe 28ca c93d 31aa 86be
000000d0: 9b28 d7bd 4738 a73e 22f1 013d a2dc 3fbf
000000e0: 391a 873e d7bc 95be 66ea 783c ff87 953e
000000f0: 80ce 0ebf fd28 52be e6cd 65bc b86f 1fbf
-0.62582076 0.28530884 0.03455824 0.07982291 0.08893433 -0.06340333 -0.80203 0.04108445
0.0774123 0.57448137 0.080568984 0.49135992 0.2461104 -0.10258843 0.018028757 0.47421306
0.030787116 0.11811858 -0.8446333 0.005972923 0.14165781 -0.7491979 -0.00051194744 -0.15958974
0.014887578 -0.3355701 0.45685405 -0.06144463 -0.49700272 0.3985599 0.17690103 0.2380226
0.4156077 0.033456456 -0.015490681 -0.382361 0.32702512 0.049522027 0.3915342 0.3976061
-0.03192481 -0.63557607 0.21859062 -0.53348184 -0.18140501 0.04934983 -0.012396191 -0.14430344
-0.23893401 -0.3025585 0.09853011 -0.2630172 -0.10505792 0.32660124 0.031724103 -0.74946034
0.26387194 -0.29245636 0.015192604 0.2920532 -0.55783844 -0.20523448 -0.014026141 -0.62279844

seq16.2.conv.bias f4 [8]
00000000: ddb4 ce3e 2faf eabe 9b1d aa3e da9b e6be
00000010: 3066 a0be 3c94 103f e166 97bd e945 093f
0.40372363 -0.4583678 0.33225712 -0.4504078 -0.31327963 0.5647619 -0.073926695 0.536223

seq16.2.norm.weight f4 [8]
00000000: 7a98 623f 492c 693f 0f31 263f 00ac 1f3f
00000010: 091c 2d3f 1fb2 803f d549 803f e007 e53e
0.8851391 0.910832 0.6491861 0.62371826 0.67620903 1.0054358 1.0022532 0.4473257

seq16.2.norm.bias f4 [8]
00000000: 014f 8b3e caa2 553e 747d bfbe a236 d43e
00000010: 4d54 973e b3f9 f43c 2373 a73d e71c 243f
0.27208713 0.2086288 -0.374004 0.41447932 0.29556504 0.029904222 0.081762575 0.641066

seq16.2.norm.running_mean f4 [8]
00000000: b79c 48bd 32c4 ce3e a3f4 34be 38a3 48be
00000010: f41e cbbd d7b0 20be d4f1 1cbf e7ff e93e
-0.04897758 0.4038406 -0.17671447 -0.19593513 -0.09918013 -0.15692459 -0.613065 0.4570305

seq16.2.norm.running_var f4 [8]
00000000: 3855 f53e 550e 7b3f 9330 d83e 1458 823e
00000010: 89c8 5f3e 6f30 323f 09d1 553f eca4 443e
0.4791658 0.98068744 0.4222456 0.25457823 0.21853842 0.69605154 0.8352209 0.19203538

seq32_1.0.conv.weight f4 [8, 3, 3, 3]
00000000: f1d9 ebbc 57b2 453d b066 d13e 5f57 5fbe
00000010: 94aa e13e 7536 0a3e b6c0 31bf 6ca6 eb3e
00000020: 8a55 433d 0fdb 643e a13a 61be 7735 d33d
00000030: 8cd2 e8bd 7a22 18be 1fea 8dbe 0191 003e
00000040: 2654 08bd 6b0b aa3d 9ff6 673e 7bd7 95bd
00000050: 6af1 183e 10aa c23e b2ac cabe 3da6 42bd
00000060: ffef b63e 8e1c 2cbe 0ab8 3dbe f185 cebe
00000070: ca86 d43d e124 95be 4b20 23be 3095 06bd
00000080: 1757 803e 5df2 153f 270c cfbe a390 e83e
00000090: 9f93 5ebd cb29 9b3d a57b 9fbe 333e 3e3d
000000a0: 8f5a 093d 2b93 89bc 2c0f 283e 8f40 04bf
000000b0: ef25 1b3e 1de0 2b3e 877f 2a3d 1ed1 babd
000000c0: 4a4b e73c d5a3 5d3e 7df9 753e 8b69 dcbc
000000d0: 5be1 9ebe e7b6 993e 7f7a 953d d526 91be
000000e0: bc27 bebe 4efe bf3d 5b87 bebe 915b 923e
000000f0: e8b3 d138 5379 223f a7fd c43e ffb5 d53d
00000100: cf85 22be 9887 993d 68b7 bbbd 4c0c 9e3d
00000110: bf45 9cbe 3c4a 59be b7b0 97bd 279c 8dbe
00000120: d6d5 49bc 1d62 823e b875 d03e 0f6e b23c
00000130: 44c5 b23e ee64 8f3d 29f4 0bbe 44dc 8ebe
00000140: dba6 f5be 1804 51be 5b09 b3bd ba31 e6bd
00000150: 1a1e dd3d a440 b8be 0edd 853e 9aa0 39bd
00000160: 3de4 f4be 37f2 d93b e8de 5bbe f3b9 223e
00000170: 7eef cd3e b63a 6c3e d822 943e 3fca 333f
00000180: e78f 3e3e c223 10be 9f11 643e 42fe eabd
00000190: 3f05 5cbc f3e1 0f3d 22ad a43d 41b4 963e
000001a0: b347 083f b294 8ebc 8ce3 303d 117d ac3d
000001b0: b97b e73c f1bd 6cbc 2b13 6cbc e277 943b
000001c0: 442c 203d de10 2ebe 6150 593e a051 4d3c
000001d0: 2874 933e 3564 193e a352 dabd b417 d43c
000001e0: a91e b53e a64f fe3d 9b1a 503e 4fc9 dd3e
000001f0: d76a 463e 24a1 503e b2c6 82bd b7fe 1ebf
00000200: 5a3f 03bf 2a00 a03d ec4b acbe b076 83be
00000210: 5687 963e d9fd 40be d730 41be 1a97 28be
00000220: a806 8c3e 5b19 59be e783 69bd acc0 8ebe
00000230: 007a 143e 955c 2a3f b122 3fbe aeb2 493d
00000240: 8520 8cbe 09d3 7e3e 5f50 b73d 7841 b9be
00000250: 2147 2fbd da01 8e3d aab0 883e 6144 53bd
00000260: e85b 81be 247e 92bc 29e1 db3e 4fa1 f7bc
00000270: 3621 11bf 6695 113e d334 a63e 2700 4a3e
00000280: 672f 07bd 7218 71bd 02f4 283e e14f b93b
00000290: fcfd d63e fc2b 833e 2964 603d d631 553e
000002a0: 648a 97be 0b04 1a3f 2800 0dbf 033d 04bd
000002b0: e7ad 00bf 4445 9f3d a2ef fa3d c680 b1bd
000002c0: e3dc a4be a390 a4bd d6fa 223e 6240 13bf
000002d0: 7635 cabd ef1f afbe 7a4d 86bd 2d0b fa3d
000002e0: c6e6 a83d d40c 3cbe cb80 50bc c58b d83d
000002f0: 1963 90bd a3ac 143f 3105 403e 15f2 30be
00000300: a6ef 8b3d 54ec c63e 0eb2 a1bd f2d4 d83c
00000310: e80f ccbd 08d1 3b3e 4934 d9bc ae64 d0be
00000320: 4bb1 febe d25a 96be 9a20 843e 6133 0b3e
00000330: 7904 c63d 13c6 60be c1e1 693e 759e 04be
00000340: 37bc 0abf 8190 0dbe db9f 23be 2049 1d3e
00000350: 48fd fe3d 3c22 843e 8c0d 7bbd 9836 793e
-0.028790446 0.04826578 0.40898657 -0.21810673 0.44075453 0.13497336 -0.6943468 0.46025407
0.047689 0.22349189 -0.21995021 0.10312932 -0.11368284 -0.14856902 -0.27717683 0.12555315
-0.033283375 0.08302959 0.22652672 -0.0731649 0.14935842 0.38020372 -0.3958488 -0.04752182
0.35729977 -0.16807768 -0.18527237 -0.40336564 0.103772715 -0.291297 -0.15930288 -0.03285712
0.25066444 0.5857294 -0.4043896 0.4542285 -0.05434 0.07576331 -0.3114902 0.046446037
0.03353363 -0.016793808 0.16412038 -0.5166101 0.1515119 0.16784711 0.041625526 -0.09121917
0.028234143 0.21644528 0.24020953 -0.026905796 -0.31031308 0.30022356 0.07298755 -0.2834994
-0.3713969 0.09374677 -0.37212643 0.28585485 9.999407e-05 0.63466376 0.3847477 0.104351036
-0.15871356 0.074965656 -0.09165841 0.07717189 -0.30521962 -0.21219724 -0.074067526 -0.27658197
-0.012319049 0.2546548 0.40714812 0.021780996 0.34916127 0.07001673 -0.13667358 -0.27902424
-0.47978863 -0.20411718 -0.08742019 -0.11239953 0.10796757 -0.35986817 0.26145214 -0.045319177
-0.47830382 0.0066511887 -0.2147175 0.15891246 0.4022178 0.23069271 0.28932834 0.7023048
0.18609582 -0.1407614 0.22272347 -0.11474277 -0.013428985 0.03512759 0.08040835 0.29434398
0.53234404 -0.017404888 0.043185756 0.08422292 0.028257238 -0.014449582 -0.014408867 0.0045308927
0.039104715 -0.16998622 0.21222068 0.012531668 0.28799558 0.14979632 -0.10660293 0.025890209
0.35374954 0.124175355 0.20322649 0.4331765 0.19376694 0.2037397 -0.063855544 -0.62107414
-0.5126854 0.07812531 -0.33651674 -0.2567649 0.29400128 -0.18846835 -0.18866287 -0.1646389
0.27348828 -0.21201079 -0.057010558 -0.27881372 0.14499664 0.6654752 -0.18665577 0.049242668
-0.2736856 0.24885191 0.089508764 -0.3618276 -0.042792443 0.06933947 0.26697284 -0.051578883
-0.2526543 -0.017882414 0.4294522 -0.030228285 -0.566913 0.14217147 0.32462177 0.1972662
-0.03300419 -0.058861203 0.16499332 0.0056552743 0.4199065 0.25619495 0.05478302 0.20819792
-0.2959777 0.6016242 -0.55078363 -0.032284748 -0.50265354 0.07776883 0.122527376 -0.0866714
-0.32199773 -0.080354 0.15915999 -0.57520115 -0.09873478 -0.3420405 -0.06557746 0.12209163
0.082471415 -0.18364269 -0.012726019 0.10573534 -0.070501514 0.5807592 0.1875198 -0.17279847
0.06832819 0.3885218 -0.07895289 0.026468728 -0.099639714 0.18341458 -0.02651419 -0.40701813
-0.4974464 -0.29366165 0.25806123 0.13593818 0.09668822 -0.2195056 0.22840025 -0.12951072
-0.54193443 -0.13824655 -0.15978949 0.15359926 0.12450653 0.2580737 -0.061292216 0.24337232

seq32_1.0.conv.bias f4 [8]
00000000: bdfd ae3e 2a95 ab3d abd7 163e a64d abbd
00000010: e8a2 f73d ed4b 69bd 504e 963d 06d4 673e
0.34177962 0.0837806 0.14730708 -0.0836442 0.12091619 -0.056957174 0.07339156 0.22639474

seq32_1.0.norm.weight f4 [8]
00000000: da74 963f 1667 843f 2533 af3f 8c6c 433e
00000010: 7b2b 9f3e 86d5 923f 4528 ad3f c516 203f
1.175441 1.0343959 1.3687483 0.19084376 0.3108786 1.1471412 1.3527914 0.62534744

seq32_1.0.norm.bias f4 [8]
00000000: 8994 103f af50 e2bd 612e b33e 122c 27bf
00000010: d685 90be aad0 093f 95ed acbe 8c49 1cbe
0.56476647 -0.110505454 0.34996322 -0.6530162 -0.2822711 0.5383402 -0.3377501 -0.15262431

seq32_1.0.norm.running_mean f4 [8]
00000000: a6bd 9642 4f0b 9041 f128 b4c1 baa3 5043
00000010: f37d 1c42 e693 0d42 de4b aec2 d890 c241
75.37041 18.005522 -22.51999 208.63956 39.122997 35.394432 -87.14818 24.320724

seq32_1.0.norm.running_var f4 [8]
00000000: 5c9c 0845 8859 3445 aaaa 8644 44da 7a46
00000010: 5b85 c745 0862 2d45 2aef a345 4ebe 6245
2185.7725 2885.5957 1077.3333 16054.566 6384.6694 2774.127 5245.8955 3627.894

seq32_1.1.conv.weight f4 [8, 8, 3, 3]
00000000: 2035 aa3e 660a 05bf 882d 813e fd4d 05be
00000010: 3b46 7c3e 6f65 9bbe 1308 31be 3bb1 523e
00000020: e92c ec3d ae7c 4abe 31a6 963e 3891 0dbe
00000030: 0e53 463e fef9 ddbe d1f7 ee3e c67d e33b
00000040: 56bf 0d3e 6254 a1be 1f3d 823e b2f7 27bd
00000050: a6d7 47bd 0a9b 94bd cbb2 9a3d 975f 20be
00000060: 37b0 b33d 2ed6 9abe a8c7 8c3e 3726 0cbe
00000070: 214a 07bd d361 d7bc adf8 5b3b 0aa3 bbbd
00000080: 0fd3 f53d 0925 6a3e ea30 15bb 7cb5 02bd
00000090: 7b85 fd3d a319 3f39 b990 d43d 1fbe f83d
000000a0: 1eac 4fbd b8dc 153c ea64 56be 3751 2b3d
000000b0: b9bc 01be 80a3 05bf 12b1 e63e f564 59be
000000c0: d1b6 a63e 38a5 83be 315c 4abd 6e5e 9f3e
000000d0: 4fae 0cbe db88 1e3d cc72 903e 73b5 6cbe
000000e0: 40c4 843e c49e c1be ada5 e33e 03b5 05bf
000000f0: be78 283e 4507 debe 7b19 c73e f7db a03e
00000100: 0c2b 813d 6026 15bc a4e1 823e 833d 18be
00000110: 3254 02bb e726 62be bd20 c33d 64dc 5bbe
00000120: 51a0 803e e49f 9dbd 4b70 d2be e740 f83e
00000130: 7777 6c3e 043e 41bf 6ed8 743e 62d0 883e
00000140: e197 20bf bb28 13be b725 4bbe 33fd 173c
00000150: 3007 7bbd 76e2 40bb e8fa 143d 0707 883d
00000160: e89a b63c 85ca 1a3d 238d 553e a732 243e
00000170: d5d3 e8be abfb a33e 412f 98be 4d6a 7b3e
00000180: 6f0a 92be aba0 bebe b0d5 523e 20df 9dbe
00000190: f02c bcbe c944 9ebd 7190 ccbe 12c2 c8bd
000001a0: 46db 793d fbf6 a8be 2b50 8ebd 429b a6bc
000001b0: ae8a f4ba cb56 67bd 15d2 14be 2eba 6b3c
000001c0: 31e9 37be 8f40 90be 2891 84bc 0cbd 6ebe
000001d0: 8120 f5be 8e5e db3c fb9f 58be b67f be3e
000001e0: 6986 22be c391 41bd 725e 033e e714 1fbe
000001f0: e777 2dbe b01f 433d 598f 49be 9e44 7c3c
00000200: 0874 91bd 8468 b93a 798f 38be 0937 823e
00000210: 5adb 853e 144c 143d 69d7 35be 3896 6c3e
00000220: beac 9d3c 2a11 f3be da2c 243e c449 693e
00000230: 43fb 5d3d 18bb 8bbd ec85 b53d 57be 25be
00000240: a74d cebd 5b7e 0abd 46f9 5f3e 4f2b 60bd
00000250: 0f0d 58be 45f9 20bb fe93 0dbe cf2f 3e3d
00000260: c86f 003e 1f9c bb3c 35c7 a5be 7af2 b9bc
00000270: 19b7 96be 57eb 93be cdfe c6ba 90f0 253e
00000280: 823b 613e 2744 f33e cd59 2ebe 8a19 cbbe
00000290: 422d f4be a653 01bf 0a2d 8cbe 0e40 6abe
000002a0: 5184 1b3e bca6 553f 6d57 2b3f e890 68be
000002b0: 550a 0f3d 0ce1 0bbe d875 edbd 459f 32bd
000002c0: e3ee 9ebe a4bb 4abe 848f 45be 2a5d a3be
000002d0: 77d2 083c 9fa5 8abe d190 c2bd 72ef 573e
000002e0: 0357 743d e30a 31be f85e 563d fdfa 90be
000002f0: 96b6 b2be 1a15 fdbd 9ab5 07be 862d f9bd
00000300: c678 b5bd 9158 04bd e79d e8bc 6572 de3d
00000310: 41e9 233e 9d06 8f3e 6bf1 6ebd 0112 1f3e
00000320: 699a b73e 5c30 503d 4aca 553e d02b 013e
00000330: da56 78bd 3061 64be 3409 94bd 4bef 343e
00000340: 7698 fdbd a5f5 563d fb1c 0dbd 591e 4ebe
00000350: 91c0 f13c 0c24 373e e4fc c9bd 4cfe 853d
00000360: 2b42 553e 46f2 7d3e 4fb2 bebe 2085 8c3e
00000370: 114b 50be 5fd7 253f 3ec3 9f3e 2d30 3c3d
00000380: 2df0 3cbe e59f 593e 80e0 40be 940b b83e
00000390: f50c 23bd f891 8c3d cd88 14bf 3df4 8f3d
000003a0: 75f5 a7bd 2216 6d3e 0b35 04bd 0807 a83d
000003b0: bcc3 933e a04d 17be 8527 d63b 20d0 5d3e
000003c0: 1d5d 883e c233 3f3e 46d7 5ebe 317f 033f
000003d0: 35b7 453e 9237 163d 8ff1 923e 8d4f 823e
000003e0: 9b37 22be ca7b 003f deed 7d3e 8e7f 54bd
000003f0: e367 b83e 1b8b bb3c c78f 0b3c f83c 113e
0.33243656 -0.5196899 0.2523005 -0.13018031 0.24636166 -0.30350825 -0.17288236 0.2057542
0.115320034 -0.19774124 0.2942367 -0.13824928 0.1936762 -0.4335479 0.46673444 0.0069424836
0.1384252 -0.3150969 0.25437257 -0.041007705 -0.048789643 -0.07256134 0.07553633 -0.15661465
0.08773845 -0.3024153 0.27496076 -0.13686453 -0.03302968 -0.026291763 0.003356497 -0.091619566
0.12003147 0.2286569 -0.002276475 -0.03191136 0.12378975 0.0001822473 0.10379166 0.12145638
-0.050701253 0.009146862 -0.20936933 0.0418255 -0.12669648 -0.52202606 0.4505697 -0.21229918
0.32561353 -0.2571199 -0.049404327 0.31126732 -0.13738368 0.038704734 0.28212583 -0.23116092
0.25930977 -0.3781644 0.44462338 -0.52229327 0.1645231 -0.4336492 0.38886628 0.3141782
0.06307039 -0.009103388 0.25562775 -0.14867215 -0.001988661 -0.22085153 0.09527729 -0.21470791
0.25122312 -0.07696512 -0.41101298 0.48487017 0.23092447 -0.75485253 0.23910686 0.26721483
-0.6273175 -0.14371006 -0.19838606 0.009276676 -0.06128615 -0.0029431856 0.036372095 0.06641965
0.022290662 0.037790794 0.2085462 0.16034947 -0.45474115 0.32027945 -0.29723552 0.2455227
-0.28523585 -0.37231955 0.20589328 -0.30834293 -0.36753035 -0.077279635 -0.3995395 -0.09802641
0.06100013 -0.3300093 -0.069488846 -0.020337705 -0.0018657052 -0.056479257 -0.14533265 0.01438765
-0.17960049 -0.28174254 -0.016182497 -0.23314303 -0.4787636 0.026778486 -0.21154778 0.3720681
-0.15871586 -0.04725815 0.12828997 -0.15535317 -0.1694027 0.04763764 -0.19683589 0.015397219
-0.07102209 0.0014145528 -0.1802348 0.25432613 0.26143914 0.036205366 -0.17757954 0.23104179
0.019247409 -0.47474033 0.16032735 0.22782046 0.0541947 -0.06822795 0.08863434 -0.1618589
-0.10073405 -0.03381191 0.21872434 -0.054728802 -0.21098731 -0.0024562639 -0.13825986 0.046432313
0.12542641 0.022901593 -0.32378545 -0.02269863 -0.29436567 -0.28890488 -0.0015182138 0.16205049
0.21995357 0.47512934 -0.17026444 -0.39667922 -0.4769078 -0.5051826 -0.27378112 -0.22875997
0.15187193 0.8345754 0.66930276 -0.22711527 0.034921963 -0.13660067 -0.115947425 -0.043608923
-0.3104163 -0.19798142 -0.19293028 -0.31907016 0.00835096 -0.27079484 -0.09500278 0.21087435
0.059653293 -0.17289309 0.052336663 -0.2831649 -0.34904927 -0.123575404 -0.13252869 -0.12166886
-0.08860926 -0.032311026 -0.028395606 0.10861663 0.16006948 0.27934733 -0.058335703 0.15534212
0.35859993 0.05082737 0.20877948 0.1261437 -0.060629703 -0.22302699 -0.07228318 0.17669408
-0.12382595 0.05248036 -0.034451466 -0.20128764 0.029510768 0.17884845 -0.09862688 0.06542644
0.20826022 0.24799451 -0.37245414 0.27445316 -0.20341136 0.64781755 0.31203645 0.04594438
-0.18450995 0.21252401 -0.1883564 0.35946333 -0.03980728 0.06863779 -0.5802124 0.07029007
-0.08201114 0.23152974 -0.03227715 0.08204466 0.2886027 -0.14775705 0.006535473 0.21661425
0.2663354 0.18672088 -0.21761808 0.51365954 0.19308169 0.03667409 0.2869992 0.25451317
-0.15841524 0.5018889 0.2479777 -0.051879458 0.3601676 0.02289348 0.008518166 0.14183414

seq32_1.1.conv.bias f4 [8]
00000000: 40ee 0cbe 3267 af3e f5cc cf3d 581b 943d
00000010: 79f7 9bbd a45a 2e3d 29f7 01be dda3 72be
-0.1376276 0.3425842 0.10146514 0.07231778 -0.07615561 0.04256691 -0.1269194 -0.23695321

seq32_1.1.norm.weight f4 [8]
00000000: c628 e63f 80f8 6d3f 6b51 593f 8821 3f3f
00000010: 7b05 863f e88e 303f 8b90 8f3f a1e2 3d3f
1.7981193 0.92957306 0.8488986 0.7466054 1.0470423 0.6896806 1.1215986 0.74173933

seq32_1.1.norm.bias f4 [8]
00000000: b9ce 693e 276b 34be 1263 fcbd bed0 b3be
00000010: 8999 b8bd 3c40 b2bd a938 c83e fea4 03be
0.22832765 -0.17619 -0.12323584 -0.35120195 -0.090136595 -0.08703658 0.39105728 -0.12855908

seq32_1.1.norm.running_mean f4 [8]
00000000: 8d6f e6bd b55d 4ebd 46f5 f53d 3108 973f
00000010: f144 07bf 1d52 8b3c 0f78 d3be 1f0d 32c0
-0.112517454 -0.050382335 0.12009673 1.1799375 -0.5283957 0.017006928 -0.41302535 -2.7820508

seq32_1.1.norm.running_var f4 [8]
00000000: d02b 7b40 f659 f33f e061 4a40 36b3 6d40
00000010: 3e24 1640 fa4d 4c40 1c17 1c40 4189 9b40
3.924549 1.9011829 3.1622238 3.7140632 2.345962 3.1922593 2.4389105 4.8605046

seq32_1.2.conv.weight f4 [8, 8, 1, 1]
00000000: eb2e 203b 1be0 a03e 2fb6 873d df45 9e3d
00000010: b336 88be 04de 573e 7ecd 5b3f 0f1f 01be
00000020: 9aab b93e d678 a4bd edd4 c4be fd60 1ebe
00000030: a1ec 07bf 13fa b83c c8fd 8f3d 13e6 583e
00000040: c4c6 fe3d 5d92 a1be 856d bb3e 9a4f dfbc
00000050: 1e4d 68bf 191d 793e 0f56 4c3e 52ac 833e
00000060: 71e0 5a3e 7c9a cc3e ef96 0a3e 17cf e1be
00000070: 81ee bf3e a024 a53e 28c1 e5be 5eb2 bebe
00000080: 6900 46bf 22e5 0fbe 14e4 053d 5f9d 653d
00000090: be06 343c 65c1 b1be 2c25 983e 8d07 cabc
000000a0: 8d65 3fbf 58d0 483d 6009 5fbd 779b 9bbe
000000b0: d733 9bbd 788d af3d 5eca 05be 17f4 4fbd
000000c0: 304b 8f3e c40b 33be 10c6 353f 9263 34bd
000000d0: 2c12 bd3c 6698 f5bd a3f4 a8be d2cf 823d
000000e0: a211 87bf 4fc8 613d 5c23 a2bd e041 483e
000000f0: 4f77 023e 7715 a4be 6a20 60be 4065 06bd
0.0024442028 0.3142098 0.06626546 0.077281706 -0.26604232 0.21080786 0.8586043 -0.12609504
0.36263734 -0.0803086 -0.384437 -0.15466686 -0.5309544 0.022580182 0.07030827 0.21181516
0.12440255 -0.3155698 0.36606994 -0.027259637 -0.9074267 0.24327506 0.19954704 0.25717407
0.2137468 0.39961612 0.13534139 -0.4410331 0.37486652 0.32254505 -0.4487393 -0.37245458
-0.77344376 -0.14052251 0.032688215 0.056058284 0.010987936 -0.3471786 0.2971586 -0.024661804
-0.7476433 0.049026817 -0.0544523 -0.30392048 -0.07578247 0.08571905 -0.13065478 -0.05076989
0.2798705 -0.17484957 0.71005344 -0.04404027 0.023079954 -0.11991958 -0.32999143 0.06387295
-1.0552256 0.05512267 -0.079169005 0.1955638 0.12740825 -0.32047626 -0.21887365 -0.032811403

seq32_1.2.conv.bias f4 [8]
00000000: e52d 023e 6be6 b6be 26db d93d c66d 84be
00000010: 1cec 953e d16d 05be b5b7 88be aef0 98be
0.1271282 -0.3572267 0.10637502 -0.25865 0.292817 -0.13030173 -0.26702657 -0.29871124

seq32_1.2.norm.weight f4 [8]
00000000: 17a6 8e3f 102c 633f dd70 843f 9009 e53f
00000010: ddf7 863f 06dd 7c3f 5682 a63f 5d47 af3f
1.1144437 0.8873911 1.0346943 1.7893543 1.0544392 0.98774755 1.3008525 1.3693653

seq32_1.2.norm.bias f4 [8]
00000000: 99e5 3c3e 811c 12be e90d 69be 5794 afbb
00000010: a482 0fbe d31e 23be 7cbb 3c3d 7879 17bd
0.1844696 -0.14268686 -0.22759213 -0.0053582597 -0.14014679 -0.15929727 0.046077237 -0.036981076

seq32_1.2.norm.running_mean f4 [8]
00000000: 80c2 253f f136 86be abc3 213e 7f76 83be
00000010: 5c79 8dbd d8a6 32bf a924 61be 628a 8bbf
0.6474991 -0.26213792 0.15797298 -0.25676343 -0.06907913 -0.69785833 -0.21986641 -1.0901606

seq32_1.2.norm.running_var f4 [8]
00000000: 5b3e 033f 100e f93e 2da3 453f 54f8 0b3f
00000010: cd42 9c3f 250c 473f 6e55 e53e f9f3 ee3f
0.5126702 0.4864354 0.7720211 0.54675794 1.2207886 0.77752906 0.4479174 1.8668205

join16_32.norm1.weight f4 [8]
00000000: 9c54 743f 66e7 af3f f8da fe3f efd9 3b3f
00000010: bd96 253f b7a3 803f 4bbc 363f bd0b 143f
0.95441604 1.3742492 1.9910574 0.73379415 0.64683133 1.0049962 0.7138106 0.5783041

join16_32.norm1.bias f4 [8]
00000000: bd4f d63d 84d4 933e e436 52bd 8392 c83d
00000010: 2105 92be dc6d 2c3e 88b8 043f 5480 64be
0.104644276 0.28873074 -0.05132188 0.0979357 -0.28519538 0.16838783 0.5184407 -0.22314578

join16_32.norm1.running_mean f4 [8]
00000000: 2779 e93e d2e8 c53e 5a80 b2bc 046e f33e
00000010: 93b1 cd3e 68e6 a33e 6843 ae3e 012c 2b3f
0.45600244 0.3865419 -0.021789718 0.47544873 0.4017454 0.32011724 0.34035802 0.6686402

join16_32.norm1.running_var f4 [8]
00000000: 3047 663e 19f9 b23e b181 e53c 1896 593e
00000010: 4786 4f3e 0810 4f3e 3bb8 4f3e 089c ac3d
0.22488093 0.3495567 0.028015943 0.21248662 0.20266066 0.20220959 0.20285122 0.08428198

join16_32.norm2.weight f4 [8]
00000000: d62d 313f ac7e 133f 0122 1f3f 5347 843f
00000010: 107b 443f a4dd 623f 53ab 033f c525 5d3f
0.69210565 0.5761516 0.6216126 1.0334266 0.7675028 0.88619447 0.51433295 0.86385757

join16_32.norm2.bias f4 [8]
00000000: 55b3 e23c 907b 86be 90f2 9a3c 8365 063d
00000010: 7af1 cfbd 3173 293d 59b8 863e 8354 26bc
0.027673403 -0.26266146 0.018914491 0.032811653 -0.1015348 0.04136962 0.2631252 -0.010151985

join16_32.norm2.running_mean f4 [8]
00000000: 9730 d53e 7879 233e c7cf 103e ba33 003f
00000010: e9f7 403e da8c 1a3e 683f c43e 8368 b03e
0.41638634 0.15964305 0.14141761 0.5007893 0.1884457 0.15092793 0.38329625 0.34454736

join16_32.norm2.running_var f4 [8]
00000000: 7243 533f c0e2 b33e 2f6b 913e 5dbe c03f
00000010: 7c84 5b3e d26d 033e f8d0 833f b58b b83e
0.8252479 0.35133934 0.28402087 1.5058094 0.21437258 0.12834862 1.0298147 0.36044088

seq32_2.0.conv.weight f4 [16, 16, 3, 3]
00000000: 3aeb 173e f0eb 9e3e f3a9 dd3d a655 89bd
00000010: f8b5 843e b98e 323e 447c 49be a25d c23d
00000020: ede4 d7bd cac7 3a3e 8706 913d 6828 23bd
00000030: b5f4 c23b 406c cb3d 02d4 82bd 70c0 5d3d
00000040: 3ee4 713d 1f55 05be 3f32 bebe d539 ddbe
00000050: 1e6f 073f 5b63 e6be cb6b 2cbf 82ac 763e
00000060: adc0 20bf fbc8 e6be 4604 2f3f ae72 a4bd
00000070: ecc4 aabb 1c60 c63d 07cd 73bd 1223 49be
00000080: b441 103e fbc7 d8bd 62db 2fbe e7e6 b63d
00000090: b270 ee3d 70c7 4abd 4915 92bc 454a a33d
000000a0: 787d 4bbd aeb3 653e 94c3 663e 0df3 f23d
000000b0: 1e66 993e a19c d13b cc20 3a3e c7c8 a3bd
000000c0: f690 f1bd ee77 243d 4a27 b7bd ecd1 32bd
000000d0: 9639 ef3b 1839 68be 530c d8bd c155 4d3e
000000e0: a147 a0bc 88e3 85bd 6508 5e3e 6d21 173d
000000f0: 9126 d03d d91a 293e 2772 e5bd fd4a bb3e
00000100: fd20 413e 2c06 663d cc95 103e 31ab eb3d
00000110: 9aa8 893d 8f22 c63d e1d3 2f3e d305 973e
00000120: 7cec 4abe c494 773d 1de4 893e a696 e43c
00000130: 7788 6fba 9217 323e b9ae a13e 8b32 643e
00000140: 5e95 bd3e c82d 3cbd 1778 853d 4b4c 8abe
00000150: 11b2 cabe 818e 4e3e c1dc 7abe 8736 2bbe
00000160: 7140 78be f96e 98be 1851 f93d dbac 4b3e
00000170: fe0e 083f 4e4f 5c3e c4b6 343f 3f6c f03e
00000180: 23c3 973e a649 ac3e 92fb f13e 50a6 8abd
00000190: 3d81 e43d e92b b73d 4a17 873d f0ab af3e
000001a0: 4ba4 843e de4a ad3e c668 e13e 2fb5 c33e
000001b0: 4497 673d 69c3 a03e 4343 8c3e 96c3 c83c
000001c0: 362b a33e e390 5f3e f530 9fbd f33c 293e
000001d0: e7a3 853e 914e f73c 6fd8 68be 473b babe
000001e0: df7b e3bc c4db 323e 34b1 33be 638f 4cbd
000001f0: df63 6bbe 6f5b f8be 875a 00bf 7324 33be
00000200: ab6c ac3e 9448 8bbe 9622 543e f6cb dc3d
00000210: 50aa 87be ab8f 82bb c8ed c53e e9f4 07bd
00000220: cb6f 4cbd 2cb7 483e 61a4 17be 149c 51be
00000230: aad9 803d 5a1e 22bd 7923 b33c 3648 543e
00000240: 3584 16bf d76b bebe daea cbbe 890c dbbd
00000250: 8e1b 643d 9640 0fbe be85 57bd bfde 253c
00000260: 0b90 fdbd 8b6d 87bd c734 02be a035 a53d
00000270: a8a4 32be c934 0b3c cf67 9b3e e2a1 02be
00000280: d759 ecbc 9895 f43d beb5 153f ac72 4bbe
00000290: 8c3e 4dbe 8569 553d 80af 93be ea8f 77bd
000002a0: 34c6 f33e ce37 01bc 381a adbc a955 1ebf
000002b0: 8df3 17bc c724 1e3d d937 29be 1c1f 943e
000002c0: 7d81 0d3e 0dee 8abe 9ef1 3b3e a3ca a13c
000002d0: 572f 2cbe e2d4 09be 940d 4cbe 4eb7 d93c
000002e0: 4366 09bd b87b cebd 3b6e 01be 3581 4dbb
000002f0: 142f fcbc 13cd 20bf f0b4 8c3d 851a 673e
00000300: ef16 b9be bc99 473e c0a6 de3d 2c24 2abf
00000310: d816 823d 61fc 063e 24c4 c9be c34e c23d
00000320: 4bc1 af3c e1e5 4bbe 125a 1e3e 844f b03c
00000330: 62e3 d2be a50f 5d3d 98b7 0e3e a0da abbe
00000340: 8251 29bd c393 04bd 6a33 16be ad45 09bd
00000350: c121 72bc 30dc fcbe a8ae 5dbe 4954 77be
00000360: 420e cabe 1031 8bbd 975d bfbe 3f67 9dbe
00000370: 6a61 49bd 621c 3cbe 22df dcbe cdae 2dbe
00000380: 5891 bebe 6de6 bdbe 669b a8bc 9521 183e
00000390: 031f cabc 199e 783c 1c5c c53e c3fe 55be
000003a0: 2533 853d 753b b03d 9042 92be 8c4c 3abe
000003b0: 7632 cdbe 443f 9dbe 8c23 d5be 7a34 80be
000003c0: f2aa 14bf 1a31 0abd 4264 d7be 99b1 ddbe
000003d0: 958a 26be 823e 8fbe a3f3 97be ea92 5ebe
000003e0: 75e8 38be 8618 34bf 691c cfbe 730d 07bf
000003f0: f22d c73c 745a 1c3e 31ce 8bbe 083b a1be
0.14835826 0.3103938 0.10823431 -0.06705789 0.2592008 0.17437257 -0.1967631 0.09490515
-0.10541711 0.18240276 0.07081323 -0.039833456 0.0059495815 0.099327564 -0.063880935 0.0541386
0.05905556 -0.13020752 -0.3714771 -0.43208185 0.52903926 -0.44997677 -0.6735198 0.24089244
-0.62794 -0.4507521 0.68365896 -0.08029686 -0.005211463 0.096863 -0.0595217 -0.19642285
0.14087564 -0.10585018 -0.17173532 0.0893076 0.11642589 -0.049506605 -0.017832415 0.0797315
-0.049680203 0.22431824 0.22535545 0.118627645 0.29960722 0.0063968454 0.18176574 -0.079972796
-0.11795227 0.040153436 -0.08943041 -0.04365723 0.007300566 -0.2267803 -0.10549226 0.20052244
-0.019565405 -0.06537539 0.2168289 0.03689711 0.10163606 0.16514148 -0.112034135 0.3658065
0.1886024 0.05615823 0.14119643 0.115072615 0.06721611 0.0967456 0.17170669 0.2949663
-0.19816774 0.06044461 0.2693185 0.027903866 -0.00091374613 0.17391804 0.31578615 0.22284906
0.3702802 -0.045942098 0.06517046 -0.27011332 -0.3958898 0.20171548 -0.24498273 -0.1672002
-0.24243332 -0.29772165 0.121736705 0.19890158 0.53147876 0.21514627 0.7059138 0.46957585
0.29641065 0.3364994 0.47262245 -0.06770003 0.11157463 0.08943922 0.06596239 0.34310865
0.25906596 0.33846182 0.44025248 0.3822417 0.056540743 0.31399086 0.27395067 0.024507325
0.31868905 0.21832614 -0.0777301 0.16527157 0.2610161 0.03018883 -0.22738813 -0.3637335
-0.027769027 0.17466646 -0.17548066 -0.04994143 -0.22987317 -0.48507258 -0.50138134 -0.17494373
0.33676657 -0.2720381 0.20716318 0.1078109 -0.26497126 -0.0039844117 0.38657975 -0.03319255
-0.0499113 0.19601125 -0.148088 -0.20469695 0.06291516 -0.039579727 0.0218675 0.20730671
-0.5879548 -0.3719165 -0.39827615 -0.1069575 0.05569034 -0.13989481 -0.05261778 0.010123908
-0.1238099 -0.066126905 -0.12715445 0.08066869 -0.17445624 0.008496472 0.30352637 -0.12757066
-0.028851433 0.11942595 0.5848044 -0.19867963 -0.20043391 0.052102584 -0.28844833 -0.06043998
0.47612154 -0.00788684 -0.021130666 -0.6184946 -0.009274376 0.038609292 -0.1652521 0.28929985
0.13818927 -0.27134743 0.18353888 0.019749945 -0.16814934 -0.13460115 -0.19927055 0.026576664
-0.03354479 -0.10082191 -0.12639706 -0.003135753 -0.030784167 -0.6281292 0.068704486 0.2256871
-0.3615031 0.19492239 0.10871649 -0.66461444 0.06352013 0.13182212 -0.39407456 0.09487679
0.021454474 -0.1991191 0.15464047 0.021522291 -0.41189104 0.053969998 0.13937223 -0.33565235
-0.041337498 -0.03236748 -0.1466805 -0.033513714 -0.014778555 -0.4938674 -0.21648657 -0.24153246
-0.39464003 -0.06796467 -0.3737609 -0.30742833 -0.049165167 -0.18370202 -0.43138987 -0.16961212
-0.37220263 -0.37089863 -0.020581912 0.1485656 -0.02467299 0.015174412 0.38546836 -0.20897965
0.06503896 0.086050905 -0.28566408 -0.18193263 -0.4007756 -0.3071233 -0.41628683 -0.25040036
-0.5807334 -0.033738233 -0.42068678 -0.4329956 -0.16263802 -0.27977377 -0.29678068 -0.21735731
-0.18057425 -0.7034992 -0.40451363 -0.52754897 0.0243139 0.1526888 -0.2730575 -0.3149035

seq32_2.0.conv.bias f4 [16]
00000000: 107e 26bf f8fb b7be 7fe1 033e 6c65 ec3e
00000010: 9761 823d 260b b0bd 7b94 0f3d e12e a03e
00000020: fdba 553e ca34 32be b11a 2cbe dddd e2bc
00000030: 94d3 1cbe 73a3 0a3d e437 bcbd c89c 94be
-0.65036106 -0.35934424 0.12878989 0.4617113 0.0636627 -0.085958764 0.03505371 0.31285766
0.20872112 -0.1740295 -0.16807057 -0.027693683 -0.15315086 0.033847284 -0.09190348 -0.29025865

seq32_2.0.norm.weight f4 [16]
00000000: 2ecb 5b3f ee17 713f 1a9a 563f dfcc 203f
00000010: 776f 983f 1be3 383f 50f2 203f 8e97 bd3e
00000020: b261 4b3f 6ff3 1e3f f4d2 4c3f 2be9 a73f
00000030: 4b1a 883f e16c 2d3f 6ab7 d03f 58e5 383f
0.858569 0.9417714 0.8382889 0.6281261 1.1909016 0.72221535 0.6286974 0.3702969
0.79445946 0.620902 0.8000939 1.3118032 1.0633024 0.6774426 1.6305974 0.7222495

seq32_2.0.norm.bias f4 [16]
00000000: 36f5 373e 7187 bebe c625 95bd 7bce 41be
00000010: 2615 72bd 5245 ae3e 3413 35be 2bd7 1c3e
00000020: e01e 85bd 31da 7b3e cc9d 3bbf ce32 43bf
00000030: 123d 37bf 9ad1 e9bd 164b 48bf 6eac fb3d
0.17964634 -0.3721271 -0.07282595 -0.18926422 -0.0591022 0.34037262 -0.17683107 0.15316455
-0.065000296 0.24594952 -0.73287654 -0.76249397 -0.7157756 -0.114169315 -0.7823957 0.12288748

seq32_2.0.norm.running_mean f4 [16]
00000000: 4b3b 22bf 7ca2 9bbf 622e 15be 3aae ad3f
00000010: edf1 96bf 46f7 63bf c732 a7bf 0762 51bf
00000020: 4163 c7bd 09e9 0bc0 7349 ebbe c67f 6cbf
00000030: ca02 24c0 f984 e5be b4a0 54bc b907 1bbf
-0.63371724 -1.2158961 -0.14568475 1.3568795 -1.179258 -0.89049184 -1.3062371 -0.817902
-0.09735728 -2.1860983 -0.45954475 -0.92382467 -2.5626702 -0.44828013 -0.012977768 -0.6055866

seq32_2.0.norm.running_var f4 [16]
00000000: 7e8d b641 5943 bc41 2f4d 8741 1ab1 d641
00000010: b036 eb41 5758 2241 522b 6341 4f12 4441
00000020: e75f 8041 85ab 6f41 bd5b 8141 888f a941
00000030: 275d ea41 9395 c241 a0fb 6c41 6eab 7641
22.819088 23.532885 16.912687 26.836475 29.401703 10.146567 14.198076 12.25447
16.046827 14.979375 16.169794 21.195084 29.295485 24.323034 14.811432 15.416853

seq32_2.1.conv.weight f4 [16, 16, 3, 3]
00000000: b993 0d3e f483 40bd 8310 db3c e9b7 403d
00000010: 52b6 903d d970 03be 5e8a 913d 7173 9e3c
00000020: eca1 0f3d db6b 15be 9a38 073e aa10 35bd
00000030: 3398 2f3e 0040 d83d a3c4 c2bd 245e 753e
00000040: cc94 9f3d 350a 2bbd d380 083e 7553 0bbe
00000050: 7fa5 313d 451f 193e 26b8 2cbe 86a9 963d
00000060: 8338 a5bc b748 673d 377b f0bd 4779 8abc
00000070: 6a85 423e b14e a5bd d34b a43e 1c69 3cbe
00000080: efd7 323e 8625 64bd 5f28 b93d ec03 2fbe
00000090: b024 343e 0a4a 62bd 1ae3 733d a56f b9bc
000000a0: bd87 ed3d 8ca4 4fbe ff88 0c3e 5cec ebbd
000000b0: 2423 0e3d 092d 413d 83ef 77be 409e 673d
000000c0: c3f4 31be 4a83 663e d20a d13d 969a c4bc
000000d0: 4e8b 8cbe e533 b33d 3343 32be 5943 4dbd
000000e0: e243 483d 1d0d 1abe 1db2 f2bd 40f3 9dbc
000000f0: 8ede bf3c a4c1 2d3e 63a1 1abd acd1 cabe
00000100: 59d9 2f3e 58a9 9d3d fac9 223e db61 55be
00000110: 130a b9bd 8fb9 a8bd b502 933e ae69 863c
00000120: c393 463e 643d 12be 96aa e7bb 96b2 cfbe
00000130: 1973 193e 0422 77be a408 933b 3a2f 4abe
00000140: d0c7 513e 347e ea3d 87b3 613d f129 23bd
00000150: ba7c 323c 3409 623c 78da c63b bcfb 86bb
00000160: e16e bfbd 3ebc c83c 6a32 783d 146e 593d
00000170: 3220 51be a4ad 203d caed 4ebe 9013 b7bd
00000180: d57b 943e ccd9 94be c78e 053e 0261 89bc
00000190: 2500 f33d e563 b73d 2e9e bf3e 4435 78be
000001a0: 139b 86be 6d86 71be 1159 493e 5e67 e7bc
000001b0: 3598 543d c374 153c f210 63bd b8ef 0ebd
000001c0: 2eff 11bc e0ee 3ebd b25e 593e 478d b8bd
000001d0: 5d2a 0f3e 90a8 13bf df12 743e d8f3 083e
000001e0: 93a5 ae3e 79a7 d4be f83e 7a3d 5e49 523d
000001f0: 9fc4 653e fdec 0bbd a5b1 2c3f 2943 0cbf
00000200: 6a48 da3e e230 74bf 937b 533f 5536 66bf
00000210: 1fbd a13e 2870 41bf 9ed1 283f 7013 c8bd
00000220: 7b3b 123d 37c2 efbd c78b 7a3e 9403 e9be
00000230: a675 9d3e 2645 81be 42aa 6e3e aea7 72be
00000240: b13f 8fbe aded 1fbd 8b05 c7be 1ed6 1ebe
00000250: dccf 333e 17b9 adbe 0853 93be 22cf 1abd
00000260: bd50 84be 6394 873e 485f 293d 4479 bdbc
00000270: bc1a 993c b426 dabd 40e6 8cbe f6f3 15be
00000280: abae 5abe ea66 c8be 8ea6 f13d f2a7 7b3d
00000290: 4c8b ccbe 680a 953e e6b4 b33e 89f8 27be
000002a0: 723f d6bd 277c 623d d9f8 c7be ec3c 8dbe
000002b0: 2533 8abe 655b c2be cac9 6fbc 9546 1bbd
000002c0: f534 ce3b ffc3 d93d d8e2 143e 5d33 4f3c
000002d0: 0f77 3d3e 58c7 c2bd dd67 63bf 6cc1 433e
000002e0: 85a0 2a3e 2df6 29bf 382b b83d 3f9d 5abe
000002f0: 2aff 2bbf d14c cbbe d1d0 fd3d 4e31 00bf
00000300: 80cb f0bd 2cba bf3e 7057 73bd 603d 2bbe
00000310: e822 df3d dbbb 80be 9a6b ca3d 8d7b be3d
00000320: 1465 48bc 41ef 333d 433b 833d 9a93 e7bc
00000330: ee8c 90be 6a9d 30be b1cf a2be a251 98be
00000340: e208 8abe 5265 8e3c caaf d4bd 8d11 aabd
00000350: c20f fb3d d5f1 e5bc cd46 613e cf96 8d3e
00000360: 60d8 36be e558 53be 47bc aebe d217 d4bc
00000370: a0f7 5d3e 20cd dcbd b848 dabc ea6a 043e
00000380: be90 0ebd 3034 99be ec48 c03d b4dc 743e
00000390: b385 2ebe 5f57 283e 8bf8 993e 9b00 6bbe
000003a0: 3405 963d 4300 d33e 7d89 073d cc5f 43be
000003b0: 266a a1be 742f 593e f153 0cbe 1516 e1bd
000003c0: d0ff a9bc a46e ffbe 7ff0 abbe baa5 a13d
000003d0: 322a 75be c038 05bf 1c06 233e 312b d3bd
000003e0: 7b54 91be 400e 4a3e 1a80 74bd adda 3bbe
000003f0: fd7a 323e 4a03 95be cf51 79be 29d4 903e
0.13825883 -0.04700084 0.026741272 0.04705039 0.07066025 -0.12836017 0.071064696 0.019342156
0.03506653 -0.14591925 0.13205186 -0.044205345 0.17147903 0.10559082 -0.09510162 0.23961693
0.077920526 -0.04175778 0.13330393 -0.13606055 0.04337072 0.14953335 -0.16867122 0.07356553
-0.020168548 0.05646583 -0.11742251 -0.016903533 0.18996206 -0.0807165 0.320891 -0.18399471
0.17465185 -0.055699848 0.09040903 -0.1709134 0.1759212 -0.05524639 0.059542753 -0.022636244
0.11598156 -0.20277613 0.13724135 -0.11519691 0.03470148 0.04716209 -0.2421246 0.056547403
-0.17378525 0.2251102 0.10207142 -0.023999494 -0.2745003 0.087501325 -0.17408447 -0.050113056
0.048892863 -0.15044065 -0.11850379 -0.01928103 0.023421552 0.169684 -0.037751567 -0.39613092
0.17172755 0.076983154 0.1589736 -0.2083811 -0.09035125 -0.082385175 0.28713003 0.016407814
0.19392304 -0.14281231 -0.007069896 -0.40565938 0.14985313 -0.2413407 0.004487114 -0.19744578
0.20486379 0.114498526 0.05510285 -0.03983492 0.010893995 0.0137961395 0.006068524 -0.0041193645
-0.0934732 0.024503823 0.060594954 0.053083494 -0.20422438 0.039228097 -0.20207897 -0.08939278
0.29000726 -0.29072416 0.13042746 -0.01676989 0.11865262 0.089546 0.3742537 -0.24239069
-0.26290187 -0.23586436 0.19662882 -0.028247532 0.05190297 0.009122076 -0.055436082 -0.034896582
-0.008910937 -0.046614528 0.2122753 -0.090113215 0.13981004 -0.5767908 0.23835324 0.13374269
0.34110698 -0.41534021 0.061095208 0.0513395 0.22438286 -0.034161557 0.67458564 -0.5478998
0.42633373 -0.9538709 0.82610434 -0.89926654 0.315896 -0.7556176 0.6594485 -0.097693324
0.035701256 -0.117069654 0.24467383 -0.45510542 0.3075382 -0.2524807 0.23307136 -0.23696777
-0.2797828 -0.039045025 -0.38871416 -0.15511367 0.17559761 -0.33930275 -0.28774285 -0.037795193
-0.25842848 0.26480398 0.041350633 -0.023129113 0.018689506 -0.10651913 -0.27519417 -0.14643845
-0.21355693 -0.39141017 0.11799346 0.061439462 -0.39950025 0.29109502 0.35098952 -0.16403402
-0.1046132 0.055294182 -0.39057043 -0.27585542 -0.26992145 -0.37960353 -0.014635513 -0.03790911
0.006292934 0.106330864 0.14539659 0.012646523 0.18502448 -0.09510678 -0.8883036 0.19116753
0.16662796 -0.6639126 0.08992618 -0.21349047 -0.67186224 -0.39707044 0.12393344 -0.50075233
-0.117575645 0.37446725 -0.05940956 -0.16722631 0.1089533 -0.25143322 0.098838046 0.09300909
-0.01223113 0.043929342 0.06407788 -0.028268624 -0.2823252 -0.17247549 -0.3179908 -0.2974978
-0.26959902 0.017382298 -0.103850916 -0.08304129 0.12258865 -0.028069416 0.21999665 0.2765412
-0.17855978 -0.2063938 -0.3412802 -0.025890265 0.21676493 -0.10781312 -0.026646003 0.1293141
-0.034806006 -0.29922628 0.09388909 0.23912317 -0.1704319 0.1643958 0.30072436 -0.2294945
0.07325211 0.41211137 0.033090103 -0.19079512 -0.31526297 0.21209508 -0.13703896 -0.1099054
-0.020751864 -0.498891 -0.3358192 0.07892938 -0.23941877 -0.5203972 0.159203 -0.103109725
-0.28384766 0.19731998 -0.05969248 -0.18345137 0.17429729 -0.29104072 -0.24347614 0.28286865

seq32_2.1.conv.bias f4 [16]
00000000: 63ac bd3e ea3a c43e b837 cabd ebf0 62be
00000010: ae6b b93d 70c5 b43e 59a5 813e 3bbd 983c
00000020: e041 883e 4790 a23e 53ae c5be 4c17 9c3d
00000030: d5ce 1bbd 7b1a 8b3e 7118 cfbd f2f1 1abc
0.37045583 0.38326198 -0.09873909 -0.22162215 0.090537414 0.35306883 0.25321463 0.01864492
0.2661276 0.317507 -0.3860956 0.07621631 -0.038039047 0.2716864 -0.10112084 -0.009457098

seq32_2.1.norm.weight f4 [16]
00000000: d450 db3f ab4a 5b3f d1a1 683f 243c 813f
00000010: 1e61 7a3f 63da 6c3f d66b 8a3f 5873 243f
00000020: c7cd 683f 4c71 5d3f e887 643f ab81 5a3f
00000030: e11e 4e3f 36ba 223f fce6 5a3f 3b1f 213f
1.7134042 0.8566081 0.9087191 1.0096478 0.9780444 0.9252073 1.0814159 0.642385
0.9093899 0.86501 0.89269876 0.8535411 0.8051587 0.63565385 0.85508704 0.6293828

seq32_2.1.norm.bias f4 [16]
00000000: b1e5 8ebd c31b 153f c59d 7abe bd83 55be
00000010: f1d2 633e 8805 8c3d 76f3 d0be 2537 78be
00000020: acf7 43be 75b6 243d d295 a5be a58c 903e
00000030: 0d25 d63e 04b6 303e 74e1 2e3e 4d6f 023f
-0.06977404 0.58245486 -0.24474247 -0.20851035 0.22248437 0.068369925 -0.40810746 -0.24239786
-0.19137448 0.040213067 -0.32340866 0.28232303 0.41825143 0.17256933 0.17078191 0.5095108

seq32_2.1.norm.running_mean f4 [16]
00000000: 91ad 993e c63d 98bf 6e63 93be 09e6 82bf
00000010: fdee ae3f f2b0 523f 330b 95be 7aa9 23c0
00000020: 6c07 c5be ef71 e93e 3b25 a9bf 12b5 10be
00000030: 37df 30be 5f6f 5e3d 9f3a 4640 482c 783e
0.30015233 -1.1893852 -0.28786796 -1.0226451 1.3666683 0.8230125 -0.29110107 -2.557219
-0.38482225 0.45594737 -1.3214487 -0.14131573 -0.1727265 0.05430543 3.097328 0.24235642

seq32_2.1.norm.running_var f4 [16]
00000000: 4bcb 8a40 83f2 9240 35e3 6540 67fb 2040
00000010: b470 0841 9a4f c940 8ffe c640 154e 6241
00000020: 5381 9e40 f44e 8140 65e2 5c40 082d 4d40
00000030: 0d94 3d40 7115 6b40 facf 0941 cc5d 7540
4.337316 4.5921035 3.5919926 2.5153444 8.527515 6.290967 6.218574 14.144063
4.9532866 4.040888 3.451318 3.2058735 2.9621613 3.6731837 8.613276 3.83385
