SaVSTr/models/Coco2014_epoch_4_batchSize_4.pth (torch, 369643 bytes, 196 tensors)

seq16.0.conv.weight f4 [8, 3, 3, 3]
0.045380354 0.15697129 -0.08487163 0.6794631 -0.56972665 -0.13464634 0.28396496 0.016070021
-0.3353515 -0.45030892 0.05788539 0.026646938 0.4719477 -0.5148033 0.19647074 -0.057287995
0.058050178 0.007728099 -0.45675474 0.09001194 0.1973018 0.25083476 -0.37306905 0.07787163
-0.0514966 0.29050556 0.005267293 0.041897908 0.0031118717 -0.033220984 0.4466759 -0.0134710865
-0.41571748 -0.5599829 0.031682182 0.53937143 0.01811315 0.04505535 9.952536e-05 0.43057072
-0.017314343 -0.43542492 -0.5602325 0.013810928 0.6149354 0.12779367 -0.0358497 -0.124324955
0.38512588 0.06308148 -0.38608873 -0.28044 -0.06414929 0.32351485 -0.3361134 -0.17849003
0.480411 -0.26142722 0.1366339 0.26304767 0.5534892 0.09431773 -0.6762302 0.002790598
0.021217506 0.01963582 -0.25283304 -0.12252046 0.24848127 0.42322874 0.03958357 -0.45480514
-0.06871218 -0.020544112 0.09980403 -0.43236926 0.08303666 0.4123746 0.31187713 -0.008096471
-0.37495196 0.07175723 0.17991903 -0.047660515 -0.5045472 -0.016854646 0.47086808 0.533238
-0.19610643 -0.42545635 -0.20010608 0.2448965 -0.06629144 -0.04534462 0.09247169 0.28165504
0.38666314 -0.23967692 -0.47039673 -0.23055959 0.008707701 0.04920304 -0.04819708 0.24917047
0.3169026 0.4780151 -0.29843703 -0.4259115 0.46765897 0.036003433 -0.4111215 0.34616932
-0.044979483 -0.43762404 0.38979122 -0.03532062 -0.35478625 0.1662957 0.074268535 -0.2248523
0.25441405 0.11067724 -0.20452997 0.43992692 -0.06788914 -0.4014774 0.3149771 -0.049349707
-0.19653676 0.494876 -0.13725595 -0.48159885 0.14880079 0.038989965 -0.22168644 -0.3636094
0.044651743 0.31139052 -0.21386409 0.042240977 0.23827423 -0.44470862 -0.056442007 0.42354283
-0.597068 -0.11387593 0.69180083 -0.25971547 0.06948468 0.15930888 -0.11690959 -0.14425223
0.27395853 -0.5803004 0.050312974 0.56850827 -0.08658374 -0.085983105 0.14230421 -0.1767151
0.121389195 0.105108574 0.5480033 0.16673416 -0.5723135 -0.025930855 0.32108554 -0.22271919
0.1928859 -0.14905198 -0.058467686 0.505059 -0.31594262 -0.5635763 0.04239697 0.35876012
-0.18511848 0.013699375 -0.01890766 -0.14315076 0.5497205 -0.025523115 -0.56192416 -0.047308028
0.15223822 -0.12409239 0.13217595 0.022167543 -0.086144194 0.31937423 0.38644993 -0.6739241
-0.45775822 -0.30740425 0.5526153 0.03320948 -0.14053927 0.25320426 0.27502212 0.21001893
-0.5670092 -0.1816536 -0.28448197 0.3797339 -0.013959987 -0.039857585 0.009734798 0.33680093
0.18327866 -0.35576025 -0.14451365 -0.19737601 0.18246292 -0.08919272 0.0017478858 0.17530867
00000000: c0e0 393d 15bd 203e 2dd1 adbd 4bf1 2d3f
00000010: 9bd9 11bf bbe0 09be db63 913e 47a5 833c
00000020: 31b3 abbe e48e e6be 3b19 6d3d ae4a da3c
00000030: 21a3 f13e 26ca 03bf a02f 493e d1a6 6abd
00000040: 06c6 6d3d fe3b fd3b c2db e9be 2e58 b83d
00000050: 7c09 4a3e 6a6d 803e e802 bfbe 297b 9f3d
00000060: 19ee 52bd 25bd 943e 4299 ac3b 249d 2b3d
00000070: 8bf0 4b3b ba12 08bd b4b2 e43e d5b5 5cbc
00000080: ecd8 d4be 0a5b 0fbf 2dc5 013d 3f14 0a3f
00000090: 0762 943c f58b 383d 45b8 d038 c473 dc3e
000000a0: cfd6 8dbc 04f0 debe 666b 0fbf 3b47 623c
000000b0: 686c 1d3f 58dc 023e 23d7 12bd 159e febd
000000c0: 382f c53e dd30 813d 6cad c5be d595 8fbe
000000d0: b460 83bd bda3 a53e 0e17 acbe 17c6 36be
000000e0: 6ef8 f53e cad9 85be c2e9 0b3e 2fae 863e
000000f0: 78b1 0d3f a729 c13d 6c1d 2dbf 77e2 363b
00000100: 56d0 ad3c 4ddb a03c 5573 81be 02ec fabd
00000110: e071 7e3e 70b1 d83e 6222 223d 38dc e8be
00000120: f9b8 8cbd 204c a8bc 0e66 cc3d 815f ddbe
00000130: 200f aa3d c322 d33e 5cae 9f3e 10a7 04bc
00000140: b4f9 bfbe 74f5 923d b23c 383e ac37 43bd
00000150: 012a 01bf c112 8abc 9f15 f13e 4982 083f
00000160: 20d0 48be 6ad5 d9be 9ce8 4cbe 26c6 7a3e
00000170: cec3 87bd 48bb 39bd cc61 bd3d 1735 903e
00000180: b6f8 c53e de6d 75be d7d7 f0be d017 6cbe
00000190: bfaa 0e3c 2089 493d 4d6a 45bd 8b26 7f3e
000001a0: 0f41 a23e 65be f43e bdcc 98be 1211 dabe
000001b0: ff70 ef3e 5678 133d 847e d2be 1b3d b13e
000001c0: 683c 38bd 4210 e0be b792 c73e 5bac 10bd
000001d0: 8ba6 b5be 6c49 2a3e 1a1a 983d ae3f 66be
000001e0: 8f42 823e c0aa e23d 4e70 51be 1a3e e13e
000001f0: 7609 8bbd 728e cdbe ae44 a13e eb22 4abd
00000200: ef40 49be 6360 fd3e d38c 0cbe 2094 f6be
00000210: 3c5f 183e f1b3 1f3d c501 63be 032b babe
00000220: bfe4 363d 946e 9f3e 30ff 5abe e004 2d3d
00000230: 29fe 733e d9b0 e3be bc2f 67bd 9bda d83e
00000240: 73d9 18bf c937 e9bd dc19 313f 6df9 84be
00000250: fc4d 8e3d de21 233e 4c6e efbd dbb6 13be
00000260: 4b44 8c3e 918e 14bf fa14 4e3d c289 113f
00000270: d152 b1bd e917 b0bd 32b8 113e cef4 34be
00000280: e69a f83d 2a43 d73d f249 0c3f 5cbc 2a3e
00000290: 2383 12bf f26c d4bc 5365 a43e 8010 64be
000002a0: e283 453e 15a1 18be d07b 6fbd 8c4b 013f
000002b0: 3bc3 a1be 8946 10bf 72a8 2d3d 68af b73e
000002c0: b38f 3dbe 5873 603c 3de4 9abc 1d96 12be
000002d0: 7cba 0c3f da15 d1bc 43da 0fbf 10c6 41bd
000002e0: 56e4 1b3e 2724 febd 2259 073e b598 b53c
000002f0: 5e6c b0bd 0585 a33e c4dc c53e 4a86 2cbf
00000300: 495f eabe 1764 9dbe 3278 0d3f aa06 083d
00000310: 87e9 0fbe fda3 813e b3cf 8c3e 340f 573e
00000320: 8427 11bf 6703 3abe 9fa7 91be 7b6c c23e
00000330: 6eb8 64bc b541 23bd b47e 1f3c 2c71 ac3e
00000340: 67ad 3b3e 3526 b6be 63fb 13be f01c 4abe
00000350: 8fd7 3a3e acaa b6bd 5119 e53a 1e84 333e

seq16.0.conv.bias f4 [8]
0.40796697 0.36086002 -0.10784048 0.010850231 0.28982514 -0.5247736 -0.57616526 0.53883183
00000000: 0ce1 d03e a5c2 b83e 78db dcbd 2bc5 313c
00000010: f663 943e 9057 06bf 917f 13bf e2f0 093f

seq16.0.norm.weight f4 [8]
0.34926385 1.4789149 2.128049 0.2602639 0.2937457 0.7166831 0.74205166 1.0611548
00000000: b6d2 b23e 154d bd3f f431 0840 4f41 853e
00000010: d665 963e 8b78 373f 19f7 3d3f ecd3 873f

seq16.0.norm.bias f4 [8]
-0.11557889 -7.826417e-05 0.2879774 0.006117859 -0.012680603 0.035660315 0.0091726845 0.09353365
00000000: a0b4 ecbd c221 a4b8 c671 933e 5278 c83b
00000010: 4ec2 4fbc 8d10 123d 0749 163c 928e bf3d

seq16.0.norm.running_mean f4 [8]
-11.7602825 15.651931 -3.2114313 15.160118 8.085348 -2.5274837 -5.622665 -20.410528
00000000: 1e2a 3cc1 4f6e 7a41 1788 4dc0 d88f 7241
00000010: 965d 0141 4bc2 21c0 dfec b3c0 c348 a3c1

seq16.0.norm.running_var f4 [8]
5123.9795 6453.625 5804.6357 6118.348 16543.684 16284.226 12229.615 6226.5093
00000000: d61f a045 00ad c945 1665 b545 c932 bf45
00000010: 5e3f 8146 e770 7e46 7616 3f46 1394 c245

seq16.1.conv.weight f4 [8, 8, 3, 3]
0.39763832 0.57984555 0.8507289 -0.06404344 0.1654615 -0.22043063 -0.06991015 -0.19787875
-0.07321502 0.3604872 0.12560806 -0.23522493 0.06021102 0.22819145 -0.13802142 -0.0016756335
-0.143783 -0.20429571 0.01848375 0.28383663 0.047119673 -0.116713375 -0.049151395 -0.039763454
-0.09762087 0.13771318 -0.16230205 0.1432425 0.14385465 0.32029197 0.13940682 -0.09677698
0.05827652 -0.29864183 -0.20851736 0.05836489 0.034363255 -0.17475785 -0.24344963 -0.048585296
-0.29336503 -0.33008376 -0.29007232 -0.74173266 -0.71060014 0.6778139 0.23616992 -0.004301911
0.15570961 -0.026742147 -0.32041633 -0.44628108 -0.5817804 -0.8565668 0.3912234 0.37904155
0.26051724 -0.0383192 0.2400327 0.08931066 -0.2812235 -0.27455395 -0.4402906 0.12651479
0.32257673 0.27239108 -0.26077613 0.46895728 0.04497943 -0.22223613 0.008761455 -0.2717751
-0.048254445 0.122194655 -0.2102043 0.22730823 0.01574314 -0.09947467 0.15518035 -0.24009427
-0.035511747 0.76526874 -0.44650558 -0.7398957 0.38982803 -0.4760361 -0.22487853 0.6494487
-0.36632067 -0.5873781 0.22813708 -0.17039725 -0.24331474 0.18372665 -0.1611427 -0.087132625
0.40864745 -0.1285742 -0.3430126 0.03893999 0.012564588 -0.02085163 0.38175225 -0.11907612
-0.30379897 0.25421986 -0.36135194 -0.20445819 0.14025028 -0.28613877 0.0565221 0.17247453
-0.12580521 -0.074148156 0.3102774 -0.4191338 0.06956264 0.4309361 -0.32638198 -0.48334366
0.35448045 -0.31142935 -0.34490559 0.5298001 -0.076213636 -0.3455994 0.3232586 -0.2002415
-0.34852934 0.20185448 -0.33161515 -0.110881865 0.017008474 0.09946585 -0.004627056 0.15168232
-0.0412144 -0.2976947 0.062823504 0.12200434 -0.23025067 0.03986246 0.018865015 -0.099059485
-0.26922768 -0.021056145 0.28231972 -0.3324491 -0.123421 0.21324249 -0.109980375 0.07202563
0.13225009 0.3323097 0.22518677 -0.40523693 -0.024897521 -0.0077891843 -0.07675896 -0.39239383
0.013758819 0.32146922 -0.5770528 0.0016651858 0.5708891 -0.12792291 -0.039984602 0.09465514
0.65091693 0.1336214 -0.6719314 -0.3512634 -0.0017910685 0.38993737 -0.06493383 0.04832362
0.045193184 0.022249749 0.16466367 -0.17758384 -0.029172504 0.2246076 -0.120434746 -0.20894137
0.037487984 0.07508879 -0.2695478 0.33829403 0.16275182 -0.03893762 0.16409205 -0.025184268
0.2092399 0.04233058 -0.21297069 0.26928455 -0.057837505 -0.37892124 -0.14447218 -0.019072508
0.12876394 -0.25611994 0.078477316 0.32847357 -0.48897147 -0.033313904 0.40634966 -0.12282586
-0.010889563 0.0972314 0.54267776 -0.020920316 -0.494574 -0.43731752 0.019759256 0.44694638
0.62342966 -0.15734637 -0.14946032 0.47903347 -0.5730274 -0.26815856 0.47753638 -0.040249415
-0.15340301 0.87564427 0.04870497 -0.14107917 0.48050693 -0.06255108 -0.14638123 1.0525372
0.18535762 -0.25959128 0.5386774 0.073837385 -0.22437297 -0.032742664 -0.07560144 -0.0008262081
0.3987904 0.10838529 -0.12522171 0.28719997 -0.18191195 -0.100616775 0.3619632 0.036466643
-0.018219167 0.43246022 -0.022142245 0.17589022 0.0896795 -0.13780858 -0.0910733 0.1102707
00000000: 4097 cb3e c270 143f 5fc9 593f 3529 83bd
00000010: bd6e 293e 91b8 61be 0d2d 8fbd baa0 4abe
00000020: c2f1 95bd c791 b83e 669f 003e cede 70be
00000030: d59f 763d 05ab 693e 7d55 0dbe eea0 dbba
00000040: da3b 13be e532 51be 3c6b 973c 0953 913e
00000050: 8f00 413d 6c07 efbd f952 49bd 01df 22bd
00000060: 73ed c7bd af04 0d3e 8232 26be 29ae 123e
00000070: a24e 133e 4ffd a33e a9c0 0e3e 0233 c6bd
00000080: 5cb3 6e3d 95e7 98be 9385 55be 0610 6f3d
00000090: 7cc0 0c3d b9f3 32be dc4a 79be 6001 47bd
000000a0: f133 96be bd00 a9be 5c84 94be 31e2 3dbf
000000b0: e4e9 35bf 3685 2d3f 87d6 713e 0cf7 8cbb
000000c0: 5772 1f3e 5912 dbbc 9c0d a4be f47e e4be
000000d0: 8fef 14bf f647 5bbf 6f4e c83e bc11 c23e
000000e0: 8462 853e 98f4 1cbd 22cb 753e 82e8 b63d
000000f0: 87fc 8fbe 5692 8cbe c56d e1be 188d 013e
00000100: c728 a53e d876 8b3e 7384 85be 2b1b f03e
00000110: 5a3c 383d de91 63be 358c 0f3c 1b26 8bbe
00000120: 74a6 45bd 3141 fa3d cc3f 57be 7dc3 683e
00000130: c2f7 803c 60b9 cbbd 99e7 1e3e 46db 75be
00000140: c474 11bd a7e8 433f 619c e4be ce69 3dbf
00000150: 8a97 c73e 01bb f3be 8f46 66be 4542 263f
00000160: 628e bbbe 695e 16bf c49c 693e 9e7c 2ebe
00000170: 8027 79be d722 3c3e 9802 25be 9772 b2bd
00000180: 3d3a d13e f5a8 03be 599f afbe 8a7f 1f3d
00000190: b4db 4d3c 0ad1 aabc 0875 c33e 2ede f3bd
000001a0: 8a8b 9bbe 1b29 823e 1f03 b9be 7d5d 51be
000001b0: c59d 0f3e c880 92be b883 673d 2a9d 303e
000001c0: 15d3 00be fdda 97bd aedc 9e3e b598 d6be
000001d0: db76 8e3d a8a3 dc3e 8a1b a7be d278 f7be
000001e0: 767e b53e ab73 9fbe 7797 b0be fba0 073f
000001f0: e515 9cbd 68f2 b0be 2782 a53e 1c0c 4dbe
00000200: 7072 b2be f1b2 4e3e 76c9 a9be 0816 e3bd
00000210: 5b55 8b3c c0b4 cb3d 8f9e 97bb 9c52 1b3e
00000220: 6ed0 28bd 716b 98be 9ca9 803d 69dd f93d
00000230: d5c6 6bbe d246 233d ce8a 9a3c b3df cabd
00000240: 36d8 89be f07d acbc 368c 903e c536 aabe
00000250: 26c4 fcbd 3d5c 5a3e 643d e1bd 2c82 933d
00000260: 916c 073e 7f24 aa3e 5c97 663e 377b cfbe
00000270: e3f5 cbbc 6a3c ffbb cd33 9dbd d8e7 c8be
00000280: ab6c 613c 9d97 a43e bbb9 13bf 5d42 da3a
00000290: ca25 123f 39fe 02be e5c6 23bd 8eda c13d
000002a0: 7ea2 263f 0cd4 083e b203 2cbf ccd8 b3be
000002b0: 49c2 eaba dfa5 c73e 07fc 84bd fdee 453d
000002c0: 7d1c 393d 1b45 b63c 989d 283e 8ad8 35be
000002d0: 2dfb eebc 89ff 653e 7ea6 f6bd baf4 55be
000002e0: 008d 193d 27c8 993d 2b02 8abe e034 ad3e
000002f0: 6aa8 263e 0e7d 1fbd bf07 283e 3d4f cebc
00000300: fc42 563e d562 2d3d fd14 5abe aadf 893e
00000310: 05e7 6cbd f701 c2be 84f0 13be f33d 9cbc
00000320: b2da 033e 2722 83be b7b8 a03d b02d a83e
00000330: 785a fabe 2974 08bd 100d d03e 208c fbbd
00000340: 236a 32bc 4221 c73d eeec 0a3f 1561 abbc
00000350: ce38 fdbe 15e8 dfbe 2ade a13c 28d6 e43e
00000360: 1699 1f3f 681f 21be 200c 19be e043 f53e
00000370: ecb1 12bf 144c 89be a67f f43e 92dc 24bd
00000380: ae15 1dbe 392a 603f dd7e 473d 0f77 10be
00000390: 0105 f63e c81a 80bd f6e4 15be 8ab9 863f
000003a0: 63ce 3d3e 26e9 84be c3e6 093f 0e38 973d
000003b0: 07c2 65be 2c1d 06bd eed4 9abd e395 58ba
000003c0: 412e cc3e 1bf9 dd3d 1f3a 00be e00b 933e
000003d0: 2047 3abe 2b10 cebd 3e53 b93e 0c5e 153d
000003e0: 5d40 95bc 6d6b dd3e a763 b5bc 911c 343e
000003f0: e3a9 b73d b11d 0dbe a384 babd 9bd5 e13d

seq16.1.conv.bias f4 [8]
-0.05700148 0.1729227 -0.093939364 -0.124345995 -0.08331843 0.38313282 0.030018602 0.035494752
00000000: 627a 69bd a612 313e 4863 c0bd 1da9 febd
00000010: daa2 aabd fc29 c43e 92e9 f53c f262 113d

seq16.1.norm.weight f4 [8]
0.41398305 1.2704383 1.4594036 0.7805531 0.68854713 1.5217304 0.6011534 1.2551183
00000000: 96f5 d33e b99d a23f bdcd ba3f 54d2 473f
00000010: a044 303f 10c8 c23f 30e5 193f b7a7 a03f

seq16.1.norm.bias f4 [8]
0.3903122 0.14996153 -0.0035244469 0.872539 -0.37102705 -0.003865204 0.31600723 0.015810288
00000000: 00d7 c73e 848f 193e 68fa 66bb b75e 5f3f
00000010: 42f7 bdbe 5d4f 7dbb b3cb a13e 9484 813c

seq16.1.norm.running_mean f4 [8]
-0.18554567 -0.7640567 -0.045150567 1.6283932 -1.4937922 0.37882015 -0.26450932 0.21189137
00000000: afff 3dbe 3899 43bf cdef 38bd 306f d03f
00000010: 9534 bfbf b7f4 c13e c46d 87be 0dfa 583e

seq16.1.norm.running_var f4 [8]
1.0640308 2.9153125 14.668155 2.4591568 2.0221212 12.09592 1.4032423 4.5500236
00000000: 2932 883f 7b94 3a40 c3b0 6a41 d362 1d40
00000010: 6f6a 0140 e388 4141 729d b33f cb99 9140

seq16.2.conv.weight f4 [8, 8, 1, 1]
-0.6704296 0.3379983 -0.032897696 -0.04888284 0.20428169 -0.010657738 -0.91359997 0.0054307114
0.20808968 0.809446 -0.03927225 0.45519546 0.30986404 -0.120477915 -0.025804404 0.41745877
0.008234442 0.10973368 -0.948118 -0.0037803287 0.1278481 -0.92241585 0.010469452 -0.39485013
-0.067958005 -0.23747796 0.5382472 -0.23603594 -0.118153214 0.5035843 0.058314234 0.34199515
0.42003056 0.26987934 0.029098693 -0.4183226 0.5640017 0.167804 0.30759165 0.34536883
0.01299629 -0.6900713 -0.11889084 -0.59126765 0.046097737 -0.17348595 -0.055649575 0.21258567
-0.13757218 -0.31511503 0.27086645 -0.48358282 -0.10407806 0.3024385 -0.067235544 -0.58953047
0.44251087 -0.39452443 -0.10974414 0.37993422 -0.4720881 -0.20788372 -0.09796818 -0.52491456
00000000: 46a1 2bbf 1d0e ad3e bcbf 06bd 5f39 48bd
00000010: 382f 513e cb9d 2ebc b0e1 69bf 1cf4 b13b
00000020: 7615 553e da37 4f3f f0db 20bd 610f e93e
00000030: 80a6 9e3e 20bd f6bd c263 d3bc 28bd d53e
00000040: c1e9 063c 0dbc e03d dcb7 72bf 64bf 77bb
00000050: 9dea 023e 7223 6cbf 1088 2b3c cc29 cabe
00000060: 912d 8bbd 6c2d 73be 92ca 093f 68b3 71be
00000070: 50fa f1bd e7ea 003f e8da 6e3d fd19 af3e
00000080: 3f0e d73e a02d 8a3e 6260 ee3c 612e d6be
00000090: 6a62 103f d0d4 2b3e a77c 9d3e 2fd4 b03e
000000a0: 64ee 543c 83a8 30bf 0a7d f3bd 515d 17bf
000000b0: fbd0 3c3d 4da6 31be cff0 63bd 0fb0 593e
000000c0: b9df 0cbe c256 a1be 02af 8a3e 2b98 f7be
000000d0: e126 d5bd 38d9 9a3e cab2 89bd 78eb 16bf
000000e0: c990 e23e 1bff c9be 89c1 e0bd bd86 c23e
000000f0: 88b5 f1be 78df 54be 8ba3 c8bd cd60 06bf

seq16.2.conv.bias f4 [8]
0.2649227 -0.17254755 0.27785924 -0.5893207 -0.3161498 0.39278126 -0.09027762 0.5093816
00000000: f3a3 873e 4eb0 30be 9143 8e3e b9dd 16bf
00000010: 63de a1be a01a c93e 79e3 b8bd d566 023f

seq16.2.norm.weight f4 [8]
1.0356258 1.0198644 0.6293203 0.7197077 0.95053273 0.78962475 0.9509526 0.4817285
00000000: 638f 843f eb8a 823f 231b 213f c43e 383f
00000010: 1d56 733f d924 4a3f a171 733f 1ea5 f63e

seq16.2.norm.bias f4 [8]
0.1453127 0.14296271 -0.42448798 0.34488842 0.052397523 -0.3100647 -0.20306912 0.6319091
00000000: dacc 143e d164 123e 7d56 d9be 3795 b03e
00000010: c99e 563d cdc0 9ebe 5af1 4fbe cbc4 213f

seq16.2.norm.running_mean f4 [8]
-0.27995154 0.78164005 -0.5322786 -0.39248604 -0.046880245 -0.5211003 -0.74622995 0.48599154
00000000: cf55 8fbe 9019 483f 6943 08bf eef3 c8be
00000010: 8005 40bd d466 05bf ed08 3fbf e2d3 f83e

seq16.2.norm.running_var f4 [8]
0.30188712 1.1903121 0.8417942 0.3083335 0.1731245 0.60748017 0.9252702 0.22154985
00000000: f390 9a3e 265c 983f d37f 573f e3dd 9d3e
00000010: 8d47 313e d283 1b3f 82de 6c3f f7dd 623e

seq32_1.0.conv.weight f4 [8, 3, 3, 3]
0.07614894 -0.16508015 0.39270994 -0.3768806 0.54288626 0.2289023 -0.6669917 0.5817782
0.08877838 0.2929675 -0.38679692 0.013267795 -0.21265242 -0.15555051 -0.2165625 0.2649588
-0.021679483 0.14405996 0.34264493 -0.20597285 0.14675964 0.25380844 -0.3413334 -0.015446437
0.41054016 -0.09349308 -0.08100768 -0.5266828 0.17086153 -0.36989385 -0.048971895 -0.09656213
0.10923332 0.65397555 -0.43997577 0.45191434 -0.1907568 0.07379466 -0.39117336 0.16609435
-0.08281707 -0.12580012 0.14012802 -0.59809774 0.068037584 -0.024030073 -0.0008628279 -0.23999508
0.0074884035 0.061356273 0.10214051 -0.09208655 -0.5226449 0.1597672 0.15990785 -0.34284493
-0.47016034 0.22578564 -0.34280968 0.34594798 -0.0920501 0.7067894 0.5342647 0.18030928
-0.16656457 0.039295826 -0.019450374 0.133865 -0.30751958 -0.27331877 -0.07372003 -0.22085927
0.01770546 0.24399401 0.41968536 0.07969139 0.41705006 0.056366682 -0.23537828 -0.22181268
-0.46299464 -0.33192813 -0.10101641 -0.093189165 0.09372101 -0.4760197 0.179231 -0.11456744
-0.4147897 0.05535732 -0.29092684 0.188747 0.57437533 0.21330959 0.25538582 0.79475504
0.0879298 0.0064350045 0.38022974 -0.332694 -0.10855484 -0.0025042475 -0.0850675 0.045387276
0.36465868 -0.2538089 -0.013254062 -0.03656097 -0.08516449 0.017701866 -0.027482178 -0.054769713
0.05694051 -0.23672915 0.3564099 -0.08583198 0.2911008 0.18563293 0.0096392315 0.04519694
0.44626343 0.23682983 0.17913091 0.68463695 0.19992307 0.22916013 -0.018644327 -0.5157065
-0.5256427 0.13967691 -0.2466484 -0.30560052 0.5233625 -0.18456559 -0.1739763 -0.4616143
0.3292041 -0.24007142 0.17076404 -0.45945737 0.15421325 0.721667 -0.20507193 0.21209544
-0.4807702 0.27554023 0.12531367 -0.21791947 -0.13624132 0.098402284 0.24938107 -0.032333497
-0.1337452 -0.24491224 0.53100705 -0.005669187 -0.42079148 -0.0040815775 0.35047528 0.1742428
-0.045147568 0.01776038 0.39403188 0.037193224 0.59232634 0.35598102 0.31085357 0.32830438
-0.22527535 0.76665366 -0.33938587 0.18663634 -0.44655943 0.20493454 0.16616572 0.16286239
-0.24242455 0.035522573 0.25254694 -0.39108375 0.05153929 -0.37617907 -0.037913084 0.043222778
0.19302814 -0.24556383 -0.011082689 0.13501734 -0.015538338 0.60566264 0.25453085 -0.14383458
-0.009557654 0.42133632 -0.11372948 0.14357139 -0.279014 0.07035785 -0.057640743 -0.3642949
-0.41962808 -0.33115488 0.28268647 0.16990314 0.297031 -0.322222 0.23261784 -0.09812446
-0.4209706 -0.0092944335 -0.18409888 0.25085312 0.2525178 0.5430024 -0.11755746 0.35947976
00000000: faf3 9b3d c50a 29be 4711 c93e 7ef6 c0be
00000010: 98fa 0a3f 5d65 6a3e f8bf 2abf 6bef 143f
00000020: 70d1 b53d d6ff 953e 3f0a c6be 2a61 593c
00000030: 8ec1 59be a248 1fbe 8fc2 5dbe aea8 873e
00000040: 2c99 b1bc 7484 133e 286f af3e 8cea 52be
00000050: 2948 163e 2ef3 813e 40c3 aebe 0d13 7dbc
00000060: 5232 d23e 4d79 bfbd 5be7 a5bd afd4 06bf
00000070: 53f6 2e3e ba62 bdbe c196 48bd 5ec2 c5bd
00000080: b8b5 df3d f16a 273f 8144 e1be 5161 e73e
00000090: c055 43be a821 973d e047 c8be a314 2a3e
000000a0: ff9b a9bd bfd1 00be b87d 0f3e ef1c 19bf
000000b0: 4a57 8b3d b7da c4bc 662f 62ba 45c1 75be
000000c0: 4861 f53b b750 7b3d 0b2f d13d e097 bcbd
000000d0: 0ecc 05bf 039a 233e e2be 233e 5f89 afbe
000000e0: dbb8 f0be 5a34 673e c084 afbe 1820 b13e
000000f0: c384 bcbd 26f0 343f 92c5 083f ffa2 383e
00000100: e78f 2abe a9f4 203d 6456 9fbc e813 093e
00000110: 3573 9dbe 70f0 8bbe 87fa 96bd ef28 62be
00000120: 0a0b 913c 91d9 793e 00e1 d63e 3d35 a33d
00000130: 9687 d53e c0e0 663d 0107 71be dd22 63be
00000140: a20d edbe 7cf2 a9be b1e1 cebd f6d9 bebd
00000150: cdf0 bf3d dbb8 f3be 5588 373e 55a2 eabd
00000160: 515f d4be 5bbe 623d 5df4 94be e546 413e
00000170: 430a 133f d46d 5a3e eec1 823e 1175 4b3f
00000180: 8a14 b43d bbdc d23b 79ad c23e de56 aabe
00000190: 0052 debd 4d1e 24bb df37 aebd 02e8 393d
000001a0: 8bb4 ba3e 3df3 81be 9127 59bc f5c0 15bd
000001b0: b86a aebd 8103 913c 4e22 e1bc 3556 60bd
000001c0: 743a 693d 2069 72be 5c7b b63e adc8 afbd
000001d0: 2a0b 953e 8f16 3e3e deed 1d3c 6d20 393d
000001e0: a47c e43e 8583 723e 186e 373e 5e44 2f3f
000001f0: a2b8 4c3e f4a8 6a3e fdbb 98bc 5705 04bf
00000200: 8590 06bf 7707 0f3e 6691 7cbe ac77 9cbe
00000210: 16fb 053f c3fe 3cbe d826 32be b658 ecbe
00000220: 718d a83e 48d5 75be c5dc 2e3e ff3d ebbe
00000230: 14ea 1d3e 2bbf 383f 60fe 51be 8c2f 593e
00000240: 8327 f6be 9c13 8d3e 3a52 003e 4826 5fbe
00000250: d882 0bbe 2387 c93d c05d 7f3e 2170 04bd
00000260: 80f4 08be 46ca 7abe 14f0 073f 96c4 b9bb
00000270: fb71 d7be c1be 85bb 7f71 b33e b46c 323e
00000280: a8ec 38bd 377e 913c 8cbe c93e ec57 183d
00000290: b3a2 173f 2543 b63e 3328 9f3e 8317 a83e
000002a0: 95ae 66be 6a43 443f fcc3 adbe 991d 3f3e
000002b0: 70a3 e4be 5cda 513e 5927 2a3e 66c5 263e
000002c0: 243e 78be 1e80 113d d54d 813e 213c c8be
000002d0: dd1a 533d 8b9a c0be c04a 1bbd 5e0a 313d
000002e0: 2ba9 453e 1675 7bbe 2b94 35bc fc41 0a3e
000002f0: 8394 7ebc b50c 1b3f de51 823e 5f49 13be
00000300: b597 1cbc 65b9 d73e 00eb e8bd 6104 133e
00000310: ecda 8ebe c717 903d b318 6cbd dc84 babe
00000320: 7ed9 d6be 228d a9be 48bc 903e 17fb 2d3e
00000330: 7214 983e 48fa a4be 5f33 6e3e 7af5 c8bd
00000340: 7589 d7be ae47 18bc 6b84 3cbe d26f 803e
00000350: 034a 813e 3502 0b3f f7c1 f0bd bb0d b83e

seq32_1.0.conv.bias f4 [8]
0.32534254 0.27534994 0.105635606 -0.07348225 -0.025373569 0.19989094 0.13367468 0.16378161
00000000: 4c93 a63e abfa 8c3e 7b57 d83d dd7d 96bd
00000010: 3bdc cfbc 36b0 4c3e 04e2 083e 5eb6 273e

seq32_1.0.norm.weight f4 [8]
1.0205319 0.99477404 1.4539095 0.1392887 0.33429226 1.0908616 1.276292 0.7492554
00000000: caa0 823f 83a9 7e3f b519 ba3f b2a1 0e3e
00000010: 5b28 ab3e 5aa1 8b3f 895d a33f 34cf 3f3f

seq32_1.0.norm.bias f4 [8]
0.8495363 -0.08924604 0.5222743 -0.61179334 -0.2194012 0.5918752 -0.28469163 -0.06506391
00000000: 367b 593f a1c6 b6bd c5b3 053f 7d9e 1cbf
00000010: b5aa 60be 2285 173f 1ac3 91be 3a40 85bd

seq32_1.0.norm.running_mean f4 [8]
88.33678 -169.92142 42.797558 60.157337 132.01663 29.698017 222.27446 110.396416
00000000: 6eac b042 e2eb 29c3 b330 2b42 1da1 7042
00000010: 4204 0443 8a95 ed41 4346 5e43 f7ca dc42

seq32_1.0.norm.running_var f4 [8]
3132.782 10982.41 1769.6613 7483.5425 10228.537 3789.629 14792.754 5620.3066
00000000: 83cc 4345 a499 2b46 2935 dd44 57dc e945
00000010: 26d2 1f46 10da 6c45 0423 6746 74a2 af45

seq32_1.1.conv.weight f4 [8, 8, 3, 3]
0.4161814 -0.5199441 0.2618603 -0.308329 0.40416527 -0.26428145 -0.008742906 0.0960837
-0.038806893 -0.20380425 0.3749379 -0.25528574 0.38136458 -0.5210804 0.33321095 -0.115532175
0.2237868 -0.19627401 0.19196619 0.030307623 -0.093729876 -0.166158 0.10423121 -0.23483224
0.29731324 -0.48012137 0.2882641 -0.30164814 0.09409729 0.14576805 -0.036004163 -0.03145743
0.20671576 0.15621103 0.02297398 -0.001349774 0.16083898 0.04206655 0.034547355 0.18833351
-0.20869236 -0.15148488 -0.25547022 0.048745543 -0.17025945 -0.6037508 0.43348882 -0.15403275
0.48958942 -0.43532544 -0.05594575 0.04009814 0.10018433 0.09311098 0.23569205 -0.17554593
0.209763 -0.42406988 0.5283618 -0.54297197 0.26704055 -0.5084514 0.25192547 0.3913214
0.034067884 -0.070056416 0.23946056 -0.27336785 -0.105658084 -0.44567528 0.19487162 -0.1466009
0.25638723 -0.003865739 -0.3533331 0.46906164 0.42938474 -0.7464329 0.2979071 0.52642024
-0.72205 -0.0668576 -0.023849001 -0.058725756 0.09239323 0.13460046 0.023367241 0.2544495
-0.029907636 0.1533476 0.113507144 0.14734223 -0.5054128 0.45896366 -0.38525888 0.44820693
-0.3031324 -0.2546078 0.1396641 -0.46613523 -0.4237219 -0.12815356 -0.5295576 -0.09851322
0.012279798 -0.4514419 -0.12961186 -0.11073001 -0.051079012 0.09574478 -0.21397536 0.07317553
-0.11361898 -0.33426705 -0.11761883 -0.31279966 -0.56214243 0.17759016 -0.2460331 0.28215238
-0.15002453 -0.21144933 0.16785404 -0.25379497 -0.3245487 0.076496355 -0.25773826 -0.050053816
-0.10704419 -0.022166144 -0.22000311 0.18477444 0.2570106 0.08384227 -0.30357337 0.3419679
0.19660702 -0.32677338 0.106674835 0.30336133 0.12965153 -0.0711507 0.22560205 -0.14929792
-0.2312804 0.10310104 0.29644653 -0.079933666 -0.1910855 0.06834506 -0.17638408 -0.030963808
0.32057148 0.21847138 -0.18020749 0.13663545 -0.32771453 -0.2237886 0.027188977 0.060222093
0.24990761 0.48360288 -0.012913357 -0.38020548 -0.44583833 -0.5882789 -0.4104225 -0.24945523
0.1705524 0.8760736 0.78579426 0.009747934 0.26000464 -0.09815962 0.09369482 0.19730249
-0.25116846 -0.14971465 -0.19709907 -0.42532766 -0.13154282 -0.25902063 -0.0773487 0.007322307
0.029300649 -0.2987485 -0.09995421 -0.35419706 -0.5754538 -0.12878998 -0.116647944 -0.18975912
-0.18186504 -0.057753734 -0.061052255 0.08331574 0.2664679 0.32968104 -0.06531511 0.056373425
0.41319397 0.060726225 0.13974796 0.051304474 -0.13357869 -0.35433155 -0.04179512 0.10429053
-0.08469204 0.118146196 -0.0919248 -0.3124555 0.023211189 0.12308325 -0.22963719 -0.017036274
0.07331476 0.35464454 -0.48582053 0.24780543 -0.3187133 0.76148355 0.23943804 0.118841045
-0.25976732 0.35235682 -0.13644911 0.530615 -0.025640363 0.38631922 -0.51699 0.14898647
-0.04993827 0.29019365 -0.38349795 0.14575027 0.111202605 -0.10377173 -0.05470874 0.28546482
0.3062547 0.3042819 -0.18051305 0.6706474 0.25790334 0.13738395 0.55102444 0.43620852
-0.011918147 0.7430447 0.46532974 0.064704396 0.26441255 0.15495595 0.091667645 0.075845085
00000000: ba15 d53e 0e1b 05bf 8e12 863e 4cdd 9dbe
00000010: c0ee ce3e e64f 87be 683e 0fbc 88c7 c43d
00000020: faf3 1ebd 10b2 50be dcf7 bf3e d0b4 82be
00000030: 3842 c33e 8665 05bf a09a aa3e 229c ecbd
00000040: 5e28 653e 0efc 48be c992 443e b147 f83c
00000050: 73f5 bfbd 5325 2abe 2c77 d53d dd77 70be
00000060: 7139 983e 78d2 f5be 5a97 933e a071 9abe
00000070: 14b6 c03d 3844 153e 1a79 13bd 82d9 00bd
00000080: 4cad 533e c9f5 1f3e ee33 bc3c e6ea b0ba
00000090: f9b2 243e fa4d 2c3d 8781 0d3d 80da 403e
000000a0: 73b3 55be da1e 1bbe fecc 82be 68a9 473d
000000b0: 7e58 2ebe 6a8f 1abf 3ff2 dd3e c3ba 1dbe
000000c0: 77ab fa3e fae2 debe 5f27 65bd f23d 243d
000000d0: 712d cd3d f8b0 be3d 4259 713e 50c2 33be
000000e0: 1dcc 563e b01f d9be b842 073f 3600 0bbf
000000f0: 8ab9 883e df29 02bf 60fc 803e 475b c83e
00000100: c48a 0b3d bd79 8fbd 2635 753e dff6 8bbe
00000110: 4463 d8bd 8d2f e4be 6d8c 473e 8c1e 16be
00000120: 3045 833e 5758 7dbb 13e8 b4be d928 f03e
00000130: 51d8 db3e 3a16 3fbf 4887 983e 7ac3 063f
00000140: 45d8 38bf a3ec 88bd fb5e c3bc 6b8a 70bd
00000150: a938 bd3d b4d4 093e a86c bf3c 3447 823e
00000160: dc00 f5bc 2707 1d3e 6f76 e83d e2e0 163e
00000170: bc62 01bf 49fd ea3e a740 c5be 617b e53e
00000180: 2c34 9bbe f45b 82be 1b04 0f3e 47a9 eebe
00000190: 14f2 d8be b03a 03be 1691 07bf 4dc1 c9bd
000001a0: 3531 493c 6523 e7be f9b8 04be 6ac6 e2bd
000001b0: 3a38 51bd d715 c43d 5b1c 5bbe 0ddd 953d
000001c0: 11b1 e8bd 0d25 abbe 24e2 f0bd 4727 a0be
000001d0: 91e8 0fbf 32da 353e 1af0 7bbe 4776 903e
000001e0: 08a0 19be 2c86 58be eee1 2b3e 6af1 81be
000001f0: 3f2b a6be 1faa 9c3d 45f6 83be 3b05 4dbd
00000200: fc39 dbbd c695 b5bc 7f48 61be 8335 3d3e
00000210: e596 833e 7fb5 ab3d f86d 9bbe 6b16 af3e
00000220: 5a53 493e d74e a7be 5678 da3d 2d52 9b3e
00000230: 5fc3 043e 75b7 91bd 3904 673e 8ee1 18be
00000240: c5d4 6cbe a326 d33d d7c7 973e 43b4 a3bd
00000250: ebab 43be 7ff8 8b3d 079e 34be d0a7 fdbc
00000260: f221 a43e f6b6 5f3e 5088 38be 2aea 0b3e
00000270: 33ca a7be d728 65be 6bbb de3c 71ab 763d
00000280: c8e7 7f3e cc9a f73e 8b92 53bc 4baa c2be
00000290: ec44 e4be 7299 16bf e622 d2be 3171 7fbe
000002a0: 4aa5 2e3e 5c46 603f d029 493f ccb5 1f3c
000002b0: 541f 853e e907 c9bd 12e3 bf3d aa09 4a3e
000002c0: 2799 80be cc4e 19be 57d4 49be 8cc4 d9be
000002d0: 29b3 06be 5a9e 84be ff68 9ebd f7ef ef3b
000002e0: ea07 f03c 90f5 98be cbb4 ccbd 5159 b5be
000002f0: f150 13bf 85e1 03be 1ee5 eebd 3750 42be
00000300: d43a 3abe 2e8f 6cbd ee11 7abd 71a1 aa3d
00000310: 7b6e 883e f4cb a83e eec3 85bd d2e7 663d
00000320: 298e d33e 10bc 783d 171a 0f3e a424 523d
00000330: dac8 08be f26a b5be 5c31 2bbd 4696 d53d
00000340: 0573 adbd a2f6 f13d 1243 bcbd 2bfa 9fbe
00000350: 6425 be3c 1213 fc3d 0326 6bbe a88f 8bbc
00000360: 0d26 963d f893 b53e 78bd f8be b5c0 7d3e
00000370: 642e a3be 96f0 423f 3f2f 753e ef62 f33d
00000380: 3900 85be 1d68 b43e 51b9 0bbe 62d6 073f
00000390: bd0b d2bc a2cb c53e 7559 04bf e98f 183e
000003a0: 128c 4cbd 4394 943e d859 c4be 8f3f 153e
000003b0: 31be e33d 4686 d4bd 4616 60bd 7228 923e
000003c0: 6bcd 9c3e d6ca 9b3e 6ad8 38be 8caf 2b3f
000003d0: e80b 843e 61ae 0c3e f00f 0d3f b956 df3e
000003e0: 5544 43bc 2d38 3e3f b33f ee3e bd83 843d
000003f0: 1561 873e c6ac 1e3e 3fbc bb3d ab54 9b3d

seq32_1.1.conv.bias f4 [8]
-0.047349162 0.43387225 0.1188718 0.2504358 -0.16194704 0.24381803 -0.2520925 -0.48323104
00000000: 32f1 41bd 8124 de3e 0f73 f33d 1f39 803e
00000010: 72d5 25be 6fab 793e 4512 81be 0f6a f7be

seq32_1.1.norm.weight f4 [8]
1.9163114 0.8904059 0.7323696 0.8364564 1.103568 0.54585236 1.0627794 0.66555154
00000000: b149 f53f a4f1 633f 937c 3b3f 0222 563f
00000010: b741 8d3f fbbc 0b3f 2809 883f 9661 2a3f

seq32_1.1.norm.bias f4 [8]
0.27581754 -0.20836997 -0.11784826 -0.34091672 -0.16307804 -0.16285698 0.55434 -0.14085238
00000000: f537 8d3e f05e 55be 6e5a f1bd a38c aebe
00000010: eefd 26be fbc3 26be 3ae9 0d3f 9b3b 10be

seq32_1.1.norm.running_mean f4 [8]
-0.20992135 0.5326033 0.08831129 1.9594568 -1.10033 -0.4364685 -0.5913118 -4.683539
00000000: 9ff5 56be b158 083f 8ddc b43d 7bcf fa3f
00000010: 9dd7 8cbf cd78 dfbe 3660 17bf 8ddf 95c0

seq32_1.1.norm.running_var f4 [8]
3.8320436 2.344875 2.8795812 4.681777 2.7116296 3.2206674 2.8486373 8.276052
00000000: 3440 7540 6f12 1640 0f4b 3840 1ed1 9540
00000010: 578b 2d40 6a1f 4e40 1350 3640 b66a 0441

seq32_1.2.conv.weight f4 [8, 8, 1, 1]
0.010299059 0.43553346 0.1966222 0.044244714 -0.36583242 0.19914518 0.8104828 -0.21078208
0.51180184 -0.025563683 -0.43770614 -0.037386395 -0.44347364 -0.11550726 0.01730788 0.23335797
0.0702419 -0.2833022 0.32006335 -0.07497023 -1.0906444 0.29045057 0.262955 0.26878038
0.22032695 0.40925667 0.14814298 -0.4923709 0.5045662 0.26970848 -0.46980062 -0.38014504
-0.8900593 -0.23614617 0.02955823 -0.1059827 -0.023313388 -0.39930356 0.22200505 -0.037123766
-0.7534411 -0.11108859 -0.016775738 -0.4402553 -0.13774233 0.08573964 -0.18966112 -0.083658494
0.38647223 -0.10003036 0.7178917 -0.24169435 -0.028623683 -0.11960921 -0.34747094 0.0057620243
-1.1519778 0.051504303 0.020057222 0.06740964 0.12592119 -0.2577223 -0.30202287 0.05864765
00000000: 62bd 283c 3efe de3e 5457 493e f239 353d
00000010: 634e bbbe b7ec 4b3e cd7b 4f3f 42d7 57be
00000020: 7205 033f ee6a d1bc 051b e0be 7a22 19bd
00000030: fa0e e3be 128f ecbd 41c9 8d3c 64f5 6e3e
00000040: fcda 8f3d fc0c 91be 58df a33e fe89 99bd
00000050: 3c9a 8bbf f0b5 943e 0aa2 863e 959d 893e
00000060: 639d 613e 178a d13e cbb2 173e 0a18 fcbe
00000070: 402b 013f 3b17 8a3e b589 f0be 5fa2 c2be
00000080: edda 63bf 4dd0 71be 1a24 f23c 750d d9bd
00000090: b8fb bebc 8471 ccbe 4b55 633e 170f 18bd
000000a0: 84e1 40bf 6a82 e3bd 466d 89bc 2569 e1be
000000b0: 530c 0dbe 4498 af3d 8636 42be 2555 abbd
000000c0: b0df c53e b8dc ccbd c0c7 373f b97e 77be
000000d0: 377c eabc acf5 f4bd b6e7 b1be 5dcf bc3b
000000e0: 0274 93bf 2df6 523d 0b4f a43c 110e 8a3d
000000f0: 7cf1 003e 2df4 83be bea2 9abe 8538 703d

seq32_1.2.conv.bias f4 [8]
0.1294974 -0.4854652 0.120080836 -0.2590236 0.29732546 -0.0705157 -0.3222528 -0.20492335
00000000: f79a 043e e58e f8be f1ec f53d be9e 84be
00000010: 0b3b 983e 896a 90bd 52fe a4be 6dd7 51be

seq32_1.2.norm.weight f4 [8]
1.0447289 0.94919074 1.0595303 1.7951237 1.119599 1.054074 1.3288028 1.5854955
00000000: adb9 853f 2afe 723f b09e 873f 9dc6 e53f
00000010: 054f 8f3f e6eb 863f 3616 aa3f 84f1 ca3f

seq32_1.2.norm.bias f4 [8]
0.27016935 -0.11968662 -0.2241198 0.08086765 -0.11783386 -0.11595594 0.1215562 -0.028798407
00000000: a353 8a3e 421e f5bd a97f 65be f09d a53d
00000010: e152 f1bd 4f7a edbd 75f2 f83d a3ea ebbc

seq32_1.2.norm.running_mean f4 [8]
0.70172113 -0.26382658 0.15068652 -0.31203622 -0.24877936 -0.83833027 -0.2529069 -1.1943861
00000000: ffa3 333f 4714 87be 914d 1a3e 36c3 9fbe
00000010: 04c0 7ebe d09c 56bf 037d 81be a5e1 98bf

seq32_1.2.norm.running_var f4 [8]
0.46903354 0.69796497 0.7653595 0.6163223 1.4427615 0.77238226 0.607026 2.2919235
00000000: 2a25 f03e d5ad 323f 9aee 433f 4cc7 1d3f
00000010: 69ac b83f d8ba 453f 0e66 1b3f e0ae 1240

join16_32.norm1.weight f4 [8]
0.6242568 1.3090309 2.2179165 0.94003356 0.52925175 1.1944069 0.53903717 0.5008783
00000000: 4bcf 1f3f 538e a73f 58f2 0d40 0aa6 703f
00000010: 0b7d 073f 53e2 983f 57fe 093f 8f39 003f

join16_32.norm1.bias f4 [8]
0.20971584 0.34148443 0.093717255 0.12806906 -0.3904278 0.24467348 0.67903274 -0.009282289
00000000: c0bf 563e 0cd7 ae3e d5ee bf3d 8924 033e
00000010: 27e6 c7be af8b 7a3e 17d5 2d3f be14 18bc

join16_32.norm1.running_mean f4 [8]
0.40521497 0.38052884 -0.048008505 0.440665 0.3178682 0.046263702 0.15134649 0.6655272
00000000: 5678 cf3e add4 c23e 91a4 44bd d89e e13e
00000010: 9fbf a23e 027f 3d3d 93fa 1a3e fe5f 2a3f

join16_32.norm1.running_var f4 [8]
0.2540571 0.3960021 0.021873713 0.23723502 0.27853778 0.048166063 0.124145865 0.07973279
00000000: c613 823e cac0 ca3e 8030 b33c bded 723e
00000010: 819c 8e3e c749 453d 3040 fe3d f24a a33d

join16_32.norm2.weight f4 [8]
0.4835773 0.6493517 0.51989263 0.7881618 0.66236436 0.9386465 0.45959568 0.92309237
00000000: 7297 f73e ea3b 263f af17 053f f9c4 493f
00000010: b690 293f 234b 703f 2050 eb3e c84f 6c3f

join16_32.norm2.bias f4 [8]
0.09637237 -0.09039117 0.1505361 0.2186681 0.20691527 0.13991112 0.3873065 0.10093065
00000000: e15e c53d 011f b9bd 2326 1a3e 88ea 5f3e
00000010: 99e1 533e dc44 0f3e 0a4d c63e bbb4 ce3d

join16_32.norm2.running_mean f4 [8]
0.4602701 0.20633796 0.15506373 0.5579817 0.23453546 0.21102788 0.44445825 0.4304184
00000000: 86a8 eb3e 424a 533e 07c9 1e3e e4d7 0e3f
00000010: 102a 703e b117 583e 0890 e33e cd5f dc3e

join16_32.norm2.running_var f4 [8]
0.75555474 0.48269483 0.27089214 1.4642853 0.23712151 0.17789683 0.9989623 0.5273971
00000000: 096c 413f c723 f73e 60b2 8a3e b36d bb3f
00000010: fbcf 723e 962a 363e febb 7f3f 7f03 073f

seq32_2.0.conv.weight f4 [16, 16, 3, 3]
0.080120385 0.28111914 0.090383 -0.10034197 0.30990034 0.31979322 -0.24807875 0.14955488
0.08834582 0.12509894 0.119587965 -0.1321315 -0.08375681 0.12334416 -0.13428368 -0.04605896
0.023061695 -0.26113513 -0.44949985 -0.5235025 0.44804266 -0.42696044 -0.6544332 0.15480092
-0.6761719 -0.49057597 0.54690593 -0.3027412 -0.2426071 0.12199468 -0.40141356 -0.54580945
0.14011742 -0.4290853 -0.44745567 0.18056916 0.26825723 0.10430832 0.11248364 0.09258795
-0.031445753 0.20168819 0.1602622 0.038313176 0.1308462 0.18204133 0.14383954 -0.06580036
0.09995313 0.0396131 -0.05706342 0.12653752 -0.01918776 -0.19954576 -0.14320576 0.014696267
0.09716849 -0.14624076 -0.015712218 0.14212689 0.03838192 0.033514645 0.13742319 0.20587201
-0.0057016197 0.036367167 0.02803886 -0.025443917 0.062360175 0.04524981 0.12782258 0.39388934
-0.36451185 0.05457805 0.46068078 -0.08409802 0.010025345 0.30163738 0.26796407 0.35993114
0.6705548 0.061530698 0.066466525 -0.39445728 -0.23716383 0.28814578 -0.42643097 -0.040625572
-0.12524661 -0.3995423 -0.10688865 0.18650697 0.6396862 0.055579726 0.70506316 0.44141665
0.16023265 0.38360646 0.58666885 -0.034693226 0.09185309 0.25672433 0.079045 0.34071898
0.3480985 0.3786101 0.5428398 0.63249946 0.16547112 0.32814884 0.2966815 0.07112367
0.51244146 0.2606269 0.0798183 0.22748019 0.38278905 0.041200303 -0.22883959 -0.36436006
-0.10885673 0.1481492 -0.15226239 0.07320491 -0.21452548 -0.49975336 -0.5693043 -0.2513912
0.5042983 -0.24633862 0.2726554 0.25536513 -0.29878935 0.11674298 0.6756756 0.0517868
-0.021543063 0.35594428 -0.19485618 -0.21699935 0.1804395 0.24053545 0.015040085 0.3559318
-0.5470044 -0.40311375 -0.48247334 0.024804043 0.11487239 -0.12946501 0.06331344 0.03873552
-0.13549748 -0.16732322 -0.1792057 0.038546454 -0.31019542 -0.06707047 0.2597547 -0.2443281
-0.09257671 0.09902664 0.60494435 -0.21855521 -0.081056274 0.0421851 -0.31545144 0.061982553
0.55549467 -0.022057269 0.0997862 -0.40546086 0.020149423 -0.058614735 0.10849453 0.33143842
0.08512658 -0.060221262 0.25755212 -0.0018616917 -0.22312185 -0.15651162 -0.2678982 0.008038665
-0.016446827 -0.10668968 -0.0741537 0.07082914 0.023538599 -0.8395985 0.1071487 0.22341676
-0.52965844 0.23856127 0.07937104 -0.9147133 0.050905216 0.08852225 -0.4780816 0.12764718
-0.026996458 -0.31440133 0.12313764 -0.08931347 -0.6203671 -0.00023603061 0.0038799776 -0.5303489
-0.19585924 -0.0854939 -0.27771 -0.10926012 -0.020918967 -0.5914654 -0.24439892 -0.23245767
-0.56074005 -0.0637983 -0.4804762 -0.2894652 0.06742642 -0.13296653 -0.49402672 -0.0983786
-0.4344971 -0.34733272 0.02979581 0.138314 0.088963136 0.2839813 0.43426356 -0.11656764
0.12816136 0.2665762 -0.4339284 -0.16017628 -0.36777887 -0.32116657 -0.42577893 -0.2615537
-0.71191067 -0.049966253 -0.44812357 -0.37197208 -0.13112855 -0.26951167 -0.41528124 -0.25167328
-0.17035113 -0.7381868 -0.5007737 -0.50238603 0.07812323 0.16608405 -0.23967513 -0.38333073
00000000: 2816 a43d d9ee 8f3e b91a b93d 1780 cdbd
00000010: 42ab 9e3e f0bb a33e 5b08 7ebe ea24 193e
00000020: a7ee b43d f019 003e 89ea f43d 7b4d 07be
00000030: b188 abbd dd9b fc3d a981 09be 52a8 3cbd
00000040: e1eb bc3c 81b3 85be d824 e6be 4304 06bf
00000050: d965 e53e 8f9a dabe ef88 27bf 2284 1e3e
00000060: 9a19 2dbf c62c fbbe 0702 0c3f e500 9bbe
00000070: ff6d 78be 59d8 f93d 1486 cdbe 2bba 0bbf
00000080: f17a 0f3e 12b1 dbbe e918 e5be 1fe7 383e
00000090: 0359 893e 9a9f d53d d35d e63d c09e bd3d
000000a0: 43cd 00bd 5987 4e3e c61b 243e 47ee 1c3d
000000b0: 8cfc 053e 0b69 3a3e ac4a 133e 57c2 86bd
000000c0: 3ab4 cc3d 5941 223d 55bb 69bd 0d93 013e
000000d0: a62f 9dbc b955 4cbe 88a4 12be 9dc8 703c
000000e0: 4600 c73d 23c0 15be e9b6 80bc b689 113e
000000f0: 5c36 1d3d a746 093d aab8 0c3e 1dd0 523e
00000100: a7d4 babb bdf5 143d c0b1 e53c c36f d0bc
00000110: 626d 7f3d dd57 393d ece3 023e ddab c93e
00000120: 4ca1 babe 3c8d 5f3d 5ade eb3e 953b acbd
00000130: 5841 243c 3770 9a3e 9632 893e e548 b83e
00000140: 7ba9 2b3f 9d07 7c3d 9a1f 883d 4ef6 c9be
00000150: 13db 72be d887 933e 2955 dabe 0067 26bd
00000160: a640 00be cf90 ccbe 70e8 dabd affb 3e3e
00000170: 7ac2 233f 91a7 633d 057f 343f 5d01 e23e
00000180: 0714 243e 1168 c43e ee2f 163f 7c1a 0ebd
00000190: 791d bc3d 5f71 833e 58e2 a13d b872 ae3e
000001a0: f739 b23e 2fd9 c13e 8df7 0a3f 7ceb 213f
000001b0: 4371 293e 2003 a83e a3e6 973e 49a9 913d
000001c0: 5d2f 033f e470 853e c777 a33d 91f0 683e
000001d0: edfc c33e a6c1 283d ed54 6abe 678d babe
000001e0: 47f0 debd 6db4 173e acea 1bbe 75ec 953d
000001f0: 91ac 5bbe acdf ffbe edbd 11bf 59b6 80be
00000200: b219 013f 3140 7cbe 7d99 8b3e 38bf 823e
00000210: ebfa 98be f216 ef3d 13f9 2c3f 651e 543d
00000220: 147b b0bc 543e b63e 6188 47be 1435 5ebe
00000230: 22c5 383e ed4e 763e b06a 763c b13c b63e
00000240: 7b08 0cbf ed64 cebe bf06 f7be d931 cb3c
00000250: 3742 eb3d 7a92 04be 7aaa 813d 23a9 1e3d
00000260: dabf 0abe c756 2bbe b381 37be e3e2 1d3d
00000270: efd1 9ebe 3e5c 89bd 91fe 843e 2531 7abe
00000280: dc98 bdbd 7bce ca3d a2dd 1a3f f0cc 5fbe
00000290: d500 a6bd 49ca 2c3d da82 a1be 6be1 7d3d
000002a0: e634 0e3f 72b1 b4bc b55c cc3d 9198 cfbe
000002b0: 6710 a53c 0116 70bd 6132 de3d 4cb2 a93e
000002c0: d856 ae3d 92aa 76bd dfdd 833e 0204 f4ba
000002d0: 0e7a 64be 9544 20be f429 89be 9bb4 033c
000002e0: 7fbb 86bc 1e80 dabd e5dd 97bd de0e 913d
000002f0: 05d4 c03c edef 56bf c770 db3d 5dc7 643e
00000300: b297 07bf 6849 743e 498d a23d a72a 6abf
00000310: fd81 503d 274b b53d 1dc7 f4be f1b5 023e
00000320: ad27 ddbc 36f9 a0be 962f fc3d fbe9 b6bd
00000330: 61d0 1ebf fc7e 77b9 3947 7e3b f2c4 07bf
00000340: 538f 48be 6d17 afbd 0130 8ebe c5c3 dfbd
00000350: 415e abbc 476a 17bf b643 7abe 6209 6ebe
00000360: a98c 0fbf afa8 82bd fa00 f6be c834 94be
00000370: dd16 8a3d 6128 08be 12f1 fcbe b87a c9bd
00000380: 6776 debe 98d5 b1be 5816 f43c 2fa2 0d3e
00000390: 4e32 b63d ff65 913e cb57 de3e 04bb eebd
000003a0: bb3c 033e ad7c 883e dd2b debe 4005 24be
000003b0: 834d bcbe f26f a4be b2ff d9be 5eea 85be
000003c0: c73f 36bf 6aa9 4cbd 7470 e5be 2073 bebe
000003d0: 9046 06be 6ffd 89be be9f d4be 52db 80be
000003e0: 8770 2ebe cff9 3cbf b532 00bf 5f9c 00bf
000003f0: 12ff 9f3d f011 2a3e 666d 75be ed43 c4be

seq32_2.0.conv.bias f4 [16]
-0.44697455 -0.40006793 0.058840495 0.19513477 0.31274727 -0.102028936 -0.13811758 0.08991052
0.33984792 -0.285665 -0.077008046 0.3004307 -0.18201788 0.24708918 -0.07212701 -0.28833267
00000000: d9d9 e4be b4d5 ccbe bb02 713d 69d1 473e
00000010: 6920 a03e 8cf4 d0bd b26e 0dbe 0223 b83d
00000020: 8c00 ae3e af42 92be 65b6 9dbd 0dd2 993e
00000030: e562 3abe f204 7d3e 53b7 93bd 57a0 93be

seq32_2.0.norm.weight f4 [16]
0.71605796 0.78978956 0.61305064 0.54133934 1.0476289 0.5591725 0.44009715 0.35770056
0.6846047 0.5261659 0.8329313 1.337785 1.0170543 0.66331476 1.714291 0.72079706
00000000: 934f 373f a62f 4a3f e3f0 1c3f 3795 0a3f
00000010: b418 863f ee25 0f3f 6a54 e13e 8724 b73e
00000020: 4142 2f3f cfb2 063f fc3a 553f 8a3c ab3f
00000030: d62e 823f ffce 293f e36d db3f 2886 383f

seq32_2.0.norm.bias f4 [16]
0.13355629 -0.40047157 -0.18927708 -0.20067197 -0.23650986 0.36192733 -0.24229318 0.2997402
-0.026817488 0.42451137 -0.7653748 -0.93202 -0.78675026 -0.27351567 -1.0678488 0.14694385
00000000: fbc2 083e 9c0a cdbe dad1 41be f47c 4dbe
00000010: a42f 72be 8a4e b93e b41b 78be 8c77 993e
00000020: 59b0 dbbc 8e59 d93e 9aef 43bf dd98 6ebf
00000030: 7768 49bf 3f0a 8cbe 45af 88bf 7378 163e

seq32_2.0.norm.running_mean f4 [16]
0.7891501 -4.502454 -0.072994955 -2.2057498 -1.7456223 -0.874625 -2.5733511 -1.3429798
-0.7448807 -2.1195583 0.28437823 -0.25728732 -1.3171852 -1.4804462 -2.4862332 -0.48086578
00000000: be05 4a3f 1a14 90c0 617e 95bd 012b 0dc0
00000010: 8d70 dfbf 6de7 5fbf c9b1 24c0 c3e6 abbf
00000020: 80b0 3ebf d8a6 07c0 069a 913e 2abb 83be
00000030: 8699 a8bf 437f bdbf 721e 1fc0 0a34 f6be

seq32_2.0.norm.running_var f4 [16]
18.213566 19.283985 5.615265 25.635586 22.821138 8.641649 6.460357 10.221498
15.060954 7.634281 18.29517 25.995327 30.617817 20.881159 21.206179 12.216513
00000000: 62b5 9141 9a45 9a41 40b0 b340 ae15 cd41
00000010: b191 b641 3244 0a41 3fbb ce40 418b 2341
00000020: abf9 7041 084c f440 825c 9241 6ef6 cf41
00000030: 4af1 f441 9d0c a741 41a6 a941 d676 4341

seq32_2.1.conv.weight f4 [16, 16, 3, 3]
0.12255571 -0.058748495 0.018557396 0.014370809 0.049288698 -0.1357014 0.047667626 -0.006565376
0.029042559 -0.13904154 0.13526206 -0.030154372 0.22668731 -0.0017878936 -0.13170062 0.09110057
0.042208232 0.004509545 0.0840345 -0.031628083 0.039431978 0.25094467 -0.14676248 0.07230037
-0.044022247 0.055642612 -0.005455992 -0.021992395 0.13167833 -0.08017812 0.38309383 -0.28286093
0.2271249 -0.10790498 0.026554285 -0.15490593 0.1109351 -0.05258471 0.105824344 -0.052069496
0.20886908 -0.22666022 0.047012225 -0.091484904 0.051045418 0.010585947 -0.27872974 0.036705393
-0.13647568 0.32155412 0.08251939 0.12881933 -0.28519642 0.011815007 -0.10362619 0.019603735
0.046804026 -0.1663245 -0.08075317 0.008089207 -0.049326617 0.17034899 -0.042372707 -0.44791782
0.15417883 0.089720614 0.4486636 -0.21908541 -0.13871567 -0.25153118 0.33679026 0.042746063
0.16781303 -0.23601398 0.052271284 -0.46360216 0.25375408 -0.26675656 0.061364092 -0.2594078
0.1790305 0.10021777 0.07020716 -0.07383426 -0.04424661 0.06797951 0.007191314 -0.03607103
0.014622921 -0.009856703 0.05082963 0.070324115 -0.1844665 0.08840696 -0.11989654 0.00020154043
0.24990754 -0.27423874 0.12515718 -0.11134954 0.12514916 0.101641096 0.44273704 -0.2815987
-0.18729939 -0.3499164 0.23528947 -0.014418339 -0.0070212237 0.083814226 -0.057705943 -0.040695287
0.03465695 -0.086457364 0.21902339 -0.14127584 0.10634062 -0.67719316 0.34319416 0.08264422
0.6992198 -0.5041188 -0.012601949 -0.2047017 0.32890314 -0.066426575 0.54591113 -0.6432135
0.51378936 -1.0155455 1.0874622 -1.0208989 0.4892373 -0.7278336 0.5764339 -0.09912098
0.22275908 -0.1910573 0.31495845 -0.5832567 0.36076522 -0.32490632 0.34095156 -0.25505257
-0.3056641 0.0055456064 -0.3764451 -0.2052473 0.22210582 -0.29627365 -0.4005506 -0.07535142
-0.33722687 0.34472647 0.0836131 0.032403223 -0.027603455 -0.14998178 -0.2541923 -0.16596538
-0.2709543 -0.40200213 0.2148222 0.0917189 -0.44664088 0.2718645 0.36921585 -0.13173974
-0.059878476 -0.07383794 -0.39900413 -0.22118211 -0.26355514 -0.27702755 -0.024930172 -0.04045133
0.11339587 0.15726303 0.15415035 0.18707092 0.22142754 -0.04284783 -1.0512606 0.27067286
0.20528102 -0.7669673 0.114220284 -0.16211203 -0.8356294 -0.49259067 0.28518155 -0.3851398
-0.07632936 0.22046992 0.04893409 -0.23657948 0.15176195 -0.17425239 -0.02141224 0.09485002
0.011424385 0.0344032 0.13441382 0.13044246 -0.23914951 -0.08674517 -0.17889754 -0.23785166
-0.2625142 0.022558367 -0.22158927 -0.02680384 0.18950096 -0.08494099 0.15239576 0.2218167
-0.2545401 -0.23491572 -0.46728885 0.0027107748 0.08862508 -0.10076042 -0.067367904 0.09811899
-0.12372234 -0.41153356 0.050478753 0.11675861 -0.20522216 0.16082174 0.21510054 -0.32390714
0.0889895 0.27566013 0.17802033 -0.21934508 -0.18890119 0.32568273 -0.091814995 -0.07514789
-0.1122993 -0.5014455 -0.3352946 0.31613663 -0.23958321 -0.6826366 0.1755887 -0.062992014
-0.29404584 0.38849106 -0.19947697 -0.35461086 0.2659034 -0.37718034 -0.2786634 0.48394188
00000000: 7dfe fa3d 43a2 70bd ae05 983c 8b73 6b3c
00000010: f2e2 493d 4ff5 0abe 213f 433d 5e22 d7bb
00000020: a9ea ed3c e860 0ebe 2382 0a3e 4d06 f7bc
00000030: b820 683e c157 eaba 87dc 06be f092 ba3d
00000040: 8ae2 2c3d cec4 933b 481a ac3d 738c 01bd
00000050: 6d83 213d d27b 803e e748 16be 3712 943d
00000060: ac50 34bd 82e9 633d 2ec8 b2bb 6529 b4bc
00000070: afd6 063e 6d34 a4bd e024 c43e 26d3 90be
00000080: 6e93 683e 49fd dcbd 5f88 d93c a99f 1ebe
00000090: f131 e33d 1163 57bd 6fba d83d d346 55bd
000000a0: c7e1 553e 9e19 68be e48f 403d 705c bbbd
000000b0: 0015 513d ae70 2d3c aab5 8ebe 6558 163d
000000c0: 48c0 0bbe bea2 a43e edff a83d 37e9 033e
000000d0: 4405 92be bb93 413c f839 d4bd 0398 a03c
000000e0: 94b5 3f3d f850 2abe eb61 a5bd 9888 043c
000000f0: b50a 4abd f76f 2e3e 018f 2dbd 7c55 e5be
00000100: 0ee1 1d3e 71bf b73d 3cb7 e53e ed57 60be
00000110: 7b0b 0ebe b2c8 80be c66f ac3e 7f16 2f3d
00000120: 2ed7 2b3e a6ad 71be 6a1a 563d 435d edbe
00000130: 0eec 813e 5194 88be ea58 7b3d 19d1 84be
00000140: c553 373e f93e cd3d c6c8 8f3d 6b36 97bd
00000150: ef3b 35bd d738 8b3d 1da5 eb3b 37bf 13bd
00000160: fa94 6f3c 027e 21bc bb32 503d 1706 903d
00000170: c9e4 3cbe b50e b53d 518c f5bd 9954 5339
00000180: c3e7 7f3e 0569 8cbe 3429 003e 3a0b e4bd
00000190: 1a27 003e 3529 d03d 6eae e23e b42d 90be
000001a0: 69cb 3fbe 3e28 b3be b9ef 703e e63a 6cbc
000001b0: 4b12 e6bb cba6 ab3d 115d 6cbd 1ab0 26bd
000001c0: 72f4 0d3d 8f10 b1bd ab47 603e 9daa 10be
000001d0: 1cc9 d93d 885c 2dbf 25b7 af3e 5f41 a93d
000001e0: 1200 333f ee0d 01bf 6878 4ebc 539d 51be
000001f0: fe65 a83e a80a 88bd d5c0 0b3f a4a9 24bf
00000200: b387 033f 65fd 81bf f631 8b3f d1ac 82bf
00000210: 507d fa3e 4e53 3abf 2c91 133f f1ff cabd
00000220: f51a 643e 86a4 43be 3c42 a13e 5050 15bf
00000230: 38b6 b83e 1f5a a6be 3491 ae3e 4096 82be
00000240: 0180 9cbe ebb7 b53b 6abd c0be 592c 52be
00000250: b56f 633e 2eb1 97be f814 cdbe d851 9abd
00000260: 00a9 acbe fd7f b03e 583d ab3d 3eb9 043d
00000270: a420 e2bc d394 19be 7e25 82be d4f2 29be
00000280: 86ba 8abe 39d3 cdbe 5afa 5b3e 1ed7 bb3d
00000290: 1dae e4be d331 8b3e dc09 bd3e c8e6 06be
000002a0: 2243 75bd 5938 97bd 454a ccbe 907d 62be
000002b0: b3f0 86be 8ed6 8dbe 5c3a ccbc 4bb0 25bd
000002c0: 183c e83d 8f09 213e 97d9 1d3e 858f 3f3e
000002d0: e7bd 623e 3581 2fbd b58f 86bf a295 8a3e
000002e0: 3035 523e f857 44bf 53ec e93d b200 26be
000002f0: cfeb 55bf d834 fcbe 5103 923e 0b31 c5be
00000300: 9152 9cbd dec2 613e 1d6f 483d e441 72be
00000310: 7c67 1b3e 386f 32be b968 afbc ba40 c23d
00000320: 582d 3b3c 5fea 0c3d c7a3 093e b592 053e
00000330: 9ce3 74be 74a7 b1bd eb30 37be 638f 73be
00000340: 4368 86be 53cc b83c 4ce8 62be ba93 dbbc
00000350: 8a0c 423e 8bf5 adbd a20d 1c3e eb23 633e
00000360: 1453 82be bf8d 70be 7c40 efbe 41a7 313b
00000370: 1181 b53d 7b5b cebd 2ff8 89bd 9cf2 c83d
00000380: 2362 fdbd 87b4 d2be cfc2 4e3d 231f ef3d
00000390: c225 52be 74ae 243e 5143 5c3e 28d7 a5be
000003a0: 2140 b63d 5323 8d3e f64a 363e ff9b 60be
000003b0: 506f 41be e3bf a63e 8009 bcbd 23e7 99bd
000003c0: 2dfd e5bd bb5e 00bf bcab abbe a9dc a13e
000003d0: 4d55 75be 46c1 2ebf 86cd 333e f501 81bd
000003e0: 2d8d 96be 4de8 c63e b143 4cbe 8e8f b5be
000003f0: 7e24 883e c81d c1be f8ac 8ebe 3bc7 f73e

seq32_2.1.conv.bias f4 [16]
0.40113786 0.4600682 -0.17137638 -0.42045337 0.018023998 0.24998546 0.10036063 0.05600706
0.44798666 0.37523165 -0.55398804 0.20012604 0.057808258 0.17941695 -0.11570148 -0.10663243
00000000: f161 cd3e 0f8e eb3e 4a7d 2fbe aa45 d7be
00000010: 10a7 933c 30fc 7f3e e089 cd3d a967 653d
00000020: 825e e53e 5d1e c03e 29d2 0dbf d7ed 4c3e
00000030: 5ac8 6c3d 14b9 373e e6f4 ecbd 1a62 dabd

seq32_2.1.norm.weight f4 [16]
1.9035754 0.84137535 0.86710817 1.012607 0.9369777 0.8149879 1.1560881 0.5219775
0.7876363 0.7547611 0.81123936 0.765777 0.7001866 0.6242448 0.7993217 0.5480506
00000000: 5ca8 f33f 6064 573f cdfa 5d3f 1b9d 813f
00000010: c5dd 6f3f 0ca3 503f b2fa 933f 51a0 053f
00000020: 88a2 493f 0638 413f 62ad 4f3f f609 443f
00000030: 6e3f 333f 82ce 1f3f 59a0 4c3f 0b4d 0c3f

seq32_2.1.norm.bias f4 [16]
-0.08891213 0.7247474 -0.092010684 -0.34390876 0.3137034 0.04831767 -0.45080122 -0.26820108
-0.24675632 0.051941622 -0.34419295 0.27676892 0.5290887 0.1532017 0.23180036 0.5325269
00000000: 9017 b6bd 0c89 393f 1970 bcbd cf14 b0be
00000010: bb9d a03e c0e8 453d 6bcf e6be a751 89be
00000020: b0ad 7cbe bdc0 543d 0f3a b0be a8b4 8d3e
00000030: 5b72 073f e8e0 1c3e 135d 6d3e af53 083f

seq32_2.1.norm.running_mean f4 [16]
0.3548112 -0.87655044 -0.9578043 -1.2695332 1.7320437 0.6805971 -0.6676208 -1.8704603
-0.028300095 1.212447 -1.7134011 0.24609962 -0.39713022 0.35687554 2.9209218 0.74157757
00000000: d0a9 b53e 9c65 60bf aa32 75bf 1080 a2bf
00000010: 9cb3 dd3f 9d3b 2e3f 32e9 2abf 3e6b efbf
00000020: 9ad5 e7bc 7731 9b3f ba50 dbbf 8a01 7c3e
00000030: a754 cbbe 64b8 b63e 62f0 3a40 07d8 3d3f

seq32_2.1.norm.running_var f4 [16]
4.7930117 5.2850194 4.072506 2.0401063 10.352834 4.1098046 9.080375 7.84464
3.6421587 5.0473285 4.3172364 5.393894 2.717059 3.8811898 10.627293 3.6362672
00000000: 5a60 9940 e11e a940 f851 8240 1a91 0240
00000010: 35a5 2541 8583 8340 3749 1141 4a07 fb40
00000020: 2119 6940 b783 a140 cd26 8a40 c89a ac40
00000030: 4be4 2d40 6a65 7840 6409 2a41 9ab8 6840
