SaVSTr/models/Coco2014_epoch_2_batchSize_4.pth (torch, 369643 bytes, 196 tensors)

seq16.0.conv.weight f4 [8, 3, 3, 3]
00000000: 4d6b bb3c 7a2e c63d a3d9 7c3c 0aa6 ee3e
00000010: ee97 fcbe 4478 423d cdba f13d 7d26 873d
00000020: d062 5abe f3f6 8dbe 2dd6 913d 5ebd 43bb
00000030: 723e c73e 4dc0 03bf e897 1f3e dc6e d0bd
00000040: c5f5 093d f904 75bd f382 3fbe 432a 3e3e
00000050: 4443 1f3e 4683 9d3e 5859 b5be d702 313a
00000060: 9c5c ee3b e9e1 823e b865 b9bd 4fac c43d
00000070: b073 8dbd f51c 9f3d 5f65 563e a8b7 93bc
00000080: dbc3 27be 6f7e 06bf dd98 4b3e 4fb9 c33e
00000090: 6b7e cfbc 08c0 e5bb 16cf 6a3d 05ed 233e
000000a0: a674 3ebc f73d b0be 8a19 11bf d6c8 8b3d
000000b0: 8b15 df3e 2aad 0c3d cf81 ffbd 5aca 66bd
000000c0: 7d72 843e a929 403e 8ae4 59be 3270 5fbe
000000d0: 806c 79bd 9a23 8a3e 9ed9 4fbe 133d cfbe
000000e0: 0bdf aa3e 70ea 59be e3d4 803e 5d02 063e
000000f0: 8f48 a43e b12d 3e3e 6810 eabe 7cf9 c33d
00000100: eb23 28be 9e7d 803d 0750 6fbe f9e1 b5bd
00000110: 22d8 1b3d 4d46 553e 0701 bf3d bf9b c0be
00000120: 7cab 533d 27e2 dbbd cae1 4e3e f6b5 9abe
00000130: a5b6 133e ed53 573e c82f 513e 3e5d 7d3d
00000140: 8890 a5be a3f3 69ba 71c9 393e 4a70 5abd
00000150: 043a acbe aba3 e4bc 1757 b33e 6f0b e63e
00000160: 387d 0fbe e35d 71be f412 97be 23ce 7f3e
00000170: 568b e1bd d735 cb3c 2362 dbbc 013a 0d3e
00000180: 7d9d 693e 4ca7 71be c12a 9abe 86ab 7ebe
00000190: b766 913d 4f12 d83c 5f1c ab3d 4b44 1b3e
000001a0: ec7d 703e ec08 c33e 12d3 a1be df3e 98be
000001b0: b9d1 923e 1f1f ad3b 16e1 b7be b2b6 293e
000001c0: 08b6 34be bab2 8dbe 61c3 963e 7bc8 23be
000001d0: 6574 34be d0f8 183e aeb2 7a3e 6687 a6bd
000001e0: f240 7b3e c754 473e 8514 3b3d c6ce f53e
000001f0: 6280 b1bc 4abf 02be 6570 543e e066 2fbd
00000200: 8bfc 36be 71c9 ba3e 53ed 52be d7de d0be
00000210: 5976 ad3d 8728 8dbc 8ce7 0dbe 4f59 44be
00000220: 8d6c 22bd 0834 163e da3a 0dbe a311 213d
00000230: dae3 623e 9109 dfbe 9985 d5bd 4a50 cb3e
00000240: ef9b bebe abb5 a8bd 0587 083f 1790 3bbe
00000250: 4f85 d93d c6f8 413d d3ac c8bd 8972 f3bd
00000260: ccfa 673e 7722 e5be d07c 863d 21fa cb3e
00000270: 6a34 b5bd 9008 a2bd ed01 10bd faf7 16be
00000280: c28d 4f3e ab15 783d b8ce 643e b560 253e
00000290: faf3 b7be c630 51be 180c e03e 5c92 56be
000002a0: 9835 c73d 6f82 46bd 4a3c 21bd dec2 963e
000002b0: 3d8f 62be cd06 9cbe 547f b0bd 5c49 f53e
000002c0: a524 4fbe ba6f d2bd 96ba 753d 7122 cdbd
000002d0: a4c9 b63e f40d 713d 36f4 bebe 98bc 16be
000002e0: e173 793e b61e 4ebe d390 d93d 6c91 f33d
000002f0: ddd7 cabc 85b2 583e d28e c93e de14 bdbe
00000300: a2fd 92be a2b3 b8be ef81 bf3e 872d 2d3d
00000310: 476d b3bd ed8b a13e 1694 2f3e 4a1a 5a3e
00000320: 8047 85be 51ff 7cbd 6175 d1be 2cd1 853e
00000330: e66b c2bd ddca 59bd 121d e13d 9571 6d3e
00000340: 8ccf e63d 8d35 bcbd 5604 3dbd ff7a c1be
00000350: 2157 903d 5244 90bd a8dd f7bc f125 913e
0.022878313 0.096768335 0.015432748 0.46611053 -0.49334663 0.047477975 0.118032075 0.06599138
-0.21326756 -0.2772747 0.07120929 -0.002986751 0.3891483 -0.514653 0.15585291 -0.10177395
0.03368165 -0.059819195 -0.18702297 0.18570809 0.15553004 0.30764216 -0.35419726 0.00067524373
0.0072742235 0.2556298 -0.090526044 0.09603178 -0.06906831 0.07769195 0.20937108 -0.01803191
-0.16383307 -0.5253667 0.19882531 0.38227317 -0.025328835 -0.0070114173 0.0573264 0.16008385
-0.011624491 -0.34422275 -0.56679595 0.06825416 0.43571123 0.03434483 -0.12475931 -0.05634532
0.25868598 0.18765892 -0.21278587 -0.21820143 -0.06089449 0.26980287 -0.20297858 -0.40476283
0.33373293 -0.21280837 0.2516242 0.13086839 0.32086608 0.18572117 -0.45715642 0.0956907
-0.16419952 0.062739596 -0.23370372 -0.088809915 0.038047917 0.20827599 0.09326368 -0.37618825
0.051677212 -0.107364945 0.20203319 -0.3021695 0.14425142 0.21028109 0.20428383 0.0618565
-0.3233683 -0.00089245493 0.1814325 -0.053329743 -0.33638012 -0.027910074 0.35027382 0.44930598
-0.14012611 -0.23570971 -0.29506648 0.24980979 -0.11012904 0.024805946 -0.026780194 0.13791658
0.22813983 -0.23598975 -0.30110744 -0.24870118 0.070996694 0.026375918 0.08355021 0.1516277
0.23485535 0.38092744 -0.31606346 -0.29735467 0.2867563 0.005283251 -0.35913914 0.16573599
-0.17647564 -0.2767542 0.29445937 -0.15994446 -0.17622526 0.14938664 0.24482223 -0.08131294
0.24536493 0.19465934 0.045673866 0.48009318 -0.021667663 -0.12768283 0.20746 -0.04282272
-0.17869775 0.36481813 -0.20598345 -0.40795013 0.08469839 -0.017231239 -0.1385786 -0.19174694
-0.039654303 0.14668286 -0.13791981 0.03932346 0.22157231 -0.43561986 -0.10425872 0.39709693
-0.37228343 -0.082377754 0.53331023 -0.18316685 0.1062113 0.04735639 -0.097985886 -0.1188708
0.22654265 -0.44752857 0.06566775 0.3983927 -0.08847888 -0.079117894 -0.035158087 -0.14743033
0.2026892 0.06056754 0.22344482 0.16150172 -0.35928327 -0.20428762 0.43759227 -0.20954269
0.09727019 -0.048464235 -0.039364137 0.29445547 -0.22124954 -0.3047394 -0.08618036 0.4790753
-0.20228823 -0.102752164 0.059992395 -0.10016335 0.35700715 0.058851197 -0.37295693 -0.1472038
0.2436061 -0.20128903 0.10623326 0.118929714 -0.024761135 0.2116185 0.39366776 -0.36929983
-0.2870913 -0.3607455 0.3740382 0.042279746 -0.087610774 0.31552067 0.17146334 0.21299091
-0.26031113 -0.061766926 -0.40909865 0.26136148 -0.09493236 -0.05317198 0.10991873 0.2318786
0.11270055 -0.091899015 -0.046146713 -0.3778915 0.070478685 -0.07044281 -0.030257061 0.2834926

seq16.0.conv.bias f4 [8]
00000000: e69e 913e caf7 713e db9f 1cbe bbfe 39be
00000010: 563f a8be 7d23 02bf d836 d0be 1d4c b73e
0.28441542 0.2362968 -0.15295355 -0.18163578 -0.3286082 -0.508354 -0.40666842 0.35800257

seq16.0.norm.weight f4 [8]
00000000: 1d87 9c3f b52a 803f 0a9f a93f d347 593f
00000010: a3e4 0d3f ff9b 173f 15ee 8c3f d1e2 893f
1.2228733 1.0013033 1.325166 0.8487522 0.55426997 0.59222406 1.1010157 1.0772344

seq16.0.norm.bias f4 [8]
00000000: 895a 03bd 8c31 1a3c 625b 28bd 1d91 27be
00000010: fbf1 ebbd a58f c237 27a8 aa3b a9b1 643a
-0.032068763 0.009411227 -0.041102774 -0.1636395 -0.115207635 2.3193492e-05 0.0052080336 0.0008723983

seq16.0.norm.running_mean f4 [8]
00000000: 21aa 1a41 2069 d03f a208 00c2 bc63 25c1
00000010: 6132 3142 7fda 8ec1 c1fa 02c1 2e57 b841
9.666535 1.6282082 -32.00843 -10.336849 44.2992 -17.856688 -8.186219 23.042568

seq16.0.norm.running_var f4 [8]
00000000: 75e7 4045 5bad 5745 bcdc 4745 6f99 4045
00000010: a7d5 cc45 6bf2 ce45 eaa1 9545 b9d0 6d45
3086.466 3450.8347 3197.796 3081.5896 6554.7065 6622.3022 4788.2393 3805.0452

seq16.1.conv.weight f4 [8, 8, 3, 3]
00000000: 5a43 263e 5f44 a83e a078 c33e fe61 dfbd
00000010: e9fe 273e 5666 50be baca 60be 38e8 ddbd
00000020: 1e8c e7bd 19f0 cb3e 006d b13c d31f 0abd
00000030: f376 52bd 5faa 85bc 97ad 11be f1bc 33be
00000040: 4a2b 8fbe 7a82 6ebe 7c4f 613c c844 b33e
00000050: 04d5 dd3d 5ea2 acbd 8255 943d fbc5 8b3c
00000060: bd54 dabd c9de 39bd f8c2 83be b73c 643e
00000070: 0cd3 5d3e 4eec c63e 4c6e 563e d152 b73d
00000080: 0b99 453d 1049 63be f393 07be 0ec9 6abd
00000090: 8401 b93d 3210 21be bd78 ad3d 1aaa e33b
000000a0: efd7 2fbe 3297 13bb 4441 bcbc 0631 83be
000000b0: 2f78 6abe d8fe f13e 2bfb 523e 4dba 363e
000000c0: 9fd7 c33c 8274 703d f25f 1ebc 6c23 87be
000000d0: 7baa b0be 943e c4be d087 b23e dc8d 9f3e
000000e0: f040 c43e 4f9d fcbd 9946 df3d fa76 b73d
000000f0: b7ff 89be 62a3 7fbe 5914 98be e5ae 2a3e
00000100: a674 be3d da26 133e 01bc 92bd d492 a63e
00000110: 7ff9 4bbd 8c3f 60be 7338 143d 08d2 6ebe
00000120: 24f4 383e 2f00 e83d fcdd 85be 0ff3 2d3d
00000130: b884 833d c3b8 5abe 26b8 8a3e 99eb aebd
00000140: b692 a3bd 68ba 173f 5c25 7dbe 95c2 a7be
00000150: 22e1 623e 9821 a1be aeac 87bd f2d3 ec3e
00000160: 0a6f c3bd 1c91 35bd 6a9b d73d 78a8 95be
00000170: de2e a2be 1a14 ac3e 824a 52be 8430 96bd
00000180: 2c81 ed3e 9a56 3bbd 8cec 1abe 1219 f9bd
00000190: 06f2 0b3e 547d 75be e83d a63e 4a36 1a3d
000001a0: 810f 55be 347f b63e 9b88 f3bd 5669 06be
000001b0: 3c42 afbd 484d 1abe ccb6 c83d 16f7 1ebd
000001c0: 0721 a73c 7063 8b3c 8a46 24be 9f23 2bbe
000001d0: 9adc e43d c2db e1bb 5a98 44be cbc6 17be
000001e0: c45c 643e 37aa 05be 6084 07bc c4c2 e03e
000001f0: df6c e6bc 43f8 da3d 244d 6b3e e144 e6bd
00000200: e630 5ebe 3dff 883e f3b5 cebe e869 fabc
00000210: 45e6 26bd 4597 9e3d 6b5b 0fbd 9fea 503e
00000220: 5bb7 3abd 81a7 90be ff13 5c3e 0929 1f3e
00000230: c326 13be 14b1 703e 2cfa 3cbd 6671 18be
00000240: 31cf bcbe 9d0a dcbc 1223 c13e 5a04 78be
00000250: 2798 fdbd c585 2d3e 0ffd 71be af0f 813d
00000260: b782 833e 2eab 593e f961 463e 2653 43be
00000270: 159e 833d 8ec9 e9bc de98 3fbd 72ad 21be
00000280: 3189 82bd bfde fa3d c17d cabe 6ba3 d13a
00000290: 6fee cf3e 4c92 c1bd f601 833c d8a8 d93d
000002a0: 8aae de3e 6065 2c3e 107f edbe f494 a2be
000002b0: 9741 01bd 6bb6 823e a92d 25bc 5a7b cb3d
000002c0: 0441 853c 3114 77bd 26c2 0e3e 318e 75bd
000002d0: bbe0 9abd 63ec 463e f184 febd 776d 03be
000002e0: e339 123e f8ae d73c 5861 13be 616a 7f3e
000002f0: 8220 603d 70bb 50bd 67ee 5e3d a296 9cbd
00000300: d984 5d3e 60c4 c13b 433b 32be b2df 263e
00000310: cca0 273d 64cd b0be 69c6 dfbd a328 ebbc
00000320: ab01 3b3e ec90 8ebe 0f81 c83d 226d a23e
00000330: 2731 d6be 26f0 f7bd 38f0 963e 0774 9dbd
00000340: 6686 a3bc 9638 6f3d 0386 9f3e 4f0c d5bb
00000350: ff29 aebe 4cff 9bbe 2c48 29be 0f20 ab3e
00000360: bf1d e43e edf7 26be befa b3be d3a4 c63e
00000370: c84f f4be 1cb5 43be 9079 c53e 252e 78bd
00000380: 7ccd 88bd ddb7 f73d d3c8 debc c77d 4ebe
00000390: a230 3b3e 436a b7bd a4d7 99bd 3674 de3e
000003a0: 1ca5 0c3d 18c0 63bd 5f73 de3e 5224 9cbb
000003b0: 2efb 3bbe c2b9 3a3b 9b59 c1bd 5283 1bbd
000003c0: 4aa1 893e b7d8 bcbc e8cd 32be f583 ce3e
000003d0: d29a 97be 649d 1cbe d1b2 823e 675e 1cbe
000003e0: c6c8 27be 8ca0 493e c2a4 62bd 5473 b63d
000003f0: 770e dcbd c844 12be 4934 afbd 293d ed3d
0.1623663 0.32864663 0.38177967 -0.109073624 0.16405834 -0.20351538 -0.21952334 -0.10835308
-0.11306022 0.39831617 0.02165842 -0.033721756 -0.05138297 -0.01631659 -0.14226376 -0.17552544
-0.27962714 -0.2329196 0.013751861 0.35013413 0.10831645 -0.084294066 0.07242872 0.017062178
-0.10660694 -0.04537848 -0.25734687 0.22288786 0.21662539 0.3885216 0.20940512 0.08951343
0.048241656 -0.2219584 -0.13240032 -0.057320647 0.09033492 -0.15728834 0.084702946 0.006947768
-0.17172216 -0.002252054 -0.02298034 -0.2562334 -0.22897409 0.47264743 0.20603625 0.17844506
0.023906527 0.05870486 -0.00966643 -0.26394212 -0.34505066 -0.38328993 0.34869242 0.31162918
0.38330793 -0.12334692 0.10902137 0.0895824 -0.26952907 -0.2496467 -0.29703024 0.1666828
0.09299593 0.1437029 -0.07164765 0.32533896 -0.049798485 -0.21899241 0.036186647 -0.23322308
0.18061882 0.1132816 -0.26145923 0.042468127 0.064217985 -0.21359544 0.2709362 -0.085410304
-0.07986967 0.5926881 -0.24721283 -0.32765642 0.22156194 -0.31470942 -0.06624733 0.4625545
-0.095426634 -0.04432784 0.1052769 -0.29230094 -0.31676382 0.33609086 -0.20536235 -0.07333472
0.46387613 -0.045736887 -0.15129298 -0.12162985 0.13666543 -0.2397359 0.32469106 0.03764943
-0.20806696 0.35643923 -0.1189129 -0.1312612 -0.08557555 -0.15068543 0.09800491 -0.03880986
0.02040149 0.017015189 -0.16042534 -0.16712807 0.11174889 -0.0068926523 -0.19198743 -0.14821927
0.22301012 -0.13053213 -0.008271307 0.43898594 -0.028128086 0.106918834 0.22978646 -0.11243606
-0.21698341 0.2675723 -0.4037319 -0.030568078 -0.040746946 0.07743696 -0.034999292 0.20402001
-0.045585018 -0.28252795 0.21492003 0.15542997 -0.14370255 0.2350505 -0.04613702 -0.14887008
-0.36876824 -0.02686053 0.3772207 -0.2422041 -0.123825364 0.1694556 -0.2363169 0.063018195
0.25685665 0.21256706 0.19373311 -0.19074687 0.06426636 -0.028538492 -0.046776645 -0.1578882
-0.063738234 0.12249517 -0.39549068 0.0015994137 0.40611598 -0.09451732 0.015992146 0.106279075
0.43492538 0.16835546 -0.46386003 -0.31754267 -0.031556692 0.255298 -0.010081687 0.09935637
0.016266353 -0.06032199 0.13941249 -0.059950057 -0.07562395 0.19426112 -0.124277 -0.12834726
0.14279895 0.026328549 -0.14392602 0.24942924 0.054718502 -0.050960004 0.054426577 -0.076459184
0.21632709 0.0059133023 -0.17405419 0.1629627 0.040924832 -0.345317 -0.109265156 -0.0287059
0.18262355 -0.27844942 0.09790241 0.31723887 -0.41834375 -0.121063516 0.29480147 -0.07688146
-0.019961547 0.058403574 0.3115693 -0.0065017114 -0.34016415 -0.30468214 -0.16531438 0.33422896
0.44553944 -0.16305514 -0.3515224 0.38797626 -0.47717118 -0.19112056 0.38569307 -0.06059088
-0.06679818 0.12095616 -0.02719537 -0.20165168 0.1828027 -0.08955815 -0.07511833 0.43448037
0.034337148 -0.055603117 0.43447396 -0.004765072 -0.18357536 0.0028492068 -0.09440919 -0.037967034
0.26880866 -0.023052556 -0.1746136 0.4033505 -0.29610306 -0.15294415 0.2552705 -0.15270387
-0.16385183 0.1969015 -0.055332907 0.08908716 -0.107449464 -0.1428405 -0.085548945 0.11583931

seq16.1.conv.bias f4 [8]
00000000: 99f2 6fbe 40e3 1e3e 9b76 9abe 0a47 f7bd
00000010: 90b0 3a3c 0142 953e c746 f63d 7d87 213e
-0.23432387 0.15516376 -0.30168614 -0.120740965 0.011394635 0.2915192 0.120252185 0.15774341

seq16.1.norm.weight f4 [8]
00000000: d90a 343f 750d 833f 9c0a 913f f06e 8c3f
00000010: 6602 4e3f 450e 933f 5359 553f be3e 883f
0.7032905 1.0238482 1.1331363 1.0971355 0.8047241 1.148873 0.8333942 1.0644147

seq16.1.norm.bias f4 [8]
00000000: 4a26 a43e 8d1e 033e 2b79 95bb 7cfc c33e
00000010: ea63 9fbe 68d9 91bb 8cc4 1b3f 1394 be3e
0.32060462 0.12804623 -0.0045615635 0.38278568 -0.31130916 -0.0044509657 0.6084678 0.37222347

seq16.1.norm.running_mean f4 [8]
00000000: 8a99 97bd cbc4 103e 7a69 a0be 07aa a03c
00000010: b0b8 6bbf 166e 873e 30e9 d93d 7672 98be
-0.07402332 0.1413757 -0.31330472 0.019612325 -0.92078686 0.26451176 0.1064018 -0.29774827

seq16.1.norm.running_var f4 [8]
00000000: 782c 3e3f 82c0 9c3f f636 9a40 29f7 913f
00000010: f6de b33f 3399 6140 280f 563f 334d 6d3f
0.74286604 1.2246249 4.819209 1.1403552 1.4052417 3.5249755 0.83616877 0.9269592

seq16.2.conv.weight f4 [8, 8, 1, 1]
00000000: 9812 1cbf 60d0 0a3e 4863 b63d f488 443e
00000010: 88af 98bc 4dfe 893c 0d18 2dbf 77c0 a63c
00000020: c71c 16bc f764 f73e 151d 983e b9ce fd3e
00000030: c347 bc3d 2577 a5bd e316 bb3d 7552 d63e
00000040: d30a a63d 020e b33d 4989 2cbf f3cf 0b3d
00000050: 5fa9 373e 349a 23bf 9ac9 353c a484 b6bd
00000060: 0d93 443e 0321 e0be 722c 963e 0914 86be
00000070: 9771 a0be 844b 833e 4e8c 3c3e b7a5 f73d
00000080: 73b4 c73e a787 46be 7f73 193d 0d41 52be
00000090: 6667 9c3d 2718 f23d acbb df3e a9ae cd3e
000000a0: df93 9bbd 5eca a7be 3a79 fc3e d269 88be
000000b0: 1711 38be 749d b33e 262b cabc 44df d0bd
000000c0: 8c7b b1bd 6b5b 49be 62f5 6a3e e382 88be
000000d0: 5d3a 1bbe c033 c23e a383 9f3d cf4b 15bf
000000e0: cc63 4e3e 2169 a8bd 0732 5f3e 7282 913d
000000f0: 81c5 50be 5c6f 1bbe 7cf2 c0bc 04a5 52bf
-0.6096587 0.13556051 0.08905655 0.19192868 -0.018638387 0.016844893 -0.67614824 0.020355446
-0.0091621345 0.48319218 0.29709688 0.4957178 0.09193375 -0.08079366 0.09135225 0.41859785
0.08107533 0.08742906 -0.6739698 0.034133863 0.17935704 -0.6390717 0.011095429 -0.08912018
0.1919672 -0.43775186 0.29330784 -0.2618716 -0.31336662 0.2564355 0.18412897 0.120921545
0.3900486 -0.19387685 0.03746366 -0.20532627 0.07636909 0.11821013 0.4369787 0.40172318
-0.075965635 -0.3277158 0.4931124 -0.26643234 -0.1797527 0.35081065 -0.024678778 -0.101988345
-0.08666143 -0.1966378 0.22945169 -0.2666236 -0.15158983 0.37930107 0.077887796 -0.583188
0.20155257 -0.08223177 0.21796428 0.071049586 -0.20387842 -0.15179199 -0.023553126 -0.82283044

seq16.2.conv.bias f4 [8]
00000000: d122 a53e fcef b6be cf6d e33e 0b49 e9be
00000010: 0df1 6c3b 8d9a df3e e68f f3bd 71f3 d03e
0.32253125 -0.3572997 0.44419715 -0.4556354 0.003615442 0.436726 -0.11892681 0.4081073

seq16.2.norm.weight f4 [8]
00000000: 5faa 4f3f da62 6a3f 9047 663f 4f2e 213f
00000010: 8444 123f 77fc 343f 72f8 483f b7e5 063f
0.8111934 0.91557086 0.89952946 0.62961286 0.57135797 0.7069773 0.785041 0.5269427

seq16.2.norm.bias f4 [8]
00000000: 16fc a33e 6b74 143e 3062 edbd 6fe8 c13e
00000010: 6453 c13e ef0a a23e 8dd9 8f3e 36dd 0a3f
0.32028264 0.14497535 -0.115909934 0.37872645 0.37758934 0.31648967 0.28095666 0.5424379

seq16.2.norm.running_mean f4 [8]
00000000: 166d 4ebe 879b ed3e 3c36 df3d 5d26 adbe
00000010: cd01 123f 7233 983e 4809 fbbe a075 2b3c
-0.201588 0.4640772 0.10899016 -0.3381833 0.57034 0.2972675 -0.4903052 0.010465056

seq16.2.norm.running_var f4 [8]
00000000: 0579 0d3f 2e76 2a3f d23b 783e e54a 9a3e
00000010: a83a af3e 9040 b33e a2de 0f3f a13c ed3e
0.55262786 0.6658658 0.2424157 0.30135265 0.3422444 0.35010195 0.56199086 0.4633532

seq32_1.0.conv.weight f4 [8, 3, 3, 3]
00000000: 71ea a3bd 7d01 f43c 2051 8b3e e828 32be
00000010: 4b6b c53e fda5 983d 5d8e 22bf af7d a03e
00000020: c5e7 ee3b a669 053e 37d8 77be 3f9a cf3c
00000030: b2b5 d2bd febd 21be 64b6 8fbe 06d9 213d
00000040: ced6 edbd aa25 893d 12cb 3e3e 70c3 8abd
00000050: c5ff b83d b252 ae3e a94a b7be aa97 e3bc
00000060: ce64 ab3e da63 29be c428 23be 8c57 aebe
00000070: 46dc de3d 29ab 78be 4fea 31be 043d 6dbd
00000080: 3dc0 923e 1345 d03e 4fb0 d4be e0df 863e
00000090: 4be0 84bb 5bc6 d23d ece5 85be c89b c13d
000000a0: 44ff 9d3c a6ce b33d 216e 043e db2e f4be
000000b0: c0a5 05bd 7642 623e 9a55 eb3c 4052 87bd
000000c0: 6ea7 723d bed3 643e 1aa5 8f3e beaa 68bc
000000d0: 3f08 9abe 4da3 403e 6d56 d2bc a1ae 47be
000000e0: b136 9cbe daaf 273e 2fd5 b6be 6740 343e
000000f0: 7696 ce3d e928 043f be61 d23e 6601 a13d
00000100: 000b 18be 43a8 723d 0a9b 53bc 75d8 033d
00000110: d6ae bcbe 483c 03be 03d3 99bd 54c1 87bd
00000120: f7cd a6bc ce50 863e 0ac5 893e e619 6c3d
00000130: 7e9b 4e3e f96f 42bb 11fe 34be e742 8dbe
00000140: dead debe 54c3 31be 9a46 1cbe b172 51be
00000150: 80df 11bc 9f93 cbbe d4c7 a83d 3d36 05be
00000160: 943e 0cbf cc91 a2bd 5c97 59be 405b 8f3d
00000170: 046a 7d3e 65b3 033e f460 703e 4900 db3e
00000180: 4d2c ed3d 02a8 6abe dc8b d43d 2a18 cbbd
00000190: 85bb 52bd 9ac5 633a 0c09 513d c539 a63e
000001a0: 2c7f d43e 4ba7 3ebd d75a 4e3d 3a88 e23d
000001b0: c4b5 b53d dfae 12bc 44f1 54bd 3bbe 993d
000001c0: 385f 413d b6df 3abe 1002 1f3e 0aa4 24bd
000001d0: 433d 283e 7be9 193e 91c4 a2bd 5141 ca3c
000001e0: a826 b53e a99f fb3d a3ab 643e 5e69 bb3e
000001f0: b8c5 5e3e 5df8 f33d c78f 95bd 5353 0dbf
00000200: 5352 d1be 55ce 823d 37fb 86be e7ef 3bbe
00000210: e883 7b3e 6587 20be e906 25be 6e5a cfbc
00000220: f309 6e3e 8bfa 81be 0c14 48bd 8a74 55be
00000230: df61 313e 3d48 073f 7117 28be 05af 883d
00000240: f991 72be baea 143e 5b4f 12bb c445 c0be
00000250: 4472 66bd 123d 033d b2cb 0e3e 27fe 0ebe
00000260: 5644 71be 4be9 ea3c 3b23 b93e b05e a6bd
00000270: 40f8 efbe ed5d 143e e65d a03e 4b6f 0b3e
00000280: 1dd6 253c 7059 aabc 1c76 083e a0e2 283e
00000290: 82b0 053f 1433 8f3e cd6f b83c e8ff 753e
000002a0: 605c 87be 3e13 e63e dc09 05bf f9ec 273d
000002b0: 8c48 95be 89b9 5a3e c4b1 7f3e 0992 a13b
000002c0: 84d6 57be f9cb af3c befe d53d d75d e1be
000002d0: 4750 59bd 9b6f 1fbe 8458 adbc 3bf1 5f3e
000002e0: a10b 1b3e 2f9d cfbd 97b5 6d3d 8db7 a03d
000002f0: fab4 9cbc 7361 e63e c8e7 253e 3ad4 93be
00000300: 027b 8e3d 9083 b13e d0da 85bd d490 6cbd
00000310: 2b9b 41bd 0ed0 983c 1c45 93bc b51e 9fbe
00000320: 6482 f1be a456 96be 015f 803e 6801 493e
00000330: 466f f93c 1d69 0cbe 23dd ff3d 8246 fcbd
00000340: ad73 fcbe ad2d 15be b51a 39be b040 243e
00000350: 7a3b dc3d ee10 2f3e 52da a2bd 8e40 ee3d
-0.080037005 0.029785866 0.2721033 -0.17398417 0.3855842 0.07453535 -0.6349848 0.3134589
0.0072908127 0.13028583 -0.24203573 0.025342105 -0.10288562 -0.15795133 -0.2806884 0.03951361
-0.11613236 0.06696637 0.18632153 -0.06775558 0.09033159 0.34047467 -0.3579915 -0.02778228
0.33475345 -0.16541997 -0.1593352 -0.34051168 0.108818576 -0.24284042 -0.17374538 -0.057919517
0.2866229 0.406777 -0.41540763 0.26342678 -0.004055058 0.102917396 -0.2615198 0.09453541
0.01928676 0.087796494 0.12932636 -0.47691998 -0.032628775 0.22095665 0.028727341 -0.06607485
0.059241705 0.22346398 0.2805565 -0.014200864 -0.30084416 0.18812294 -0.025675977 -0.1950021
-0.30510476 0.16375676 -0.3570952 0.17602693 0.10087292 0.51624924 0.41090196 0.07861595
-0.14847946 0.059242498 -0.012915382 0.03218885 -0.3685214 -0.12815964 -0.075109504 -0.06628671
-0.020361884 0.26233524 0.2690814 0.057641886 0.20176503 -0.0029668792 -0.17675044 -0.27590105
-0.43492025 -0.17359668 -0.15261307 -0.20453908 -0.008903384 -0.39761063 0.08241239 -0.13008972
-0.54782987 -0.07937965 -0.21249145 0.069998264 0.24747473 0.12861402 0.23474485 0.42773655
0.11580715 -0.22915652 0.103782386 -0.09916718 -0.051448364 0.0008688808 0.05103402 0.3246595
0.41503274 -0.04654626 0.0503796 0.110611394 0.0887256 -0.008952825 -0.0519879 0.07506987
0.04720995 -0.18249401 0.1552813 -0.040195502 0.1642962 0.15030472 -0.07947648 0.024689348
0.35381055 0.12286312 0.22331099 0.36603826 0.21755111 0.11912606 -0.07302814 -0.5520527
-0.4088312 0.06387011 -0.26363537 -0.18353234 0.24562037 -0.15676649 -0.16115917 -0.025311675
0.23245983 -0.25386462 -0.048847243 -0.20845237 0.17322491 0.528446 -0.16415192 0.06674007
-0.23688497 0.14542666 -0.0022325132 -0.37553227 -0.056261316 0.032040663 0.13944891 -0.13964139
-0.23561224 0.028675696 0.3615969 -0.08123529 -0.46869087 0.14488955 0.3132164 0.13616674
0.010121849 -0.0207946 0.13326305 0.164927 0.52222455 0.27968657 0.022514248 0.24023402
-0.26437664 0.44936556 -0.5196817 0.04099748 -0.2915691 0.21359839 0.24970156 0.004930739
-0.21077925 0.021459566 0.10448979 -0.44016907 -0.053055074 -0.15569918 -0.021160372 0.21869366
0.15141155 -0.10137402 0.058034506 0.078475095 -0.019129265 0.44996223 0.16201699 -0.28872854
0.06957056 0.34670687 -0.06535876 -0.057755306 -0.04726712 0.018653896 -0.01797729 -0.31078115
-0.47169793 -0.29362977 0.25072482 0.19629443 0.030448567 -0.13711973 0.1249335 -0.12318136
-0.49307004 -0.14568205 -0.18076594 0.16040301 0.10753532 0.17096302 -0.079517975 0.116334066

seq32_1.0.conv.bias f4 [8]
00000000: 7994 d43e cff1 febb 5824 8f3e edf7 143d
00000010: ab25 103e b6f7 103d 0a2a 193e 1bc3 863e
0.41519526 -0.0077802907 0.27957416 0.036369253 0.14076869 0.035392486 0.14957443 0.2632073

seq32_1.0.norm.weight f4 [8]
00000000: 29ac 9b3f 16f8 933f eb93 9e3f 8fbb d53e
00000010: 807b de3e a46d 993f d43c 9e3f 8854 5b3f
1.2161914 1.1560085 1.2388891 0.41744658 0.43453598 1.1986585 1.2362313 0.8567586

seq32_1.0.norm.bias f4 [8]
00000000: c7e7 be3e 0d44 2d3e 493d 383e cd45 febe
00000010: 9533 84be 1515 883e 2a1a a9be ef36 15be
0.37286207 0.1692049 0.17992128 -0.4966263 -0.25820604 0.26578584 -0.33027774 -0.14571737

seq32_1.0.norm.running_mean f4 [8]
00000000: 4ec1 00c2 302a b740 491b bcc1 b517 c4c1
00000010: ae5d 0342 7f80 9e40 c125 d342 d35e 47c2
-32.188774 5.7239 -23.513323 -24.511576 32.841484 4.9531856 105.57374 -49.8426

seq32_1.0.norm.running_var f4 [8]
00000000: 3a35 7944 cb9d f644 4b79 6444 fd53 8745
00000010: 97a6 8145 5865 be44 07cf 8e45 a5f5 4945
996.83167 1972.931 913.8952 4330.4985 4148.8237 1523.167 4569.8784 3231.3528

seq32_1.1.conv.weight f4 [8, 8, 3, 3]
00000000: e6df 783e 4506 cdbe 71f3 963e cf6d d6bd
00000010: f456 483e deee 38be 23be 4fbe baff 2b3e
00000020: 98b1 063e 1079 0dbe e284 513e fc53 0bbe
00000030: e3a6 c13d 490f d0be 577b de3e 2a1f 2d3e
00000040: 96cc 3cbb c055 4ebe 5c58 583e 14f7 a6bd
00000050: 3e81 a43c 6a83 a1bd fd98 353d e5bd fabd
00000060: 385b 5dbd 2736 79be 7ce2 863e dcb5 5bbd
00000070: 4b37 a0bd 10ad 83bc f2e6 773d 6023 9fbd
00000080: 61e2 b83d f55c 153e 1a35 07be 64c0 57bd
00000090: 38ab dcbc 479e 72bd be5a af3d fb2b a73a
000000a0: e37b e03c 163b 113e f687 5cbe b93f bf3d
000000b0: d161 393d 77d2 98be 41b4 9f3e fcd5 9ebe
000000c0: ffea 3a3e 07a5 7cbe 6861 e5bd 23f8 c83e
000000d0: 8b15 d5bd 9eeb 80bd 1ce4 8f3e 4ab3 14be
000000e0: d838 8b3e 97dd 9ebe 44c4 d23e 6bee d8be
000000f0: 5486 623d 97e4 a2be 033d 8b3e 8c8f 873e
00000100: 4052 ab3d 4381 d13d 6063 a03e 5d97 54be
00000110: 0c1e 80bd 82fa 3fbe 6289 463d cb8a 12be
00000120: 9269 663e 5ed9 12be 1ff7 9bbe c2dc 013f
00000130: 65cb 853e ebac 01bf 32cc a63e dced 583e
00000140: 7f5f 04bf 3b83 12bc d4ea 31be bb65 9bbc
00000150: aada afbd 0bee 6b3c 7d22 373d 4c97 683d
00000160: cc1a 293c fb9c bd3d 7206 5b3e 46f4 e53d
00000170: 1286 cabe 5d3d 943e 3a71 34be f32f 7c3e
00000180: bbdd 80be ba0d 90be e9e6 353e e1ef 1abe
00000190: e66e 6dbe 6669 043d 80d9 9ebe 2371 77bd
000001a0: 75e8 023e 7465 b2be 5fc3 a8bd ed89 d13c
000001b0: 5275 fbbc 54cc 62bb 3221 0abe d4d3 6ebd
000001c0: d851 0bbe 2f99 79be addf 93bd d126 23be
000001d0: 1536 b6be a571 313d e8d3 05be 0dcb bf3e
000001e0: b6c0 8abd 0624 5d3d a490 a43d 7ac6 a7bc
000001f0: 2db7 a7bd 9774 f23d 9bb3 10be ead9 923d
00000200: 38e9 f2bd f400 103d 3020 59be ca75 f53d
00000210: f9b8 8a3e 8780 98bc 1490 68be 679d 603e
00000220: 67b3 11bb 583c cabe e9c6 fd3d da78 153e
00000230: b60a f0bd df20 e8bd 5ee1 c43c 6d24 34bd
00000240: 6c22 ddbd 1b44 b93d a5f6 853d 2883 df3d
00000250: 7aba 99bd 5224 16bd 65de 5fbd 6848 fb3d
00000260: 4307 043e 1236 09bd 72e1 7cbe e69b d3bd
00000270: dc18 9cbe 0bbf bdbe 5fa5 823a 3cb6 5d3d
00000280: 685c cd3e e53f b73e 9b38 40be c98c b7be
00000290: ea6f ccbe ac1f 94be c038 24be b42d 1fbe
000002a0: e09c a33e 745c 1c3f c853 0a3f 7abf 22be
000002b0: 5bcd b4bd 981c 13be b957 19be cec1 97be
000002c0: e521 bfbe 1f6d cdbe a69c aabe 7391 cebe
000002d0: 4c7a 853a 668f 44be 6d72 2abd 10fb 1c3e
000002e0: 9b1e 893d a120 4bbe 892d 833c dadc ecbd
000002f0: b94a afbe 2625 dc3b 6fce 34be 6be7 4dbe
00000300: 9b00 19be eda0 c1bc ee0e ea3d 19e0 843e
00000310: 1c28 793e c6a4 323e edf5 18be bdf9 633d
00000320: 5182 0d3e ac11 07bb 3c2c 103e 0732 053d
00000330: 00f1 9a3b 9020 81be 0b9c f0bd 8663 5b3d
00000340: 15e5 d43c d6e8 7fbd 2874 cabd ac65 a7be
00000350: 5d00 ba3c 72e8 c73d d39e 6e3d 639c ac3c
00000360: 507f 273e 342a 603e 84b1 09be 1a05 6e3d
00000370: f12f 37be fc69 163f 60f9 913e ab62 df3c
00000380: b0c6 bbbd 2a5a ed3d d0b2 3ebe 7fa3 593e
00000390: c83e 50bd a4b0 133e c23e 00bf 7d82 c73b
000003a0: 087f 14bd c0b7 b43e 27ac cd3b 58f9 e8bc
000003b0: d9a9 6a3e ce51 a8bd b3e6 553d a20a 7b3e
000003c0: 3586 f43d 26f0 393d 83f5 90be 2778 8f3e
000003d0: 55fe 753d 1dd4 86bd 25c1 f13d 7558 993d
000003e0: 14fb 8ebe d2f6 9f3e 502a ef3d 3897 e1bc
000003f0: 81a0 563e 1ea0 9b3d a402 2dbb 60b6 c13d
0.2430416 -0.40043846 0.29482606 -0.10470163 0.1956442 -0.1805987 -0.20287375 0.1679677
0.13153684 -0.13815713 0.20460847 -0.13606256 0.09455659 -0.40636662 0.43453476 0.1690642
-0.0028808466 -0.20149899 0.21127456 -0.08152595 0.020081159 -0.07886393 0.044335354 -0.12243251
-0.05404207 -0.24337064 0.2634467 -0.05364023 -0.07823046 -0.016073734 0.06052298 -0.07770419
0.09027553 0.14586242 -0.1320385 -0.052673712 -0.026937112 -0.059232976 0.085622296 0.0012754196
0.027402824 0.14182696 -0.2153624 0.09338326 0.0452593 -0.29848072 0.3119221 -0.31022632
0.18253706 -0.24672328 -0.112002194 0.39251813 -0.104044996 -0.062949404 0.2810372 -0.14521518
0.27191806 -0.31028435 0.41165364 -0.42369398 0.055303887 -0.31815025 0.27194986 0.26476705
0.08365297 0.10229733 0.31325817 -0.20760866 -0.06255731 -0.18747905 0.048470862 -0.14310758
0.2250121 -0.14340732 -0.30461976 0.50727475 0.2613174 -0.50654477 0.32577664 0.21184486
-0.51708215 -0.008942421 -0.17374736 -0.018969407 -0.08586629 0.014400016 0.044710625 0.056784913
0.01032133 0.09258457 0.21389177 0.11228232 -0.39555413 0.28953066 -0.17621318 0.24627666
-0.25169167 -0.28135473 0.17763866 -0.15130569 -0.23186836 0.03232708 -0.31025314 -0.06041063
0.12783988 -0.34843028 -0.08240389 0.025578463 -0.030695591 -0.0034606652 -0.13489226 -0.058307484
-0.1360544 -0.24374841 -0.07220397 -0.15932776 -0.35588136 0.04332127 -0.13069117 0.37459603
-0.06775038 0.053989433 0.080354005 -0.020480383 -0.08189235 0.11838644 -0.14131014 0.0717047
-0.11860889 0.03515716 -0.21203685 0.11985357 0.27094248 -0.018615974 -0.22711211 0.21935044
-0.0022232176 -0.39499164 0.12391455 0.14596882 -0.11720793 -0.11334395 0.024033245 -0.04398005
-0.10797581 0.09046193 0.06541184 0.10913688 -0.07506271 -0.03665573 -0.05465545 0.1226967
0.12893395 -0.03349883 -0.24695376 -0.1033247 -0.30487716 -0.37059817 0.0009967497 0.05412887
0.40109563 0.35790935 -0.18771593 -0.35849598 -0.39929134 -0.28930414 -0.16037273 -0.15544778
0.31955624 0.6107857 0.5403409 -0.15893355 -0.08828231 -0.14366376 -0.1497487 -0.2964005
-0.37330547 -0.40122315 -0.33322638 -0.40345344 0.0010183542 -0.19195327 -0.04161303 0.15330148
0.06695291 -0.19836666 0.016012924 -0.115655616 -0.34236696 0.0067182956 -0.17656873 -0.2010781
-0.14941637 -0.023636306 0.11428629 0.25952223 0.24331707 0.17445669 -0.14937563 0.05565809
0.13819243 -0.0020609898 0.14079374 0.032518413 0.0047284365 -0.25220156 -0.11748513 0.05356171
0.025988141 -0.06247791 -0.09885436 -0.32694757 0.022705251 0.09761132 0.058256935 0.021070665
0.1635716 0.21891099 -0.13446623 0.058110334 -0.17889382 0.5875547 0.2851057 0.027268728
-0.09168756 0.11589463 -0.18622899 0.21253775 -0.050841123 0.14422852 -0.5009576 0.0060885535
-0.03625396 0.3529644 0.0062766257 -0.028439209 0.22916354 -0.08218728 0.052221965 0.24515775
0.119396605 0.04539504 -0.2831231 0.28021356 0.060057003 -0.06583426 0.118044175 0.07487575
-0.27925932 0.31242996 0.11677992 -0.027537927 0.20959665 0.07598899 -0.002639928 0.094586134

seq32_1.1.conv.bias f4 [8]
00000000: d075 edbc 6515 8f3e 63c3 2f3e af3e 253d
00000010: 337b 98be 0c15 833d e164 063d aa59 27be
-0.028986841 0.2794601 0.17164378 0.040342983 -0.29781494 0.06400499 0.03281105 -0.16342798

seq32_1.1.norm.weight f4 [8]
00000000: 69b4 b63f c7ad 8b3f f8ce 673f 6ac4 613f
00000010: 0e4f 8b3f 30be 3c3f ad4a 8d3f 7355 453f
1.4273807 1.0912408 0.90550184 0.8819033 1.08835 0.73727703 1.1038414 0.7708351

seq32_1.1.norm.bias f4 [8]
00000000: 70cb 9a3e 52e5 57be 7c3b 79be d3a5 4fbe
00000010: 9b01 34be cae2 863d aea1 ac3e 3610 c2bd
0.30233335 -0.21083573 -0.24339098 -0.202781 -0.17578737 0.06586225 0.33717102 -0.09475748

seq32_1.1.norm.running_mean f4 [8]
00000000: 3265 143c af50 cf3e 3bc9 c83e f595 a03f
00000010: 357f 1cbf 2347 a0be ace5 8bbe 6b88 b2bf
0.00905733 0.40491244 0.39216027 1.2545763 -0.611316 -0.31304273 -0.27323663 -1.3947881

seq32_1.1.norm.running_var f4 [8]
00000000: cddb 3f40 49fe e13f 2aaa f63f 3245 5240
00000010: 9c9f eb3f 945f 2440 af4c 1a40 0ad2 5340
2.9977906 1.7655727 1.927068 3.2854733 1.8408084 2.5683336 2.4109304 3.3096948

seq32_1.2.conv.weight f4 [8, 8, 1, 1]
00000000: d612 a73d f571 bd3e 448f 963d 470d 433e
00000010: 4999 9abe e0f1 6b3e 50e3 1c3f c5a4 ae3d
00000020: 3448 7d3e 931b 26be 9fe5 a0be c0e2 31be
00000030: ca91 dbbe ef29 1ebe 656c 5e3e 09e8 653e
00000040: a973 203e eb92 abbe f795 983e f37c 90bd
00000050: 2d77 4fbf 94e7 823e 74f5 1c3e a776 8c3d
00000060: b867 8d3e 6adc d53e 9100 f23d 7e5e dabe
00000070: 85bd 9f3e 2382 383e d6bf c2be c738 79be
00000080: 2b42 0dbf 6b21 93be 10c9 56bd 42b3 3f3d
00000090: fc3d 6bbd 8805 6bbe 8e41 d03e 12f0 73bd
000000a0: f897 02bf 15fd c0bd f688 3d3d d759 bebe
000000b0: 0885 53bd 5409 5f3e 9ab6 f2bd 5f08 34be
000000c0: def4 073e b89e 25be 52de 2f3f 5e8e 23bd
000000d0: bc2e ce3d ae6b c7bc 0e30 9ebe 397f 1c3e
000000e0: 9221 72bf 1fb6 e7bd 7213 e9bd 26b3 303e
000000f0: 28ce 983e 35aa 23be 594b 01bc f8d9 6fbe
0.081578895 0.37001005 0.073515445 0.19048034 -0.30195072 0.23041487 0.6128435 0.08527521
0.24734575 -0.16221456 -0.31425187 -0.17371655 -0.42884666 -0.15445684 0.21721037 0.22451796
0.15669121 -0.33510527 0.29801914 -0.07055082 -0.8104122 0.25567305 0.15328008 0.06858569
0.27618194 0.41769725 0.11816514 -0.42650217 0.3119928 0.18018393 -0.38036984 -0.24338065
-0.5517909 -0.28736433 -0.052437842 0.046801813 -0.05743216 -0.22951329 0.40675014 -0.05955512
-0.51013136 -0.094232716 0.046273194 -0.37177917 -0.05164054 0.21780902 -0.11851235 -0.17581318
0.13277003 -0.16173828 0.6869861 -0.039930694 0.100675076 -0.024343338 -0.30896038 0.15282907
-0.94582474 -0.11314034 -0.11380662 0.1725584 0.29844785 -0.15982898 -0.007891499 -0.23422992

seq32_1.2.conv.bias f4 [8]
00000000: 8232 ac3e 9357 f4be 0d15 32bd f2bc 6cbe
00000010: 62bc 613e e91d 2cbe bfff babe 589b 75be
0.33632284 -0.47723064 -0.043477107 -0.23118952 0.22044519 -0.16808285 -0.36523244 -0.2398504

seq32_1.2.norm.weight f4 [8]
00000000: 60c8 843f b717 5b3f eeb6 943f dbac 963f
00000010: ac54 8d3f 74f9 773f 9401 983f 1b6d 9e3f
1.037365 0.8558306 1.1618326 1.1771501 1.1041465 0.9686501 1.1875482 1.2377046

seq32_1.2.norm.bias f4 [8]
00000000: 4634 1e3c e143 36be c2ee a7bd 00d9 f5bc
00000010: 8971 a5bc b27c 05be a3c8 56bb 0a21 eebb
0.009656018 -0.17799331 -0.08199836 -0.0300107 -0.02019574 -0.13035849 -0.0032773397 -0.007267122

seq32_1.2.norm.running_mean f4 [8]
00000000: af94 543f e4ea c8be 434b f63b 80fe 48be
00000010: c9d2 81bb 7746 15bf e133 bfbe 7ef0 50bf
0.83039373 -0.39241707 0.007516296 -0.19628334 -0.003961895 -0.58310646 -0.37344268 -0.8161696

seq32_1.2.norm.running_var f4 [8]
00000000: 8404 b93e 3dad a33e 5316 253f 6f3a 013f
00000010: 707d 183f 2fbc 8c3e 692a 9f3e 40c5 9c3f
0.36136258 0.31968108 0.6448719 0.5047979 0.595664 0.27487323 0.31087044 1.2247696

join16_32.norm1.weight f4 [8]
00000000: c6e9 903f 84d0 953f a7fa c33f a14c 473f
00000010: 7a6e 7c3f 9702 a43f e37f 6f3f 50fc 183f
1.1321342 1.1704259 1.5310868 0.778513 0.98606074 1.281329 0.93554515 0.5976

join16_32.norm1.bias f4 [8]
00000000: 0a0a 24bc bbc6 333e 6322 b7ba 3675 1d3e
00000010: d427 6ebe d7fc 753e aeb0 d63e 0cb2 073c
-0.010012159 0.17556278 -0.001397204 0.15376744 -0.2325738 0.24022232 0.4193167 0.008282196

join16_32.norm1.running_mean f4 [8]
00000000: 22ed f13e 3090 b13e d636 453e 5b62 ed3e
00000010: b535 df3e 7cdb d83e cabd d63e c40a 143f
0.4725123 0.3468032 0.192592 0.46364102 0.43595663 0.42354953 0.41941673 0.5782893

join16_32.norm1.running_var f4 [8]
00000000: 9e49 5a3e ed5d b33e a227 da3d 0e2e 263e
00000010: fd27 353e 0ed5 4f3e 91f3 623e 567e 0e3e
0.21317145 0.35032597 0.106520906 0.16228506 0.17691036 0.20296118 0.22163226 0.13915381

join16_32.norm2.weight f4 [8]
00000000: 55f4 1b3f b006 cc3e 4db6 2c3f 3f57 8f3f
00000010: 37a6 853f 44ec 693f b92c 003f d1d0 4c3f
0.60919696 0.39848852 0.6746567 1.11985 1.044135 0.9137614 0.5006824 0.8000613

join16_32.norm2.bias f4 [8]
00000000: bc6d c5bc 62d0 3bbe 7f73 103e ade2 203e
00000010: ede6 053e 2aab 56bc e356 763e 585e 96bd
-0.024100177 -0.1834121 0.14106558 0.1571147 0.13076372 -0.013102332 0.24056582 -0.073422134

join16_32.norm2.running_mean f4 [8]
00000000: 2626 973e 8c96 053e 9055 833e 87d5 9a3e
00000010: ea19 973e 2f6b 3a3e ecae a03e 91af ab3e
0.29521292 0.1304571 0.25651217 0.30241033 0.29511958 0.1820495 0.31383455 0.33532384

join16_32.norm2.running_var f4 [8]
00000000: 72e6 283f ee87 673e 5776 c53e 7d65 1c3f
00000010: 7337 c53e d7cf 363e 93ff 473f 0fca bc3e
0.6597663 0.22610447 0.3856685 0.6109236 0.38518867 0.17852722 0.7812435 0.36872908

seq32_2.0.conv.weight f4 [16, 16, 3, 3]
00000000: 017f 483e 81bf b13e a43a 153e 3f5a 41bd
00000010: c8e7 843e 06aa 0b3e 722d 2dbe 6a53 cb3d
00000020: 4ee0 2bbe b9d0 683e 3e66 2b3d 706f 68bd
00000030: 3378 843d 59c7 c93d 2086 61b9 ce9a 1c3d
00000040: f71d 883d 4007 0a3d 273f a7be 9c19 70be
00000050: 9267 013f 99b0 c7be 7d19 ecbe 4024 863e
00000060: 9546 c1be 853d 3ebe 6a85 1a3f 2ec1 88bc
00000070: abcb ad3d 0293 543d b132 ee3d 1054 ce39
00000080: aa07 003e 65ea ba3d f72a f33c 42ed ac3d
00000090: 69ea 843c 67d1 09be 715b e0bd 152d 2a3c
000000a0: bd9e efbd 3137 1b3e d49b 123e 736b 453c
000000b0: 2d7f 3a3e dd6c d73b c8a3 4e3e d8f0 3fbe
000000c0: e767 2ebc f8a6 103e 2854 50be 94d7 ae3d
000000d0: c15c df3d 6af5 b3be bc92 953d 8628 a13e
000000e0: e460 0bbe fe8b 313e f81b b83e 07e6 e4bd
000000f0: 2607 913e b57a 873e 5176 8cbe cd91 ed3e
00000100: e237 973e 3478 903d 609b a53e 9dc1 7c3e
00000110: 45f4 033d d81d 933e 0020 863e cf74 283e
00000120: 79e2 333c 3f30 133e a07c b53d 12f3 403d
00000130: 102f 833d 2df5 733d d756 863e c407 e33d
00000140: c0c9 453e 93a8 9238 028e 793e a93d e2bd
00000150: 7b27 88be b5f7 1d3e 6c77 0fbe bdf5 f2bd
00000160: 80a5 20be 06b5 15be fbea c23d 7d64 6c3e
00000170: 9c83 9a3e 96bf 753e d0b0 063f 343e bb3e
00000180: 95ec 303e cd62 2b3e 0898 973e b4ef d6bd
00000190: d983 a33d adc1 61bd 2c7d d73d 8487 333e
000001a0: d19f 3f3e 8d24 183e a452 9e3e b8e8 3e3e
000001b0: cd1d 95bd 1f17 453e b193 ec3d 22bc 85bd
000001c0: 6c1e 873e 4f16 253d 68e3 bebd 6e8a ce3d
000001d0: 2e0b 943d a3f8 aebc c5aa 07be 4270 92be
000001e0: b4e3 d53c 99ac f53d 7979 c1bd 9e63 7fbd
000001f0: ce5f 9dbe f265 9abe 94e4 b8be cc2f 8ebd
00000200: 00ab 233e bcda 1dbe 3b33 1d3e c028 083d
00000210: 7414 92be 4196 233d a57c a23d 5b77 58be
00000220: 8e8f 80be 8cf3 413d 2b2a 99be adaf 45be
00000230: d578 e2bd 37b5 52be ee07 dd3a aa61 843d
00000240: d201 febe 465c c3be c2d9 b2be ed21 e0bc
00000250: 150d 9a3d 0e1f bcbd d320 b3bd 546a 433c
00000260: 3dd7 08be a78c d1bc b30b 49be d98b 0bbd
00000270: 1348 f5bd 7cef 67bd bdaf 413e 2972 cabd
00000280: 78cc 7ebd f2ba a23d b2d6 e33e ae48 18be
00000290: 456b 83be 2e0a fa39 17d7 6dbe 3044 07be
000002a0: afb2 b53e a6aa b23c 958f bebd 8f0e 02bf
000002b0: 9344 963d a44d 0c3e 57d8 65be a1b9 8b3e
000002c0: fb5a 2a3e c616 b9be f3b6 d33d e381 6bbb
000002d0: f768 acbd c8bb 343d 1a97 b3bc c1d7 15bd
000002e0: 2201 13bc c3bf 7ebd 4527 f7bd 56d3 3b3d
000002f0: 6902 0a3d 2868 0cbf f413 0d3c ac89 4c3e
00000300: 74f9 87be 4cb0 363e 9a07 f03d a952 ffbe
00000310: dd2b 733d 4dde 093e f6c4 b3be c40f 883d
00000320: 44a3 1f3d c208 a4bd ddbf 273e 0628 213d
00000330: bc7a 86be ec1a b53c 3d48 d73d acb3 17be
00000340: b87f a43d ea4d cf3c 4078 caba b513 383d
00000350: 990b fc3c b0cf b2be fc8c 26be c97f 57be
00000360: cf89 a0be 6035 5cbc 826c 75be ad97 4dbe
00000370: d98f e03b 259f 8bbd 2e61 82be 0909 e5bd
00000380: 423e 5dbe 22ea 05be 0827 02be ac55 e93d
00000390: 05eb 393d 5dc6 bebc 43a0 223e 52c7 53be
000003a0: 7da6 c8bd 2999 003d 5bfe 17be a18c 08be
000003b0: 734c 67be 53cc 32be 1c07 5cbe 6618 1bbe
000003c0: 9af0 dfbe d824 bdbd 2eed bbbe 6598 82be
000003d0: 76bb bebd 288e 70be 4aff 8bbe 5a55 73be
000003e0: 1bb0 4bbe 79cf 2cbf 3479 cabe 1864 e0be
000003f0: 523b c8bd 9b3b c0bd f6e1 83be 140e b9be
0.19579698 0.34716418 0.14573151 -0.047205206 0.25958085 0.13639078 -0.16911867 0.09928019
-0.16784784 0.22735871 0.041845553 -0.0567469 0.06468239 0.09852476 -0.00021507638 0.03823357
0.0664634 0.03369832 -0.3266537 -0.23447269 0.5054866 -0.3900192 -0.46113196 0.26199532
-0.37749162 -0.18578155 0.60359824 -0.016693678 0.08486112 0.05189801 0.11630762 0.00039354013
0.12502924 0.091267385 0.029683573 0.08443691 0.016225057 -0.13458787 -0.10954941 0.010386725
-0.11700199 0.15157773 0.14317256 0.012049544 0.18212576 0.006574257 0.20179665 -0.18744218
-0.010644889 0.14126194 -0.20344603 0.08537212 0.10906363 -0.35148174 0.07303378 0.3147623
-0.1361118 0.17338559 0.35958838 -0.11176687 0.28325766 0.26460806 -0.27434018 0.464003
0.29534823 0.07054177 0.32345104 0.24683233 0.032215375 0.28733706 0.2619629 0.16450809
0.010979288 0.14373873 0.08861661 0.04710681 0.06405461 0.05955999 0.2623813 0.110854656
0.19315243 6.993222e-05 0.24370578 -0.11046917 -0.2659262 0.15426524 -0.140104 -0.11863277
-0.15688133 -0.14619836 0.09517475 0.23085208 0.30178535 0.23998865 0.52613544 0.36570895
0.17277749 0.16736908 0.29608178 -0.104949385 0.07984132 -0.055116344 0.105219215 0.17532164
0.18713309 0.14857693 0.30922425 0.18643463 -0.07281075 0.19247101 0.115516074 -0.06530024
0.26390398 0.04030448 -0.09320718 0.10084997 0.07228695 -0.021358794 -0.13248737 -0.2860127
0.026109554 0.11995811 -0.09446997 -0.06235086 -0.30737156 -0.30155903 -0.3611189 -0.0694271
0.159832 -0.15415472 0.15351574 0.033241987 -0.2853123 0.039938215 0.0793393 -0.2113928
-0.25109524 0.047351405 -0.29914984 -0.19305296 -0.11058203 -0.2057694 0.0016863325 0.064639404
-0.49610764 -0.38156337 -0.3493176 -0.027359927 0.075220264 -0.09185611 -0.08746495 0.011927206
-0.13363357 -0.025579764 -0.19633369 -0.034068916 -0.11976638 -0.056624874 0.18914695 -0.098850556
-0.062206715 0.07945813 0.44499737 -0.14871475 -0.25667778 0.000476913 -0.23226582 -0.13209605
0.35487887 0.021809887 -0.0930473 -0.50803465 0.07337298 0.13701493 -0.22445808 0.2729006
0.16636269 -0.36150187 0.10337629 -0.0035935573 -0.08418458 0.044124395 -0.021922637 -0.036582712
-0.008972438 -0.062194597 -0.12068037 0.045855843 0.033693705 -0.5484643 0.008610714 0.19974393
-0.26557505 0.1784069 0.117202 -0.49867752 0.059368003 0.13463707 -0.35111207 0.06643632
0.03897406 -0.08009483 0.16381784 0.03934481 -0.26265514 0.022107564 0.10511825 -0.14814633
0.08032173 0.025305707 -0.0015447214 0.04494067 0.030767249 -0.34924078 -0.16264719 -0.2104484
-0.3135514 -0.01344046 -0.23967174 -0.20077391 0.0068530855 -0.06817464 -0.25464767 -0.11183364
-0.2160578 -0.13077596 -0.12710202 0.11393294 0.045390148 -0.023287946 0.15881447 -0.20681503
-0.0979738 0.031396065 -0.14843123 -0.13334896 -0.22587757 -0.17460756 -0.21487087 -0.15146026
-0.43738252 -0.09235543 -0.3670439 -0.25506893 -0.09313099 -0.23491728 -0.27343208 -0.23763028
-0.19891398 -0.6750408 -0.39545596 -0.43826365 -0.097769395 -0.09386369 -0.25758332 -0.36143553

seq32_2.0.conv.bias f4 [16]
00000000: f935 dbbe fb29 92be 986a 263e 96f4 7e3e
00000010: f54a 713d a657 cd3c da47 1abb bd2e 463e
00000020: 1ae0 5a3e e1ac a5be 103f f7bd 2263 c0bc
00000030: 084b 57bc 3bc8 2937 3ae2 bb3d e9fc 17be
-0.42814615 -0.28547654 0.162516 0.2489799 0.058909375 0.025066208 -0.0023541362 0.19353767
0.2137455 -0.3235846 -0.12072575 -0.02348477 -0.013140447 1.0119805e-05 0.09174009 -0.14842571

seq32_2.0.norm.weight f4 [16]
00000000: f43a 683f 168e 8d3f 3c74 6f3f 0bda 333f
00000010: 03b5 a33f 6481 543f 2b96 363f 7346 0b3f
00000020: 46d8 6d3f 19a9 2b3f bd2e 363f fe32 a63f
00000030: 8c29 923f 87a0 5b3f d526 c33f 08b1 203f
0.90714955 1.1058986 0.93536735 0.7025458 1.2789615 0.83009934 0.7132289 0.5440437
0.9290813 0.670549 0.71165067 1.2984312 1.1418929 0.8579182 1.5246226 0.6277013

seq32_2.0.norm.bias f4 [16]
00000000: bc36 f53d cbbd 51be 935e cdbd e601 a33d
00000010: 1c4a ff3e d336 903e ec42 87be 8032 4b3e
00000020: cdb7 3ebd 0249 9b3d 14f6 54be 612b 8dbe
00000030: 6650 d7be 202c 8cbd 04f7 b9be 00d6 823e
0.119733304 -0.20482557 -0.10027804 0.079593465 0.49861228 0.28166828 -0.26418245 0.19843483
-0.046562005 0.075822845 -0.20796996 -0.27572158 -0.42053527 -0.06844354 -0.3632127 0.25553894

seq32_2.0.norm.running_mean f4 [16]
00000000: 2be4 3c3f 29f0 00c0 4cf0 093f 68e0 ad3e
00000010: 8d4b 8ebf d02c 09bf bf5d e1be 0314 28bd
00000020: 5dd7 f03e 16e8 3bbf 151c 50bf 9835 d2bf
00000030: fab9 c5bf 9522 1dbf 7be8 01bf 7620 c33d
0.73785657 -2.0146582 0.5388229 0.3396027 -1.1116806 -0.53584003 -0.44016835 -0.04103471
0.4703931 -0.7340101 -0.8129285 -1.6422606 -1.544738 -0.61380893 -0.5074536 0.09527676

seq32_2.0.norm.running_var f4 [16]
00000000: f9c1 9f41 fbaa a841 e03f 8741 dd08 b041
00000010: 3af3 d341 3100 4641 cad8 7541 676e a141
00000020: b9e7 3541 3f3e 7041 af21 5041 4a48 8a41
00000030: 5c99 8841 beb6 5741 62f0 3141 5552 5841
19.969713 21.083487 16.906189 22.004328 26.493763 12.375047 15.365427 20.178907
11.369073 15.015197 13.008224 17.285297 17.074883 13.482115 11.121187 13.520101

seq32_2.1.conv.weight f4 [16, 16, 3, 3]
00000000: 9ba1 283e 68d5 1f3d 9dd7 3c3d c106 a43d
00000010: e2b9 123e 8b79 87bd 16df 683d bcc0 013e
00000020: d296 043d 9847 cabd d117 813d d294 03be
00000030: d0e2 d73d c328 953d 83cf 9fbc 0e7a d23e
00000040: 6eec d53d c721 0a3e 1044 1f3e d6e8 1dbe
00000050: 2b66 bcbd 41d3 163e d226 2ebe 5634 b53c
00000060: 02cd be3d d125 bf3d 1575 fbbd 207d 9abd
00000070: a3c8 a43e 5030 3f3d f1be 7d3e fbb6 79be
00000080: 55c2 e93d e879 583c 488e ea3d 24ca 9abe
00000090: 3557 6a3e bdab 82bd 30c0 2b3d b1f7 103c
000000a0: 5b04 233d f46f 16be 2a3e 513e 8d8d 1dbe
000000b0: a9bc 9f3c 7522 033d ab94 5bbe d388 f3bc
000000c0: 83b6 e1bd 3834 0a3e b6e1 c83d 416e 54bd
000000d0: 5e08 32be 644b 123e 36d1 f4bd d81d 47bd
000000e0: 5593 4ebd 9046 aabd 4d50 81be 842f b6bd
000000f0: 4ed7 edb9 c105 dd3d bf68 94bd 2de5 a3be
00000100: b1a4 0e3e d350 a4bb 9f38 f0bd 19e2 81be
00000110: d9a2 883c ffa8 c9bc 31f9 0f3e d3a3 8fbd
00000120: ba1c 173e f45a fdbd 61da f7bd c3fb 95be
00000130: 5ad5 c93d e5f6 1abe df99 94bd d0b6 0fbd
00000140: 2349 093e b02c 853d 2040 863c 5988 8abd
00000150: 5d69 033d 8c7a b4bc c3a6 2bbc ffe1 ccbd
00000160: de05 0dbb 5b94 c53d 4a0e b63d 4047 84bd
00000170: 4e54 d0bd 1ef6 9cbd b33f 36be 5710 3cbe
00000180: 6280 6a3e a6fc 0fbe 83dd 853d c12b c13d
00000190: c980 183e 8593 043d 0d3f ac3e c6ba 79be
000001a0: 948c 2fbe a4cf 2bbe 8a9c 103e 2e85 07be
000001b0: b9f5 033e bb5f a2bd 8533 56bd 10be 0d3d
000001c0: 319b 263d 3508 74bd 2a34 983e 6071 07be
000001d0: f96a 293e 3b00 ebbe d63b 9b3e 8c7b 3abd
000001e0: b36b 453d 0b93 77be 8d19 823e 53a3 f53d
000001f0: 2e25 e63d fb21 c8bd 70a1 233f a2f1 23bf
00000200: 8b8d e23e cc75 25bf 50dd 1d3f 3bec 2bbf
00000210: ea1a 573d 57e4 06bf e9c8 273f 6e7b 23be
00000220: 00ae 5cbd 298c 293d 13cc 2b3e 34f0 a7be
00000230: aa0f b83d 903c 91bd 6cbc 063d ba6c 063c
00000240: 1f7f 1bbe a41b b3bc 8368 9dbe 2a9b d63c
00000250: 14fb 573e 2b82 9abe 53b4 8bbd 12a4 d43d
00000260: 9da0 f6bd f7c7 4a3e 2c0f be3d 2e4f 20bc
00000270: 6b45 1bbc 1a61 c8bd 22ce 32be 5243 5dbe
00000280: 2786 59be fd75 b3be 2186 f2bc f12b e0ba
00000290: 16c8 aebe 84c0 333e acd4 813e b05e 56be
000002a0: 51c0 21be be48 c93d 573b babe 527b 75be
000002b0: ca8a 54be c58d 83be 3ffc 563d 86a5 ebbc
000002c0: 5ea3 fa3d 19da 093e 9816 293e 9ee0 853c
000002d0: 8426 4c3e 8fc5 e1bd 1818 22bf 6c0a 543e
000002e0: 4a2c f73d 8727 eebe 97b9 dc3d ada8 70be
000002f0: ba8d e2be 71ce a4be 5461 1fbe 14f8 15bf
00000300: 61c3 80bd 0e8f 8a3e 2e8a 4dbe efef a1bd
00000310: 2698 ba3d ec42 66be d971 923d 4c3f 6c3d
00000320: 584c 093c 7bb3 a8bd e255 98bc 5153 b5bc
00000330: 2f17 b9be a979 66be a9f2 90be 1524 abbe
00000340: 4d29 7abe 3eea 703c e172 33bd d180 cabd
00000350: f0b7 073e 788e 9d3c 1da6 8c3e 4d25 873e
00000360: 4a37 7bbd 5317 1cbe 94ff 78be a0c9 b23d
00000370: 85c7 843e 9fd2 dabc 2735 863d 9064 393e
00000380: c542 a93d 0c02 46be d1e9 133d a5b5 5d3e
00000390: bfd8 9fbd 7613 a43d 3cad 4e3e 66dd 0dbe
000003a0: 634c 04ba c272 af3e 0c0f e4bc b234 a4bd
000003b0: a652 c7be 3741 ff3d cf71 a7bd 05f4 12be
000003c0: ffcd b7bc 171f b4be 4d70 97be 4694 74bd
000003d0: 1fbd 73be 3f7c cebe 8928 413d 648b f1bd
000003e0: 5645 87be fdc2 bd3d 2198 d93d 3060 98bd
000003f0: ff2e 043e faf6 27be 6784 12be 0d88 2e3e
0.16467898 0.03902188 0.046104062 0.08009101 0.14328721 -0.06614979 0.056853376 0.12671179
0.032370396 -0.09876937 0.06303371 -0.12849739 0.10541308 0.07283165 -0.019508129 0.41108745
0.10445486 0.13489448 0.15553308 -0.15420851 -0.091991745 0.14729024 -0.17006996 0.022119682
0.09316446 0.09333385 -0.12278191 -0.07543397 0.32184324 0.046676934 0.2477987 -0.24386208
0.11414019 0.013212658 0.11452919 -0.30232346 0.2288483 -0.06380413 0.04193133 0.008848117
0.039799076 -0.14691144 0.2043387 -0.15386029 0.01949914 0.032015283 -0.21443431 -0.029728329
-0.110211395 0.13496482 0.09808676 -0.05186296 -0.17386004 0.14286572 -0.11953966 -0.048612446
-0.050433476 -0.0831424 -0.25256577 -0.08895782 -0.00045364577 0.10792113 -0.07246541 -0.32010785
0.13930012 -0.005014518 -0.117295496 -0.2536781 0.016679214 -0.024616716 0.14059903 -0.07013669
0.14757052 -0.123708636 -0.12102199 -0.2929364 0.09855147 -0.15133245 -0.07255911 -0.035086453
0.13406806 0.06502664 0.016387999 -0.067642875 0.032082904 -0.022031091 -0.010476771 -0.10004043
-0.002151839 0.09647437 0.08889444 -0.06458902 -0.1017233 -0.07664131 -0.17797737 -0.18365608
0.22900537 -0.14061221 0.06536391 0.094321735 0.14892878 0.032367248 0.33641854 -0.24387655
-0.1714347 -0.16778427 0.14122215 -0.13234398 0.12886705 -0.079284154 -0.052295227 0.034605086
0.040675346 -0.05957814 0.29727298 -0.13226843 0.16544713 -0.45898613 0.3031909 -0.04552798
0.048198413 -0.24177186 0.2541012 0.11994042 0.1123756 -0.09772106 0.6391821 -0.6404058
0.44248614 -0.6463287 0.6166582 -0.67157334 0.0525159 -0.5269217 0.6554094 -0.15965053
-0.053876877 0.041393433 0.16777067 -0.32800448 0.08987363 -0.070916295 0.032894537 0.008204633
-0.15185212 -0.021863766 -0.307438 0.026197035 0.21091872 -0.30177435 -0.068215035 0.103828564
-0.12042353 0.19802843 0.092802376 -0.009784503 -0.009477 -0.09784146 -0.17461446 -0.21607712
-0.21242581 -0.35050955 -0.029604973 -0.0017102939 -0.34137028 0.17553908 0.25357568 -0.20934558
-0.15796019 0.098283276 -0.36373398 -0.23972824 -0.20756069 -0.256941 0.052486654 -0.028765451
0.12238191 0.13462104 0.16512525 0.016342457 0.19936568 -0.110240094 -0.63318014 0.207071
0.12068994 -0.46514532 0.10777586 -0.23501845 -0.44248754 -0.32188752 -0.15564471 -0.5858166
-0.062872656 0.27062267 -0.20072243 -0.07907092 0.09111051 -0.22486466 0.07150621 0.057677552
0.008380018 -0.08237358 -0.01859564 -0.022134455 -0.361505 -0.22507347 -0.28310135 -0.33425966
-0.24429817 0.014704285 -0.04381073 -0.09887851 0.1325376 0.019232973 0.27470484 0.26395646
-0.061332025 -0.15243272 -0.24316245 0.08729863 0.2593347 -0.02671176 0.06553107 0.18104768
0.082646884 -0.19336718 0.036111657 0.21651323 -0.07805013 0.080115244 0.20183271 -0.13853988
-0.0005046783 0.3426724 -0.027839206 -0.08017863 -0.38930243 0.124636106 -0.08176004 -0.14350899
-0.022437094 -0.3517997 -0.29577866 -0.059711717 -0.23802613 -0.40329167 0.047157798 -0.11794165
-0.26420087 0.09265707 0.106247194 -0.07440221 0.12908553 -0.16402808 -0.1430832 0.17044087

seq32_2.1.conv.bias f4 [16]
00000000: 1ea8 b13e 2893 4b3e 020c 743d 863b b6be
00000010: 580b 0c3e f398 aa3e 9ab9 1e3e 2520 b13b
00000020: 8d86 933d 01fc 283e 6c12 b3be bbfc eabd
00000030: 10af 253d 104f f73d 9bf9 6a3c b978 e0bd
0.34698576 0.19880354 0.059581764 -0.35592288 0.13676202 0.33319816 0.15500489 0.0054054433
0.07203398 0.16502382 -0.34974992 -0.11473986 0.040450156 0.12075627 0.014341737 -0.10960526

seq32_2.1.norm.weight f4 [16]
00000000: 0e0b c53f fd75 653f 6876 803f 7205 783f
00000010: f81d 7c3f f168 743f 04e8 843f a141 3a3f
00000020: 2668 803f a540 6d3f b494 803f c993 6b3f
00000030: b35b 6f3f ddb2 183f e3b6 683f 1bc5 323f
1.5393999 0.8963316 1.0036135 0.9688331 0.9848323 0.9547263 1.0383306 0.7275639
1.0031784 0.92676765 1.004538 0.9202238 0.93499297 0.59647924 0.90904063 0.6983201

seq32_2.1.norm.bias f4 [16]
00000000: 2d23 53bd c570 3b3e 237b acbe f89d c2bb
00000010: b17b 7e3d 7237 5fbd 3d5a 22be 158d 17be
00000020: 8330 44be 2fe9 43bc 7928 39be 8754 3b3e
00000030: a347 8b3e cbcd 233e 8dfd 79bb 1241 dd3e
-0.051547218 0.18304737 -0.33687696 -0.0059392415 0.06212968 -0.054496236 -0.15854736 -0.14799912
-0.19159131 -0.011957451 -0.18081845 0.18293963 0.27203092 0.15996473 -0.0038145513 0.43213707

seq32_2.1.norm.running_mean f4 [16]
00000000: e04c e13e 30ea 0bc0 c9c4 98be e5bd 9fbf
00000010: 26ee debd 121a d83d 3a62 d6be a615 15c0
00000020: 8c92 38bf f3ac cb3e 3397 76bf 1fb2 aabc
00000030: 9f93 bfbe 2234 d6be 177a 4640 e916 69bf
0.44003963 -2.1861687 -0.29837635 -1.2479826 -0.10885267 0.105518475 -0.41871816 -2.3294463
-0.7209861 0.39780387 -0.9632446 -0.020836888 -0.37417313 -0.4183665 3.1012018 -0.91050583

seq32_2.1.norm.running_var f4 [16]
00000000: 1cb2 a440 fc23 9040 7b75 2940 30e5 c93f
00000010: 3f4a 2541 4717 8440 7535 5d40 a53b ad41
00000020: 715d 9340 8a3f bd40 eafb 7540 43a9 3a40
00000030: 1cb5 5740 bb6b 9640 69da 0a41 23f7 6940
5.146742 4.5043926 2.6477954 1.5773067 10.3306265 4.1278415 3.4563878 21.654123
4.6051564 5.914006 3.8435006 2.916581 3.370429 4.7006507 8.678323 3.655709
