SaVSTr/models/Coco2014_epoch_1_batchSize_4.pth (torch, 369643 bytes, 196 tensors)

seq16.0.conv.weight f4 [8, 3, 3, 3]
0.06169803 0.047519147 -0.041099656 0.32181263 -0.39892286 0.062235218 0.13386448 0.04977292
-0.18620129 -0.24120511 0.0403848 -0.04668061 0.29324695 -0.4488994 0.13916841 -0.047167797
-0.03627037 -0.05474323 -0.12712249 0.15977833 0.100868784 0.24405631 -0.29866338 -0.030612754
0.026694903 0.17055666 -0.061756477 0.11323802 -0.024522202 0.03181384 -0.007148708 0.024679571
-0.03574786 -0.500558 0.29659575 0.18970546 -0.06433678 -0.0069221146 -0.014706661 -0.0383611
-0.010956152 -0.2388037 -0.50224054 0.14872739 0.20786862 0.015292806 -0.10399145 -0.08114727
0.15270281 0.22720657 -0.03361815 -0.16443674 0.03507215 0.22904557 -0.17254752 -0.3171079
0.27796757 -0.20994015 0.3303858 0.041669108 0.2306908 0.22525685 -0.25639552 0.08216922
-0.090859756 0.07436874 -0.22314472 -0.017223114 -0.052608177 0.11294298 0.06671062 -0.2055425
0.06731898 -0.054263774 0.21349175 -0.22978137 0.24466826 0.16391496 0.046637174 0.008801594
-0.22202396 0.0044752904 0.066949576 -0.05927361 -0.17382398 -0.118470885 0.2932261 0.33477762
-0.118289806 -0.072345786 -0.2932912 0.1625917 -0.10953999 0.13629718 -0.14192311 0.11248063
0.08437039 -0.24695396 -0.17936482 -0.20750348 0.06649338 0.047248032 0.20387512 0.08298042
0.2612359 0.19383864 -0.31640804 -0.19770986 0.21740732 -0.05487333 -0.38313195 0.0660302
-0.1781865 -0.23133023 0.16653664 -0.17166483 -0.101573944 0.102552995 0.26956168 -0.022303607
0.17897293 0.24905054 0.16908579 0.3783619 0.07376603 0.0058488282 0.13093773 0.00614465
-0.09485327 0.29454812 -0.14197658 -0.27343708 0.0176937 0.0549343 -0.037341285 -0.0075291493
-0.059034057 -0.047077812 -0.07036436 0.13398197 0.33040446 -0.33021748 -0.010332925 0.4339912
-0.22422677 -0.10745672 0.2961523 -0.2153457 0.14655466 0.07874145 -0.07529603 -0.05801836
0.25639132 -0.33928135 -0.009684748 0.15260017 -0.11361539 -0.0974043 -0.03466096 -0.16228263
0.19102184 0.03640953 0.12435882 0.16432588 -0.18480721 -0.2690136 0.39037827 -0.23391902
0.0011739252 -0.02929033 0.000490278 0.16549478 -0.21104452 -0.08989572 -0.16550429 0.41573086
-0.21811365 -0.15556924 0.03317167 -0.07010831 0.19172706 0.05043427 -0.23550813 -0.18893677
0.24285357 -0.2065845 0.03586327 0.08462836 0.024431776 0.10527344 0.25370514 -0.20461422
-0.11990457 -0.38989085 0.27616426 -0.020181345 -0.14967227 0.26899517 0.03685246 0.0770159
-0.107469864 0.089714535 -0.43427143 0.18789609 -0.115538836 -0.11327581 0.06369774 0.1095713
0.017315604 -0.0058411146 0.10191126 -0.33946332 0.07042271 -0.066854924 -0.03641249 0.35563436
00000000: 13b7 7c3d 70a3 423d 1d58 28bd a0c4 a43e
00000010: 9e3f ccbe 5bea 7e3d c513 093e b0de 4b3d
00000020: 8dab 3ebe 79fe 76be 886a 253d 2b34 3fbd
00000030: 7724 963e 24d6 e5be 2a82 0e3e 0533 41bd
00000040: 3d90 14bd 703a 60bd 662c 02be ee9c 233e
00000050: 4b94 ce3d e6e9 793e 68ea 98be 99c7 fabc
00000060: 45af da3c 68a6 2e3e 5cf4 7cbd 56e9 e73d
00000070: c9e2 c8bc 3b4f 023d b63f eabb d02c ca3c
00000080: 596c 12bd 9224 00bf 66db 973e 2642 423e
00000090: 00c3 83bd e8d2 e2bb 35f4 70bc 8720 1dbd
000000a0: 6f81 33bc f588 74be d692 00bf fe4b 183e
000000b0: 83db 543e ad8e 7a3c 78f9 d4bd 8a30 a6bd
000000c0: 205e 1c3e d7a8 683e 2fb3 09bd 1b62 28be
000000d0: d1a7 0f3d ec8a 6a3e 4cb0 30be f75b a2be
000000e0: c451 8e3e 8dfa 56be 5428 a93e 3aad 2a3d
000000f0: 363a 6c3e bba9 663e 4646 83be 5648 a83d
00000100: ae14 babd a34e 983d 0d80 64be 7d17 8dbc
00000110: ac7b 57bd a64e e73d 949f 883d bc79 52be
00000120: 89de 893d b143 5ebd 959d 5a3e cf4b 6bbe
00000130: 518a 7a3e 53d9 273e 9f06 3f3d 9034 103c
00000140: 405a 63be 75a5 923b dc1c 893d e3c8 72bd
00000150: eafe 31be dda0 f2bd bb21 963e f967 ab3e
00000160: ed41 f2bd 072a 94bd 442a 96be 707e 263e
00000170: 8156 e0bd 7d91 0b3e 4b54 11be 3f5c e63d
00000180: 62ca ac3d 80e1 7cbe 69ab 37be cb7b 54be
00000190: ae2d 883d 2787 413d a4c4 503e a3f1 a93d
000001a0: b6c0 853e a37d 463e 3c00 a2be 7474 4abe
000001b0: 06a0 5e3e dbc2 60bd df29 c4be d73a 873d
000001c0: 8676 36be d5e1 6cbe 9588 2a3e e8c8 2fbe
000001d0: 0006 d0bd 4e07 d23d fd03 8a3e 0eb6 b6bc
000001e0: ae44 373e 1b07 7f3e d324 2d3e a7b8 c13e
000001f0: a512 973d 87a7 bf3b 8a14 063e 0f59 c93b
00000200: 6e42 c2bd 03cf 963e 4f62 11be f2ff 8bbe
00000210: 61f2 903c ca02 613d 2df3 18bd 15b7 f6bb
00000220: b2cd 71bd aad4 40bd 311b 90bd 9232 093e
00000230: c62a a93e 4412 a9be 6e4b 29bc 1834 de3e
00000240: b49b 65be 4512 dcbd 46a1 973e 9583 5cbe
00000250: 6d12 163e 3343 a13d ce34 9abd a9a4 6dbd
00000260: b945 833e 49b6 adbe c7ac 1ebc 3843 1c3e
00000270: 30af e8bd e87b c7bd a7f8 0dbd 6b2d 26be
00000280: 3b9b 433e 2922 153d d6af fe3d 0b45 283e
00000290: 1a3e 3dbe 27bc 89be a9df c73e 7888 6fbe
000002a0: 65de 993a 46f2 efbc 0086 003a 7777 293e
000002b0: 0e1c 58be 3f1b b8bd f579 29be adda d43e
000002c0: 2f59 5fbe 8b4d 1fbe 04df 073d f294 8fbd
000002d0: 1954 443e 2a94 4e3d 0b29 71be a478 41be
000002e0: 9bae 783e e38a 53be 5de5 123d a251 ad3d
000002f0: 2625 c83c 9a99 d73d a4e5 813e 6486 51be
00000300: 8790 f5bd c69f c7be 6765 8d3e 5953 a5bc
00000310: b043 19be bcb9 893e 9bf2 163d 83ba 9d3d
00000320: 2919 dcbd 41bc b73d d358 debe d567 403e
00000330: a09f ecbd 26fd e7bd f673 823d eb66 e03d
00000340: 74d9 8d3c d266 bfbb dab6 d03d 23ce adbe
00000350: c839 903d 3ceb 88bd 4325 15bd b515 b63e

seq16.0.conv.bias f4 [8]
0.14337507 0.03874467 -0.0668748 -0.23607239 -0.2938318 -0.46115178 -0.24787149 0.2866598
00000000: ead0 123e bbb2 1e3d a8f5 88bd f6bc 71be
00000010: 1f71 96be 161c ecbe 06d2 7dbe 13c5 923e

seq16.0.norm.weight f4 [8]
1.3092594 0.7972475 1.140422 0.916754 0.52777094 0.5028562 1.1552252 1.0870768
00000000: d095 a73f 6a18 4c3f 59f9 913f 64b0 6a3f
00000010: ff1b 073f 2fbb 003f 6bde 933f 5525 8b3f

seq16.0.norm.bias f4 [8]
-0.11562151 -0.046785556 -0.08820418 -0.26354763 -0.3460841 -0.23170385 0.011745549 -0.14912543
00000000: f8ca ecbd 36a2 3fbd 65a4 b4bd b7ef 86be
00000010: ef31 b1be c643 6dbe 6770 403c 56b4 18be

seq16.0.norm.running_mean f4 [8]
-20.505804 -17.480183 13.443579 -15.551309 71.59098 13.94555 -39.79535 -4.7382135
00000000: e30b a4c1 6ad7 8bc1 e618 5741 29d2 78c1
00000010: 952e 8f42 f920 5f41 702e 1fc2 729f 97c0

seq16.0.norm.running_var f4 [8]
2594.8264 2846.7017 2181.557 2253.4314 4691.429 5001.0776 3445.4294 3291.1035
00000000: 392d 2245 3aeb 3145 e958 0845 e7d6 0c45
00000010: 6f9b 9245 9f48 9c45 df56 5745 a8b1 4d45

seq16.1.conv.weight f4 [8, 8, 3, 3]
0.10295014 0.20739254 0.23676859 -0.2804141 0.09125154 -0.04600275 -0.32507902 -0.075848885
-0.08140724 0.23351477 0.012630707 -0.037309676 -0.047488783 0.09417435 0.04764409 -0.30351925
-0.27928564 -0.15832505 0.054792468 0.24246044 -0.110222995 -0.08979368 0.08006906 -0.086442545
-0.18507251 -0.02441544 -0.257434 0.104218304 0.21142605 0.03252933 0.1467452 0.1457544
0.069677636 -0.18197012 -0.21542268 -0.035282575 -0.079732366 -0.23171066 0.019729251 -0.10892377
-0.15837315 -0.012665642 0.01204934 -0.13104294 -0.13095894 0.18570131 0.081785485 -0.026678832
-0.04484665 0.10894066 0.1576897 -0.13261722 -0.15355283 -0.07356694 0.104476266 0.18306386
0.22942604 -0.04289655 0.16866201 -0.09089568 -0.21657024 -0.056048717 -0.20926403 0.19909577
0.07361748 0.12944707 -0.014964373 0.13917734 -0.0004447513 -0.17980045 0.04802456 -0.1782082
0.04458083 0.14230722 -0.1513154 -0.01853563 0.16423883 -0.03803984 0.1942469 -0.14736862
-0.018584553 0.2799364 -0.3575062 -0.1281686 0.06376975 -0.18662798 0.031170616 0.36035895
-0.123224884 -0.0386524 0.16938864 -0.11631076 -0.25805494 0.25806567 -0.20760474 -0.15785658
0.36084586 -0.10709097 -0.08491191 -0.088516995 0.08190414 -0.1962039 0.22299093 0.07113298
-0.097344115 0.2717855 0.0029862716 -0.09565631 -0.17061046 -0.060835876 0.101201184 -0.038318373
0.028020056 -0.019556392 -0.13048473 -0.10203619 0.04594527 0.019570632 -0.17153242 -0.011582508
0.21750917 -0.1518 0.010999041 0.30686846 -0.19643562 0.023170685 0.15278766 -0.058867328
-0.17699875 0.16703331 -0.18485929 -0.053566583 -0.1413932 0.08659335 -0.08032653 0.14396036
0.00083221076 -0.3107008 0.005147084 -0.009244254 -0.1484373 0.37975577 -0.024587337 -0.09498583
-0.24576777 -0.15112036 0.21032993 -0.26128578 -0.18387523 0.25067225 -0.23646338 0.013453428
0.32275382 0.013509664 0.10293571 -0.22405426 0.050300844 0.0064806542 -0.031749237 -0.07853637
-0.06819536 0.1108037 -0.26623875 0.009849614 0.31487653 -0.06193723 0.009110636 0.07521973
0.15864679 0.13912249 -0.27456254 -0.18234387 -0.13688862 0.19466607 0.053358056 -0.05632204
0.04572469 -0.019057238 0.11116848 0.04541845 0.02482963 0.030814823 -0.1097463 0.023740908
-0.031812206 0.06973451 -0.0052987924 0.0309674 0.0060855406 0.031113118 -0.006050182 -0.0072666234
0.21039084 0.058171276 -0.11052468 0.09379867 0.065161794 -0.20547916 -0.2116144 0.00017297034
0.29205197 -0.27811268 -0.047381915 0.28197107 -0.29604736 -0.15346523 0.16885301 -0.07516166
-0.012034496 0.059522685 0.12682231 -0.15773053 -0.09623625 -0.13710721 -0.070149966 0.14863662
0.2980043 -0.17292476 -0.16515361 0.34264195 -0.34588593 -0.08234211 0.28379944 -0.06887783
0.011036 0.02334516 -0.030694766 0.051641855 -0.03133911 -0.09053941 -0.023889069 0.27299723
0.119752735 -0.08035005 0.2897795 -0.06389948 -0.13692623 0.04284096 -0.058382846 0.107668795
0.2121711 -0.09193782 -0.11802994 0.34268552 -0.28642383 -0.1292644 0.08602809 -0.11124043
-0.087699145 0.2200662 0.0063895485 0.1366992 -0.15707617 0.0002768003 -0.015581318 0.06776719
00000000: 86d7 d23d b65e 543e 7773 723e 7092 8fbe
00000010: 16e2 ba3d 616d 3cbd c270 a6be a956 9bbd
00000020: d7b8 a6bd 7f1e 6f3e 06f1 4e3c 08d2 18bd
00000030: 9983 42bd 7bde c03d 7326 433d e066 9bbe
00000040: 87fe 8ebe f61f 22be 116e 603d 8d47 783e
00000050: 98bc e1bd c0e5 b7bd 3ffb a33d ca08 b1bd
00000060: a683 3dbe e402 c8bc 64ce 83be 6870 d53d
00000070: 1280 583e 7a3d 053d 6044 163e a440 153e
00000080: 26b3 8e3d 6056 3abe c397 5cbe 7684 10bd
00000090: b94a a3bd 8f45 6dbe 3d9f a13c 6d13 dfbd
000000a0: 922c 22be 8e83 4fbc 986a 453c 1f30 06be
000000b0: 1a1a 06be 7c28 3e3e 267f a73d 918d dabc
000000c0: 1fb1 37bd 481c df3d 6979 213e cfcc 07be
000000d0: f43c 1dbe 44aa 96bd a7f7 d53d 1875 3b3e
000000e0: a9ee 6a3e 4bb4 2fbd bcb5 2c3e 8427 babd
000000f0: 97c4 5dbe 5793 65bd 4f49 56be c3df 4b3e
00000100: c3c4 963d c68d 043e 212d 75bc 8184 0e3e
00000110: 822d e9b9 9c1d 38be 67b5 443d 367c 36be
00000120: 639a 363d fcb8 113e 6df2 1abe 09d8 97bc
00000130: 392e 283e aacf 1bbd a9e8 463e cde7 16be
00000140: a23e 98bc d353 8f3e 0d0b b7be a13e 03be
00000150: b799 823d 681b 3fbe 8559 ff3c f880 b83e
00000160: 545d fcbd fb51 1ebd 3774 2d3e 5634 eebd
00000170: c71f 84be 2f21 843e 5696 54be 28a5 21be
00000180: cac0 b83e 8352 dbbd 4ce6 adbd 6648 b5bd
00000190: 5cbd a73d ade9 48be bc57 643e 2bae 913d
000001a0: 5a5c c7bd 7827 8b3e 53b5 433b 75e7 c3bd
000001b0: 82b4 2ebe 0a2f 79bd 9142 cf3d baf3 1cbd
000001c0: 518a e53c ba34 a0bc ca9d 05be 5af8 d0bd
000001d0: 1c31 3c3d 9752 a03c 32a6 2fbe 8fc4 3dbc
000001e0: b9ba 5e3e 7671 1bbe 5235 343c dd1d 9d3e
000001f0: 6b26 49be 73d0 bd3c 5e74 1c3e de1e 71bd
00000200: 293f 35be c80a 2b3e c14b 3dbe a268 5bbd
00000210: 61c9 10be db57 b13d 3c82 a4bd 586a 133e
00000220: b828 5a3a 2d14 9fbe dfa8 a83b 3675 17bc
00000230: f3ff 17be 596f c23e 626b c9bc ee87 c2bd
00000240: 8caa 7bbe 4cbf 1abe bb60 573e 40c7 85be
00000250: ca49 3cbe 1d58 803e 7523 72be c46b 5c3c
00000260: fd3f a53e a357 5d3c f5cf d23d 7b6e 65be
00000270: 4208 4e3d ab5b d43b 7d0b 02bd add7 a0bd
00000280: 02aa 8bbd 0ded e23d 7250 88be 4760 213c
00000290: 7f37 a13e e5b1 7dbd c744 153c cd0c 9a3d
000002a0: 4e74 223e 2076 0e3e 7693 8cbe 5ab8 3abe
000002b0: 882c 0cbe 8b56 473e fa8d 5a3d f0b1 66bd
000002c0: d049 3b3d ed1d 9cbc 4dac e33d b208 3a3d
000002d0: 8267 cb3c 5e6f fc3c abc2 e0bd 4b7c c23c
000002e0: 844d 02bd f7d0 8e3d 7ea1 adbb 58af fd3c
000002f0: 3769 c73b f0e0 fe3c 9b40 c6bb db1c eebb
00000300: b270 573e 0145 6e3d c35a e2bd 8419 c03d
00000310: 8c73 853d 2169 52be 72b1 58be 5f5f 3539
00000320: d687 953e c964 8ebe 8a13 42bd 835e 903e
00000330: 8593 97be fd25 1dbe cee7 2c3e 5bee 99bd
00000340: 562c 45bc 0fce 733d b5dd 013e 1d84 21be
00000350: 8317 c5bd d565 0cbe c9aa 8fbd 3334 183e
00000360: 0594 983e 3013 31be 071e 29be c46e af3e
00000370: f617 b1be fba2 a8bd 294e 913e d20f 8dbd
00000380: 57d0 343c 593e bf3c 9773 fbbc 6986 533d
00000390: 705d 00bd ba6c b9bd 02b3 c3bc 4bc6 8b3e
000003a0: ec40 f53d 918e a4bd fb5d 943e bbdd 82bd
000003b0: 6436 0cbe 017a 2f3d da22 6fbd 7581 dc3d
000003c0: 6143 593e e549 bcbd aeb9 f1bd 7a74 af3e
000003d0: 25a6 92be e35d 04be 7f2f b03d 06d2 e3bd
000003e0: 9c9b b3bd 0959 613e 6b5f d13b e0fa 0b3e
000003f0: 93d8 20be 821f 9139 c948 7fbc 86c9 8a3d

seq16.1.conv.bias f4 [8]
-0.20652495 0.08450234 -0.09575879 -0.025445342 0.09663277 0.02295087 -0.13378902 0.0660136
00000000: 477b 53be 900f ad3d 2f1d c4bd c072 d0bc
00000010: 67e7 c53d 7703 bc3c fdff 08be 2332 873d

seq16.1.norm.weight f4 [8]
0.74818134 1.1059815 0.9969341 1.1873157 0.98642 1.0905879 0.9870317 0.88592315
00000000: d088 3f3f cd90 8d3f 1337 7f3f f6f9 973f
00000010: 0586 7c3f 6298 8b3f 1cae 7c3f dccb 623f

seq16.1.norm.bias f4 [8]
-0.039136045 0.13473453 -0.059606973 0.22061074 0.09878041 0.105002664 0.13433547 0.4124932
00000000: 1e4d 20bd d9f7 093e 7126 74bd c8e7 613e
00000010: 624d ca3d a30b d73d 3d8f 093e 4f32 d33e

seq16.1.norm.running_mean f4 [8]
-0.3127451 -0.027136296 -0.2820739 0.31690973 -0.53899235 -0.3845176 -0.14993721 -0.049127005
00000000: 2020 a0be f04c debc fd6b 90be fe41 a23e
00000010: 67fb 09bf 7edf c4be 2489 19be 6639 49bd

seq16.1.norm.running_var f4 [8]
0.42599055 0.8220762 1.5745324 0.57023376 0.7591923 1.0558591 0.5591917 0.5110973
00000000: 6f1b da3e 9673 523f 478a c93f d7fa 113f
00000010: 6d5a 423f 6426 873f 3027 0f3f 46d7 023f

seq16.2.conv.weight f4 [8, 8, 1, 1]
-0.40627453 0.16361175 0.24715605 0.18901636 -0.2331675 0.066264145 -0.33193237 -0.114836976
-0.07698318 0.45753393 0.14312935 0.5006384 -0.04519054 -0.12661399 0.19106632 0.23634192
0.091099344 -0.07261451 -0.53241014 -0.0074026496 0.29508337 -0.49531657 0.039611533 0.14309494
0.21668905 -0.41647756 0.23911238 -0.2558568 -0.19714718 0.16146766 0.15275535 0.02100446
0.3025656 -0.17798582 0.1413196 -0.18905063 -0.02690105 0.039226938 0.3399296 0.34578946
-0.050363258 -0.33927375 0.33744964 -0.16239186 -0.20784898 0.37732974 -0.07762161 -0.079364724
0.07210828 -0.22795205 0.07764858 -0.25847453 -0.08165021 0.35959038 0.04722187 -0.4826166
0.13959217 -0.24028763 0.2647065 -0.11662561 -0.21033722 -0.16207133 -0.24115402 -0.43868244
00000000: 3703 d0be d789 273e 7a16 7d3e 818d 413e
00000010: 76c3 6ebe 7fb5 873d 0af3 a9be a62f ebbd
00000020: 5ca9 9dbd e341 ea3e 8090 123e d729 003f
00000030: b719 39bd 19a7 01be e4a6 433e 9e03 723e
00000040: 4b92 ba3d ebb6 94bd 084c 08bf ed91 f2bb
00000050: 2b15 973e 229a fdbe b43f 223d 7b87 123e
00000060: bce3 5d3e 8c3c d5be e0d9 743e aaff 82be
00000070: f3e0 49be c757 253e e66b 1c3e 8c11 ac3c
00000080: e1e9 9a3e ea41 36be 16b6 103e 7d96 41be
00000090: 975f dcbc 6dac 203d 410b ae3e 510b b13e
000000a0: b449 4ebd 4ab5 adbe 33c6 ac3e 0d4a 26be
000000b0: 5dd6 54be 5d31 c13e 14f8 9ebd f989 a2bd
000000c0: 82ad 933d 436c 69be 3806 9f3d c656 84be
000000d0: 3a38 a7bd 3b1c b83e b86b 413d 8619 f7be
000000e0: 40f1 0e3e f60d 76be 9c87 873e 68d9 eebd
000000f0: a462 57be 07f6 25be 14f1 76be fc9a e0be

seq16.2.conv.bias f4 [8]
0.089940205 -0.30224308 0.2867335 -0.34899965 0.0147294765 0.42731124 -0.22291136 0.533895
00000000: 9232 b83d 9bbf 9abe bcce 923e 15b0 b2be
00000010: e753 713c 8ac8 da3e e042 64be 58ad 083f

seq16.2.norm.weight f4 [8]
0.9830155 0.8180211 0.6949645 0.69821244 0.93828017 0.636928 0.83508676 0.86344373
00000000: e7a6 7b3f d569 513f 32e9 313f 0dbe 323f
00000010: 2133 703f b70d 233f 3fc8 553f a60a 5d3f

seq16.2.norm.bias f4 [8]
-0.051913917 0.20632903 0.3100136 0.2907981 0.042674687 0.3564119 0.19455096 0.20529729
00000000: b0a3 54bd eb47 533e 1aba 9e3e 7de3 943e
00000010: a7cb 2e3d 9f7b b63e 5e38 473e 7439 523e

seq16.2.norm.running_mean f4 [8]
-0.030300064 0.26864925 0.16487506 -0.478838 0.26733193 0.28290087 -0.5410508 0.004455323
00000000: d737 f8bc 658c 893e 02d5 283e 412a f5be
00000010: bbdf 883e 62d8 903e 4e82 0abf f5fd 913b

seq16.2.norm.running_var f4 [8]
0.20079233 0.4631208 0.22643387 0.28226724 0.20596968 0.30824852 0.41622287 0.3681363
00000000: 819c 4d3e 2b1e ed3e 48de 673e 5585 903e
00000010: b7e9 523e c0d2 9d3e 2a1b d53e 5c7c bc3e

seq32_1.0.conv.weight f4 [8, 3, 3, 3]
-0.02532061 0.10292355 0.24278425 -0.108623646 0.40418524 0.062735036 -0.37302858 0.28013873
0.089994274 0.03786684 -0.16835293 -0.014042923 -0.12440474 -0.13467112 -0.25858814 0.06145801
-0.10164589 0.05883609 0.16642937 0.027760036 0.030340672 0.2372562 -0.2603266 -0.03683047
0.37976247 -0.1330738 -0.092557184 -0.26337248 0.06336346 -0.14395973 -0.044379056 0.043795526
0.30391032 0.33505115 -0.20124559 0.048083957 -0.002013382 0.056990802 -0.27923813 0.11360059
0.06869612 0.059073497 0.11688684 -0.34781224 -0.22230305 0.11052661 -0.03879765 -0.09596799
0.1471937 0.24157171 0.24558206 -0.05674706 -0.18852162 -0.01150326 -0.07969588 -0.14782555
-0.19889125 0.09537959 -0.19730495 0.10915815 0.15033063 0.27920008 0.32748228 0.028652167
-0.15240337 0.068553746 -0.007225503 0.09343805 -0.35211596 -0.12526967 -0.07515269 0.022619821
0.051411457 0.25090665 0.26502696 0.020246536 0.23306246 -0.05634039 -0.19786844 -0.20311065
-0.314923 0.006324134 -0.006305064 -0.112029225 0.08397448 -0.2908557 0.09944744 -0.09356809
-0.35147986 -0.091801986 -0.11060295 0.12083472 0.18226914 0.1421586 0.24866056 0.31458247
0.09435981 -0.1435744 -0.013215288 -0.010027057 0.016070073 -0.01087543 0.1461756 0.34673694
0.3818523 -0.0035360309 0.20829485 0.05771458 0.033742223 0.024462909 -0.01906559 0.0774652
0.09584552 -0.15358385 0.0639898 0.009739763 0.07034531 0.07780369 -0.009856842 0.09587434
0.30666712 0.15626234 0.22623906 0.22850524 0.2354324 0.05616278 -0.121550895 -0.4423624
-0.29121888 0.030098233 -0.20730786 -0.11514445 0.20912659 -0.10329409 -0.12719952 -0.03827498
0.08737873 -0.16534595 -0.061089065 -0.2072232 0.1935088 0.3845081 -0.103516415 0.049561817
-0.21185741 0.041934863 0.041623086 -0.35344157 -0.035390552 0.04694345 0.11850164 -0.10110971
-0.20130117 0.041834813 0.273979 -0.023714153 -0.32382107 0.045043435 0.28818876 0.05228937
0.032469492 -0.057563096 -0.002557467 0.072208 0.4256386 0.11710495 0.011919486 0.024219133
-0.19847132 0.3230208 -0.39628556 -0.125416 -0.33208358 0.19981636 0.037486635 -0.046860322
-0.3367268 0.035149947 0.056005776 -0.31541622 -0.0415034 -0.14709511 0.066226035 0.05420531
0.19614284 -0.17200947 0.11236227 0.11136127 0.14201741 0.20789228 0.09222532 -0.2987309
0.11349733 0.23955792 -0.01835614 -0.10643423 -0.16904484 -0.050744973 -0.07381646 -0.22798908
-0.3892234 -0.1485251 0.22340053 0.24857605 0.026040863 -0.1470525 0.13029225 -0.08380929
-0.30417892 -0.1300097 -0.063805535 0.14400108 0.13189542 0.22966632 -0.09240987 0.1632179
00000000: 2b6d cfbc 95c9 d23d 6f9c 783e 1376 debd
00000010: 5ef1 ce3e 3a7b 803d 9afd bebe 586e 8f3e
00000020: eb4e b83d 421a 1b3d b664 2cbe 4a14 66bc
00000030: eac7 febd 3ae7 09be aa65 84be 65bb 7b3d
00000040: b82b d0bd 1dfe 703d 766c 2a3e 0469 e33c
00000050: 008d f83c 4af3 723e 8749 85be 8cdb 16bd
00000060: 3a70 c23e 8044 08be 9f8e bdbd c2d8 86be
00000070: b4c4 813d 2e6a 13be d0c6 35bd f062 333d
00000080: 229a 9b3e d38b ab3e 5313 4ebe aff3 443d
00000090: f2f2 03bb 306f 693d 4df8 8ebe 6da7 e83d
000000a0: 8db0 8c3d 0df7 713d 5e62 ef3d 7214 b2be
000000b0: 69a3 63be c65b e23d 49ea 1ebd de8a c4bd
000000c0: f2b9 163e 935e 773e dd79 7b3e 9b6f 68bd
000000d0: d00b 41be 2b78 3cbc 9837 a3bd 955f 17be
000000e0: 26aa 4bbe 6056 c33d 4f0a 4abe 4f8e df3d
000000f0: 46f0 193e 50f3 8e3e c2ab a73e f3b7 ea3c
00000100: a10f 1cbe e865 8c3d eac3 ecbb 735c bf3d
00000110: 8b48 b4be b146 00be a7e9 99bd 344d b93c
00000120: d294 523d d676 803e 9db1 873e 10dc a53c
00000130: eda7 6e3e 2ec5 66bd 069e 4abe 3dfc 4fbe
00000140: 963d a1be ae3a cf3b b69a cebb 946f e5bd
00000150: d0fa ab3d 0aeb 94be 19ab cb3d a0a0 bfbd
00000160: 2bf5 b3be ae02 bcbd cd83 e2bd 3278 f73d
00000170: c3a4 3a3e 0692 113e e0a0 7e3e f410 a13e
00000180: b73f c13d 2b05 13be ef84 58bc 8648 24bc
00000190: 63a5 833c dc2e 32bc 0eaf 153e 8187 b13e
000001a0: 2582 c33e c1bc 67bb 3f4b 553e 2066 6c3d
000001b0: 4935 0a3d 7066 c83c 712f 9cbc 13a6 9e3d
000001c0: a84a c43d 1645 1dbe 160d 833d 8793 1f3c
000001d0: 3411 903d 8b57 9f3d 987e 21bc c459 c43d
000001e0: 7903 9d3e 3c03 203e 36ab 673e 47fd 693e
000001f0: 3115 713e f10a 663d adef f8bd 537d e2be
00000200: a41a 95be 9290 f63c 8348 54be dad0 ebbd
00000210: 4825 563e da8b d3bd 9740 02be 3ac6 1cbd
00000220: 9ff3 b23d 7350 29be 8738 7abd 5232 54be
00000230: 2c27 463e 3fde c43e 6a00 d4bd 5501 4b3d
00000240: 26f1 58be e4c3 2b3d f87c 2a3d 4bf6 b4be
00000250: aff5 10bd c647 403d fdb0 f23d 9c12 cfbd
00000260: e521 4ebe fb5a 2b3d fa46 8c3e 2f44 c2bc
00000270: e0cb a5be 777f 383d 7a8d 933e 612d 563d
00000280: bbfe 043d 48c7 6bbd 2d9b 27bb cae1 933d
00000290: 4ded d93e b8d4 ef3d f349 433c 3467 c63c
000002a0: 113c 4bbe fb62 a53e f1e5 cabe 0d6d 00be
000002b0: dc06 aabe a99c 4c3e 968b 193d 9cf0 3fbd
000002c0: 7567 acbe 64f9 0f3d 5066 653d 3c7e a1be
000002d0: 78ff 29bd 1aa0 16be 84a1 873d 6306 5e3d
000002e0: abd9 483e 4023 30be 311e e63d 6111 e43d
000002f0: 036d 113e b7e1 543e a1e0 bc3d 42f3 98be
00000300: 4a71 e83d ac4e 753e 9e5f 96bc 31fa d9bd
00000310: 171a 2dbe f6d9 4fbd 162d 97bd f875 69be
00000320: 4a48 c7be f716 18be 1cc3 643e b88a 7e3e
00000330: a653 d53c ee94 16be 556b 053e 34a4 abbd
00000340: 57bd 9bbe 4321 05be 7aac 82bd 0575 133e
00000350: 980f 073e a62d 6b3e 6341 bdbd 9822 273e

seq32_1.0.conv.bias f4 [8]
0.235053 -0.17119811 0.08283843 0.05853539 0.13542792 -0.0019117128 0.10859684 0.14325154
00000000: bcb1 703e 8f4e 2fbe 32a7 a93d cec2 6f3d
00000010: 9ead 0a3e 7092 faba 0568 de3d 88b0 123e

seq32_1.0.norm.weight f4 [8]
1.3147954 1.1103165 1.1414928 0.45832646 0.6261333 1.0916741 1.1665418 0.86294
00000000: 374b a83f da1e 8e3f 701c 923f c4a9 ea3e
00000010: 464a 203f fabb 8b3f 3e51 953f a3e9 5c3f

seq32_1.0.norm.bias f4 [8]
0.2054718 0.18384844 0.25499249 -0.50305724 -0.16676472 0.033705253 -0.22329238 -0.19696891
00000000: 3367 523e c442 3c3e 608e 823e 5cc8 00bf
00000010: 5fc4 2abe 850e 0a3d c2a6 64be 38b2 49be

seq32_1.0.norm.running_mean f4 [8]
41.811207 1.3505658 -7.917732 119.21026 54.068813 -25.09003 -18.006205 -37.579994
00000000: ad3e 2742 57df ac3f 0f5e fdc0 a76b ee42
00000010: 7746 5842 62b8 c8c1 b50c 90c1 ea51 16c2

seq32_1.0.norm.running_var f4 [8]
927.5239 1520.1285 455.15677 7415.346 2710.3193 1254.6779 1318.9847 2066.1772
00000000: 88e1 6744 1d04 be44 1194 e343 c5ba e745
00000010: 1c65 2945 b1d5 9c44 83df a444 d622 0145

seq32_1.1.conv.weight f4 [8, 8, 3, 3]
0.24903814 -0.049436077 0.20183033 -0.094254784 0.14064935 -0.21783365 -0.2192455 0.14050546
0.15407541 0.051286023 0.003967207 -0.00016958952 0.073089816 -0.21886574 0.2823985 0.17635208
0.059774347 -0.17733501 0.008768476 -0.11816562 -0.09609741 0.034399662 0.015437212 -0.034770157
0.10057359 -0.07901907 0.39276704 -0.00076231925 -0.059748784 0.04614438 0.12810259 -0.027770061
0.11654201 0.14955424 -0.05440792 -0.13020205 0.02887185 -0.0960155 0.107520975 0.031615723
0.11725635 0.091235735 -0.28141278 0.07958956 -0.08766609 0.00399357 0.23614493 -0.06538565
0.057459496 -0.18427806 -0.12123979 0.29310736 0.02257069 -0.16513638 0.22347872 0.114359654
0.10766845 -0.18996766 0.3410451 -0.16135453 0.0129900025 -0.33614507 0.16319346 0.2647071
-0.016243726 0.19512656 0.2627727 -0.032190133 -0.11719935 -0.060714275 0.049761523 0.00064856425
0.184407 -0.17951213 -0.34395117 0.36316982 0.18774591 -0.5185238 0.22084321 0.110762626
-0.4262563 -0.02069738 -0.13984233 0.027585693 -0.07646164 -0.056241397 0.048141137 0.016466286
0.003801186 -0.046758693 0.066916876 0.1334394 -0.11803792 0.14837937 -0.062283322 0.1363305
-0.15509912 -0.14152315 0.008537476 0.11001426 -0.055894647 0.08033209 -0.017986484 0.050345495
0.13302775 -0.05597055 0.080207564 0.101484 0.078463085 0.098828234 -0.01671199 -0.03209527
-0.011142069 -0.09522172 -0.0795272 -0.059372883 -0.16609137 -0.048530158 -0.022340873 0.31948602
0.0015526543 0.009765643 0.088867046 0.015931314 -0.24381761 -0.043161746 0.0449685 0.19474903
-0.061484694 0.045538925 0.035665207 -0.10577859 0.27509913 -0.06817552 -0.13301416 0.18631406
-0.019399798 -0.092572145 0.16675058 0.029568037 0.06184308 -0.057109844 0.08068539 0.07339633
-0.0555483 0.029491646 -0.039571904 0.090919726 -0.091225065 -0.09010672 -0.04156256 0.06804848
0.049570628 -0.1813557 -0.28710875 -0.10051223 -0.30494854 -0.26618773 -0.039936733 0.16063498
0.40458268 0.35625803 -0.17087555 -0.22435744 -0.28742167 -0.2271103 -0.022574933 -0.133233
0.29814684 0.37390262 0.35142308 -0.09142647 -0.0489613 0.013200263 -0.05662216 -0.20194834
-0.22877587 -0.15352038 -0.09118686 -0.14276275 -0.05563015 -0.15088536 -0.040571105 0.10514956
0.12452147 -0.10646895 0.041028205 -0.10753167 -0.2734478 -0.106580794 -0.11628768 -0.17086186
-0.102906086 0.04909211 -0.09679095 0.15777367 0.1618142 0.043780144 -0.10574626 -0.0828577
0.058752906 -0.042256236 -0.008986672 0.04972321 0.09345308 -0.03222904 -0.0012491437 -0.09711851
-0.065573774 -0.11843505 -0.14814398 -0.25344324 -0.011052156 0.12013579 0.14958346 0.102281824
0.041455463 0.21708256 -0.07493827 -0.0542073 -0.17954336 0.4776038 0.052521087 -0.019117856
0.007904149 0.07819888 0.042330425 0.18766923 -0.013829407 0.154618 -0.21453814 -0.06845462
-0.034649774 0.2603113 0.1703094 0.06096005 0.27916628 -0.0088919075 0.08922669 0.24799117
-0.0052782525 -0.051237117 -0.3082378 0.20898701 0.093699865 0.0025143267 0.1675247 0.13400307
-0.044000387 0.28598866 0.097910345 0.014318188 0.17613612 0.03853698 -0.02313055 0.113734074
00000000: db03 7f3e 7c7d 4abd 9cac 4e3e a708 c1bd
00000010: 6206 103e c90f 5fbe e481 60be aae0 0f3e
00000020: f2c5 1d3e 4b11 523d 58ff 813b d7d3 31b9
00000030: 1db0 953d 571e 60be 8996 903e a495 343e
00000040: f2d5 743d 4f97 35be a7a9 0f3c d100 f2bd
00000050: b8ce c4bd a9e6 0c3d 5cec 7c3c 276b 0ebd
00000060: 87f9 cd3d c0d4 a1bd c318 c93e 61d6 47ba
00000070: 24bb 74bd e401 3d3d 532d 033e 0a7e e3bc
00000080: 94ad ee3d bf24 193e d7da 5ebd b053 05be
00000090: a884 ec3c c6a3 c4bd f533 dc3d 7d7f 013d
000000a0: 1924 f03d cdd9 ba3d 5615 90be daff a23d
000000b0: 478a b3bd 7edc 823b facf 713e e9e8 85bd
000000c0: a65a 6b3d 63b3 3cbe 914c f8bd 2b12 963e
000000d0: 2be6 b83c 8319 29be 9bd7 643e 6535 ea3d
000000e0: 4781 dc3d e286 42be 779d ae3e 1f3a 25be
000000f0: 05d4 543c 351b acbe 301c 273e b087 873e
00000100: 9011 85bc 42cf 473e 258a 863e cdd9 03bd
00000110: 3606 f0bd 88af 78bd bdd2 4b3d 6904 2a3a
00000120: 30d5 3c3e 07d2 37be 5e1a b0be 65f1 b93e
00000130: 7740 403e fabd 04bf b924 623e 84d7 e23d
00000140: 443e dabe 8d8d a9bc d432 0fbe 64fb e13c
00000150: ec97 9cbd 615d 66bd a42f 453d 4ee4 863c
00000160: 521d 793b 0b86 3fbd b70b 893d 57a4 083e
00000170: ddbd f1bd c3f0 173e cc1c 7fbd 399a 0b3e
00000180: 4ed2 1ebe 72eb 10be c5e0 0b3c 284f e13d
00000190: c9f1 64bd 2785 a43d 6458 93bc 1437 4e3d
000001a0: 6d38 083e 6041 65bd dd43 a43d d8d6 cf3d
000001b0: 41b1 a03d 7566 ca3d 95e7 88bc 5476 03bd
000001c0: 398d 36bc 9b03 c3bd 28df a2bd fb30 73bd
000001d0: db13 2abe 8fc7 46bd 3504 b7bc ac93 a33e
000001e0: 6f82 cb3a 1300 203c edff b53d 6382 823c
000001f0: 53ab 79be 5fca 30bd e430 383d 4a6c 473e
00000200: 60d7 7bbd 0687 3a3d ae15 123d 72a2 d8bd
00000210: cbd9 8c3e 9b9f 8bbd dd34 08be 1dc9 3e3e
00000220: 53ec 9ebc 7796 bdbd aac0 2a3e ab38 f23c
00000230: 2b4f 7d3d 03ec 69bd 623e a53d d150 963d
00000240: 9d86 63bd 7798 f13c 2616 22bd 1f34 ba3d
00000250: 35d4 babd df89 b8bd 813d 2abd 005d 8b3d
00000260: 920a 4b3d 4fb5 39be ebff 92be 5bd9 cdbd
00000270: 3722 9cbe c249 88be b394 23bd 7f7d 243e
00000280: 7625 cf3e 7467 b63e 00fa 2ebe f5bd 65be
00000290: ef28 93be 9a8f 68be 11ef b8bc 3b6e 08be
000002a0: b4a6 983e 2a70 bf3e baed b33e cd3d bbbd
000002b0: a58b 48bd ea45 583c a3ec 67bd 8ccb 4ebe
000002c0: 3944 6abe 7234 1dbe 2dc0 babd 6630 12be
000002d0: 71dc 63bd b181 1abe e32d 26bd a758 d73d
000002e0: 1d05 ff3d 650c dabd 310d 283d 9039 dcbd
000002f0: 5a01 8cbe 0847 dabd 3c28 eebd 69f6 2ebe
00000300: 6dc0 d2bd cf14 493d 553a c6bd 6c8f 213e
00000310: 9fb2 253e cf52 333d 7f91 d8bd 4cb1 a9bd
00000320: e3a6 703d e014 2dbd d63c 13bc 91aa 4b3d
00000330: 5464 bf3d 9902 04bd 4fba a3ba 12e6 c6bd
00000340: 8b4b 86bd 138e f2bd 0eb3 17be 50c3 81be
00000350: 1a14 35bc c109 f63d 682c 193e 2279 d13d
00000360: 34cd 293d e44a 5e3e 3c79 99bd 7908 5ebd
00000370: 37da 37be 7c88 f43e 5a20 573d 0d9d 9cbc
00000380: 6780 013c bc26 a03d ab62 2d3d 5d2c 403e
00000390: bd94 62bc 2e54 1e3e e3af 5bbe f031 8cbd
000003a0: ecec 0dbd 8647 853e 9665 2e3e 3fb1 793d
000003b0: e2ee 8e3e 5daf 11bc 7cbc b63d 66f1 7d3e
000003c0: 31f5 acbb 03de 51bd 58d1 9dbe b100 563e
000003d0: b7e5 bf3d 67c7 243b 988b 2b3e 1a38 093e
000003e0: c039 34bd 1b6d 923e 3885 c83d d596 6a3c
000003f0: 075d 343e f4d8 1d3d 477c bdbc 69ed e83d

seq32_1.1.conv.bias f4 [8]
-0.06798256 0.21495387 0.10026588 0.243777 -0.16416009 0.020106371 0.097287744 -0.13170603
00000000: 713a 8bbd de1c 5c3e 3358 cd3d aea0 793e
00000010: 9519 28be 1eb6 a43c cc3e c73d f2dd 06be

seq32_1.1.norm.weight f4 [8]
1.068625 1.0231695 0.99057853 0.854445 1.054849 0.9398006 1.2853057 0.9590296
00000000: b4c8 883f 38f7 823f 8e96 7d3f e8bc 5a3f
00000010: 4b05 873f c696 703f e684 a43f f782 753f

seq32_1.1.norm.bias f4 [8]
0.33900678 -0.09029598 -0.050024822 -0.26287913 -0.10432886 0.045576304 0.19249205 0.03825199
00000000: 4c92 ad3e 19ed b8bd d4e6 4cbd 1898 86be
00000010: 5faa d5bd 38ae 3a3d a31c 453e 1eae 1c3d

seq32_1.1.norm.running_mean f4 [8]
0.4624467 0.020338636 -0.13310215 1.2513494 -0.5936638 -0.9065445 -0.25019428 -1.1479955
00000000: d0c5 ec3e 369d a63c ee4b 08be 382c a03f
00000010: 5afa 17bf 4d13 68bf 7719 80be 84f1 92bf

seq32_1.1.norm.running_var f4 [8]
1.3465123 1.1229864 1.4402031 1.8450413 1.382798 1.7923056 1.4843856 1.8886192
00000000: 845a ac3f 05be 8f3f 9358 b83f 502a ec3f
00000010: 86ff b03f 456a e53f 5900 be3f 46be f13f

seq32_1.2.conv.weight f4 [8, 8, 1, 1]
0.14492972 0.2541891 0.026699776 0.3229842 -0.4060497 0.1895668 0.27708885 0.28955325
0.25803396 -0.08453546 -0.23157786 -0.17129092 -0.2116315 -0.073843315 0.21240835 0.25726712
0.16151775 -0.13204214 0.11874582 -0.11483497 -0.5412556 0.43770647 0.18004788 -0.114829764
0.22894852 0.3586549 0.025904706 -0.39389524 0.26851133 -0.035908658 -0.51850367 -0.050138593
-0.3445818 -0.20874085 0.052624818 0.11649849 -0.061797462 -0.19622333 0.43773156 -0.13549142
-0.32085717 -0.0067031933 0.16428852 -0.20804954 -0.07753661 0.25808945 0.15100409 -0.29101223
0.09481565 -0.18993899 0.5650645 -0.03364604 0.013139906 -0.20132205 -0.038045276 0.1952103
-0.5235983 -0.058498476 -0.22679245 0.2183073 0.27700505 -0.26642257 0.2333899 -0.41808963
00000000: 7568 143e 1325 823e 7db9 da3c 2f5e a53e
00000010: bfe5 cfbe cd1d 423e 97de 8d3e 5340 943e
00000020: 071d 843e ed20 adbd bf22 6dbe e366 2fbe
00000030: eeb5 58be 2a3b 97bd 9381 593e 84b8 833e
00000040: e964 253e 0e36 07be 0231 f33d 992e ebbd
00000050: ba8f 0abf 101b e03e 795e 383e de2b ebbd
00000060: 7b71 6a3e 9da1 b73e 1b36 d43c a3ac c9be
00000070: 517a 893e f514 13bd a8bc 04bf 205e 4dbd
00000080: 076d b0be 29c0 55be 1f8d 573d c396 ee3d
00000090: 561f 7dbd c5ee 48be 5a1e e03e 43be 0abe
000000a0: 6447 a4be 76a6 dbbb 403b 283e f00a 55be
000000b0: 84cb 9ebd 4d24 843e d1a0 1a3e 8eff 94be
000000c0: b52e c23d 5e7f 42be 11a8 103f 6ed0 09bd
000000d0: c348 573c 5e27 4ebe 5dd5 1bbd 35e5 473e
000000e0: 8a0a 06bf 199c 6fbd 483c 68be f38b 5f3e
000000f0: 9bd3 8d3e 8a68 88be c3fd 6e3e d80f d6be

seq32_1.2.conv.bias f4 [8]
0.10712122 -0.39872652 -0.1916563 -0.28746393 0.16560836 0.0900719 -0.23910022 -0.18098128
00000000: 5f62 db3d e225 ccbe 8d41 44be 792e 93be
00000010: 3d95 293e 9e77 b83d b0d6 74be 2853 39be

seq32_1.2.norm.weight f4 [8]
0.832905 1.0057662 0.99795264 0.907004 0.8854403 0.94474196 1.0668952 1.0937142
00000000: 4339 553f f2bc 803f d379 7f3f 6a31 683f
00000010: 37ac 623f 9cda 713f 0690 883f d4fe 8b3f

seq32_1.2.norm.bias f4 [8]
-0.16268608 0.004188684 0.07071824 -0.12327108 -0.08925724 -0.013573247 0.033650786 -0.006732178
00000000: 2e97 26be 3a41 893b bad4 903d 8c75 fcbd
00000010: 80cc b6bd 5362 5ebc 68d5 093d 9a99 dcbb

seq32_1.2.norm.running_mean f4 [8]
0.46649787 -0.2557819 -0.07757343 -0.35155594 0.06704983 -0.02628334 -0.123486 -0.5199127
00000000: cfd8 ee3e d8f5 82be d2de 9ebd 24ff b3be
00000010: 6c51 893d 2950 d7bc 3ae6 fcbd 0019 05bf

seq32_1.2.norm.running_var f4 [8]
0.19318312 0.1391083 0.35167503 0.55575114 0.37451473 0.186606 0.21386869 0.6545006
00000000: ccd1 453e 6872 0e3e c00e b43e b545 0e3f
00000010: 65c0 bf3e a515 3f3e 6500 5b3e 5a8d 273f

join16_32.norm1.weight f4 [8]
0.89695597 1.1291544 1.1801703 0.9277334 0.9471358 1.3507997 1.0686158 0.75522065
00000000: e89e 653f 2288 903f d20f 973f f07f 6d3f
00000010: 7e77 723f 01e7 ac3f 67c8 883f 2456 413f

join16_32.norm1.bias f4 [8]
-0.00091276615 0.19186816 0.11104128 0.22183953 -0.10716316 0.19222601 0.3850927 -0.09595894
00000000: b346 6fba 1679 443e 9c69 e33d e729 633e
00000010: 5c78 dbbd e5d6 443e df2a c53e 1f86 c4bd

join16_32.norm1.running_mean f4 [8]
0.26311195 0.35967615 0.43487805 0.41212514 0.2894587 0.44549868 0.37752593 0.38180503
00000000: 9cb6 863e 7927 b83e 56a8 de3e 1102 d33e
00000010: ee33 943e 6718 e43e 144b c13e f37b c33e

join16_32.norm1.running_var f4 [8]
0.24584764 0.33154234 0.1592437 0.15788679 0.2812095 0.15754455 0.20101635 0.21732213
00000000: 7cbf 7b3e ebbf a93e c810 233e 13ad 213e
00000010: b1fa 8f3e 5c53 213e 3bd7 4d3e b189 5e3e

join16_32.norm2.weight f4 [8]
0.5456529 0.48560086 0.8148726 1.1874738 1.222604 0.73577666 0.6378609 0.7901691
00000000: e9af 0b3f ada0 f83e 7e9b 503f 24ff 973f
00000010: 4a7e 9c3f dc5b 3c3f da4a 233f 8648 4a3f

join16_32.norm2.bias f4 [8]
0.064533085 -0.33646342 -0.063118376 0.07832892 0.028651182 0.0047634044 0.23282358 -0.21197058
00000000: ec29 843d ef44 acbe 3544 81bd ea6a a03d
00000010: e2b5 ea3c 5516 9c3b 4e69 6e3e d10e 59be

join16_32.norm2.running_mean f4 [8]
0.15153217 0.26879254 0.32819203 0.16945893 0.18423529 0.26044202 0.29277092 0.29149655
00000000: 402b 1b3e 2d9f 893e c908 a83e a486 2d3e
00000010: 2da8 3c3e a858 853e 12e6 953e 093f 953e

join16_32.norm2.running_var f4 [8]
0.33102983 0.4648992 0.40338677 0.2738629 0.3513226 0.26199564 0.74866 0.45164704
00000000: be7c a93e 4507 ee3e b688 ce3e c237 8c3e
00000010: 8ee0 b33e 4b24 863e 2fa8 3f3f 483e e73e

seq32_2.0.conv.weight f4 [16, 16, 3, 3]
0.107713714 0.16039693 0.029112838 0.047021694 0.18360263 0.028632166 0.016996637 0.10161992
-0.19600567 0.054280974 0.055173967 0.079928175 -0.049812764 0.1439499 0.15169488 -0.06943666
0.09385082 0.16429847 -0.102886684 -0.008315768 0.2709701 -0.19676222 -0.18125784 0.12239091
-0.19551723 0.014195399 0.31803083 0.063606866 0.12244978 0.0154005475 0.21402659 0.04508637
0.039526623 0.15723556 0.06719437 0.014651992 0.042969283 -0.079082906 -0.16075446 -0.06358198
-0.12094197 0.07910309 0.06542684 0.023903782 0.13568226 0.011583382 0.1726566 -0.1560889
0.10031672 0.15578507 -0.19722615 0.15240811 0.10899427 -0.28039694 0.033662155 0.16903707
-0.24492913 0.16981626 0.24609411 -0.21813875 0.17246078 0.1267503 -0.34117082 0.25496337
0.09909831 -0.06371132 0.26744136 0.077454835 -0.14256848 0.2397982 0.059341338 -0.033126973
-0.081280164 0.16715157 0.052774243 0.009551798 0.1802587 0.054461244 0.103407316 0.076488584
0.18915683 0.046348218 0.1896982 0.0063381107 -0.15658161 0.08869612 0.122338615 -0.0034275136
-0.024841122 0.18071082 0.016327122 -0.012213326 0.07173548 0.1062924 0.3299428 0.16834417
-0.005334143 0.08665128 0.19495323 -0.08982923 0.06444206 -0.22999316 0.08928517 0.20674475
0.15333137 0.18124285 0.19604042 0.08292042 -0.023722796 0.188518 0.17312111 0.011163801
0.16912942 0.09190283 -0.031262126 0.15594237 0.17337732 -0.20904562 -0.16887265 -0.4295902
-0.035278022 -0.08239034 -0.25823307 -0.21897954 -0.168313 -0.18941376 -0.21400636 -0.057305705
-0.08344136 -0.08546627 0.16062412 0.011659216 -0.11998052 0.026046783 -0.10605577 -0.29859892
-0.1297534 -0.005441737 -0.2544866 -0.18356963 -0.13902138 -0.13170871 -0.05006895 0.020108193
-0.23376329 -0.19307892 -0.07341519 0.050350737 0.107211895 -0.034150947 -0.10100689 -0.0371284
-0.22166462 0.025476882 -0.13695018 -0.12341077 -0.057383385 -0.07273355 -0.023244891 -0.09308696
-0.1470464 -0.17662053 0.37701643 0.035162225 -0.14581713 -0.0126703475 -0.0980944 -0.091756485
0.18091421 0.046180602 -0.056506295 -0.20921202 0.13934216 0.16628157 -0.12789811 0.22330248
0.16763169 -0.20930763 0.060890343 -0.019249327 0.046746377 0.16993777 0.028583072 0.02554268
0.0021873803 -0.10835619 0.015059919 0.06566644 -0.011625584 -0.3535559 -0.047840707 0.18370453
-0.19231091 0.09119984 0.1069407 -0.32017678 0.01695088 0.102657944 -0.25684685 0.0050340546
0.05908361 -0.06297794 0.08287875 0.058956463 -0.15402086 -0.018154554 0.10440195 -0.123176716
0.019199483 0.07566357 0.024328507 0.0412821 0.16827925 -0.2389495 -0.11161168 -0.046207625
0.023312537 0.045767527 -0.11898849 -0.07115226 0.07300253 -0.020399116 -0.06891115 -0.079193674
-0.083666846 -0.011327788 -0.07661608 -0.020137748 0.021502107 -0.06985101 0.09829177 -0.08297009
-0.122479945 0.045488268 -0.087749355 -0.053302787 -0.23662032 -0.13842599 -0.1761856 -0.14975096
-0.23382668 -0.19775419 -0.17630617 -0.38092947 -0.14231011 -0.21169594 -0.2629524 -0.16358139
-0.13443917 -0.4651206 -0.3631031 -0.28409633 -0.09471513 -0.21785669 -0.21241121 -0.3329199
00000000: 0299 dc3d 183f 243e 0c7e ee3c d299 403d
00000010: 5402 3c3e 018e ea3c 883c 8b3c 1b1e d03d
00000020: b6b5 48be ba55 5e3d 19fe 613d 62b1 a33d
00000030: 7808 4cbd 9a67 133e e755 1b3e cf34 8ebd
00000040: dc34 c03d dc3d 283e 41b6 d2bd dc3e 08bc
00000050: 98bc 8a3e 097c 49be a89b 39be 16a8 fa3d
00000060: ab35 48be d293 683c f0d4 a23e 5144 823d
00000070: f3c6 fa3d 9452 7c3c c929 5b3e 7cac 383d
00000080: abe6 213d 5c02 213e 349d 893d e90e 703c
00000090: 8f00 303d 38f6 a1bd d19c 24be 4537 82bd
000000a0: 6cb0 f7bd cd00 a23d 82fe 853d ddd1 c33c
000000b0: 4af0 0a3e 3ac8 3d3c e4cc 303e c5d5 1fbe
000000c0: da72 cd3d 1f86 1f3e a7f5 49be df10 1c3e
000000d0: 6338 df3d 3090 8fbe 54e1 093d 0e18 2d3e
000000e0: b4ce 7abe 50e4 2d3e 1800 7c3e c45f 5fbe
000000f0: 8f99 303e d5ca 013e f1ad aebe 8f8a 823e
00000100: 0ef4 ca3d 157b 82bd 13ee 883e a4a0 9e3d
00000110: 79fd 11be a98d 753e e70f 733d 26b0 07bd
00000120: 3776 a6bd c829 2b3e ce29 583d 257f 1c3c
00000130: bd95 383e c112 5f3d 37c7 d33d 0ca6 9c3d
00000140: 54b2 413e a1d7 3d3d 3f40 423e edaf cf3b
00000150: ee56 20be 50a6 b53d ab8c fa3d 23a0 60bb
00000160: 9c7f cbbc 420c 393e 75c0 853c 671a 48bc
00000170: 0dea 923d d4af d93d 43ee a83e 6a62 2c3e
00000180: 09ca aebb 3a76 b13d d2a1 473e 63f8 b7bd
00000190: 33fa 833d 5483 6bbe 25db b63d e5b4 533e
000001a0: e602 1d3e ba97 393e d2be 483e 2ed2 a93d
000001b0: 4f56 c2bc dd0a 413e a946 313e 60e8 363c
000001c0: 4330 2d3e 8d37 bc3d b70c 00bd 5baf 1f3e
000001d0: d389 313e 0e10 56be f4ec 2cbe 3ff3 dbbe
000001e0: b07f 10bd 44bc a8bd 2037 84be 2c3c 60be
000001f0: 3e5a 2cbe aef5 41be 7c24 5bbe 63b9 6abd
00000200: 4ee3 aabd f108 afbd a67a 243e 4c06 3f3c
00000210: 59b8 f5bd 1060 d53c c433 d9bd f5e1 98be
00000220: 13de 04be 9950 b2bb 114c 82be adf9 3bbe
00000230: 9f5b 0ebe a6de 06be 1915 4dbd f0b9 a43c
00000240: a55f 6fbe 7bb6 45be b45a 96bd 933c 4e3d
00000250: e991 db3d dde1 0bbd b3dc cebd f313 18bd
00000260: 0dfc 62be e5b4 d03c ab3c 0cbe c9be fcbd
00000270: d70a 6bbd 54f5 94bd 126c bebc 60a4 bebd
00000280: 5593 16be 03dc 34be 4c08 c13e 4406 103d
00000290: 1651 15be 4a97 4fbc b7e5 c8bd d3ea bbbd
000002a0: 9341 393e df27 3d3d 2573 67bd ad3b 56be
000002b0: b6af 0e3e b745 2a3e b9f7 02be 68a9 643e
000002c0: a4a7 2b3e bd54 56be 2768 793d c4b0 9dbc
000002d0: 2179 3f3d 2b04 2e3e 0c27 ea3c e23e d13c
000002e0: 275a 0f3b dae9 ddbd e1bd 763c 207c 863d
000002f0: 3c79 3ebc 4705 b5be 9ef4 43bd 0a1d 3c3e
00000300: 27ed 44be fbc6 ba3d ba03 db3d 36ee a3be
00000310: 92dc 8a3c 543e d23d 6e81 83be b6f4 a43b
00000320: a801 723d 94fa 80bd 56bc a93d 557c 713d
00000330: a5b7 1dbe dcb8 94bc b1d0 d53d 1344 fcbd
00000340: 3c48 9d3c 80f5 9a3d 944c c73c 6b17 293d
00000350: 6551 2c3e 2daf 74be aa94 e4bd 3544 3dbd
00000360: eff9 be3c bb76 3b3d 3db0 f3bd 47b8 91bd
00000370: 5a82 953d 0c1c a7bc 4a21 8dbd 4b30 a2bd
00000380: 8659 abbd 3098 39bc e4e8 9cbd ebf7 a4bc
00000390: 3025 b03c 0c0e 8fbd 324d c93d 39ec a9bd
000003a0: c4d6 fabd e851 3a3d efb5 b3bd 0654 5abd
000003b0: 994c 72be 8bbf 0dbe ff69 34be 5158 19be
000003c0: 4370 6fbe 1380 4abe 9b89 34be 3009 c3be
000003d0: beb9 11be d2c6 58be b2a1 86be e181 27be
000003e0: 6caa 09be 4a24 eebe a6e8 b9be 1375 91be
000003f0: 02fa c1bd d315 5fbe 5382 59be 7a74 aabe

seq32_2.0.conv.bias f4 [16]
-0.2606603 -0.29772756 -0.13157906 0.19733205 0.083392195 -0.019722631 0.14287986 0.23187563
0.01072371 -0.14233518 -0.11541058 0.004615556 -0.29879862 -0.050929353 0.17911434 -0.089644
00000000: 4475 85be bf6f 98be a9bc 06be 6a11 4a3e
00000010: 87c9 aa3d 5b91 a1bc 194f 123e ce70 6d3e
00000020: 80b2 2f3c 50c0 11be 625c ecbd 173e 973b
00000030: 22fc 98be 4c9b 50bd c069 373e 4697 b7bd

seq32_2.0.norm.weight f4 [16]
0.9442795 1.1560857 0.8735047 0.8581311 1.273232 1.0110557 0.66222084 0.79130125
0.9827737 0.725076 0.7138458 1.2430092 1.3339854 0.81077105 1.0770757 0.6085178
00000000: 4dbc 713f 9efa 933f 019e 5f3f 7bae 5b3f
00000010: 44f9 a23f 466a 813f 4e87 293f b892 4a3f
00000020: 0f97 7b3f 959e 393f 99be 363f ed1a 9f3f
00000030: 09c0 aa3f b18e 4f3f 9edd 893f d3c7 1b3f

seq32_2.0.norm.bias f4 [16]
-0.0519386 0.10367847 -0.27646545 0.1287243 0.64621246 0.15365224 -0.35695967 0.19581063
-0.061593994 0.14727704 0.14476219 0.1830682 0.13151921 0.18805553 0.035274923 0.104185194
00000000: 92bd 54bd 6155 d43d e18c 8dbe 4ed0 033e
00000010: 2e6e 253f 0357 1d3e 6bc3 b6be 9582 483e
00000020: fc49 7cbd cbcf 163e 8a3c 143e 3b76 3b3e
00000030: f9ac 063e a191 403e 707c 103d 0c5f d53d

seq32_2.0.norm.running_mean f4 [16]
0.072112516 -0.8604911 0.33183455 0.10983557 -0.77462673 -0.5568902 -0.09128132 0.17749955
0.56695366 -0.776662 -0.49225792 -1.2917976 -1.8329886 -0.5719485 0.12407909 -0.31525612
00000000: baaf 933d 2549 5cbf 38e6 a93e 79f1 e03d
00000010: f04d 46bf 5b90 0ebf b3f1 babd 71c2 353e
00000020: e023 113f 52d3 46bf 3b09 fcbe a059 a5bf
00000030: 5f9f eabf 386b 12bf 2e1d fe3d 4069 a1be

seq32_2.0.norm.running_var f4 [16]
11.326871 15.933269 9.966927 12.196253 25.893124 8.654118 11.71605 20.314432
6.8864255 16.149315 20.086618 17.78714 7.956486 9.927931 9.9695425 10.592628
00000000: dd3a 3541 abee 7e41 8878 1f41 da23 4341
00000010: 1e25 cf41 4477 0a41 f174 3b41 f583 a241
00000020: 995d dc40 cc31 8141 65b1 a041 104c 8e41
00000030: 899b fe40 ced8 1e41 3f83 1f41 677b 2941

seq32_2.1.conv.weight f4 [16, 16, 3, 3]
0.16045402 0.13337111 -0.06768531 0.17192659 0.13205135 -0.031454746 0.097310714 0.163645
-0.1589577 -0.09850951 -0.066147916 -0.04775565 0.12491177 -0.013109641 0.08240023 0.45546556
0.24655163 0.26758713 0.17906871 -0.24125819 -0.11722494 0.17412503 -0.13354449 0.03416124
0.13089159 -0.0017125692 -0.071232244 0.17633447 0.54583687 0.34427953 0.14458245 -0.19758381
0.19261475 0.012118538 -0.017639065 -0.34689128 0.23628439 -0.030607598 -0.044528052 0.042235427
-0.010468907 -0.21101598 0.17161791 -0.1039392 -0.03943729 -0.09275829 -0.09363172 -0.08784169
-0.06924704 0.11027319 0.2255884 -0.07289977 0.015079089 0.0958546 0.012990003 -0.0027512258
-0.026803093 0.010948741 -0.0025266402 -0.032009326 0.15786839 0.2641481 0.11149749 -0.15078323
0.04803299 0.057749778 -0.051953975 -0.14016987 0.09314381 -0.035618354 0.058658138 -0.1180232
0.05846806 -0.015577761 -0.14145504 0.039486766 0.012591143 0.03896812 -0.057401728 0.064146236
0.15793625 0.013252929 0.0117818825 -0.10997696 0.06622135 -0.055196982 -0.030815223 -0.1420397
0.04855059 -0.11287365 0.121472925 0.026714543 0.04551567 -0.0788766 -0.19298662 -0.13648112
0.22063859 0.075625785 -0.047403894 0.24456477 0.30859742 0.103477135 0.2210093 -0.15325752
-0.0646386 0.066010155 0.020588813 -0.1107131 0.17109166 -0.08572729 -0.04558308 0.04411445
-0.086194836 -0.099500395 0.105926685 -0.04769559 0.0068253963 -0.12346012 0.14207585 0.025176061
-0.09547098 -0.16782323 0.26571414 0.06458763 0.12858637 0.11481029 0.13895592 -0.27290827
0.18239321 -0.09051054 0.18616603 -0.40065745 -0.2317946 -0.21475239 0.59752893 -0.0024103739
-0.020701114 -0.017791765 0.11944293 -0.16951716 -0.076045536 0.020121863 -0.028662482 0.16002758
-0.02601489 -0.021434307 -0.17106532 0.15413356 0.16207546 -0.19404206 0.07203914 0.12166242
-0.034215987 0.17825466 0.08426136 -0.0757844 0.019982914 -0.09994816 -0.19777463 -0.15009525
-0.16771492 -0.29859847 0.0062473947 0.035495028 -0.13768584 0.07770308 0.11861684 -0.21052416
-0.11051922 0.01262144 -0.28484678 -0.055204544 -0.0029782343 -0.024541032 0.07814878 -0.029335199
0.17994633 0.11854661 0.088650554 -0.13745768 0.1936044 -0.06570492 -0.23889332 -0.021426277
0.019478185 -0.20497435 -0.08505068 -0.2358456 -0.05928315 -0.32534793 -0.077511266 -0.18754882
-0.20195664 0.0491241 0.046609808 -0.2274665 0.11291653 0.069870114 0.040846363 -0.015465533
-0.0017875663 -0.101767085 -0.09501504 -0.08409037 -0.25800732 -0.20055628 -0.19564056 -0.2880936
-0.11653973 0.03726891 -0.102000535 -0.07114433 0.08242241 -0.021690965 0.24186955 0.14887458
0.00676043 -0.16041961 -0.21923502 0.15467827 0.044919908 -0.076246314 0.052411653 0.121717855
0.041343294 -0.23847999 -0.063684754 0.033114787 -0.028031869 0.05390445 0.16063945 -0.032425087
0.07582136 0.21093962 0.05384188 -0.06182965 -0.3193372 0.035675615 -0.23793212 -0.27078456
-0.020219738 -0.35452086 -0.35333508 0.06639155 -0.079634696 -0.2713866 0.057026424 -0.17260133
-0.2637171 -0.01943107 -0.061750177 -0.22121038 0.05868898 -0.093468234 -0.045120146 0.13873583
00000000: 0f4e 243e 7092 083e 999e 8abd 860d 303e
00000010: 7838 073e b1d6 00bd d74a c73d 8e92 273e
00000020: cfc5 22be 5bbf c9bd 8f78 87bd 6e9b 43bd
00000030: bed1 ff3d d2c9 56bc 74c1 a83d c832 e93e
00000040: 0878 7c3e 2e01 893e ca5d 373e 630c 77be
00000050: a113 f0bd d54d 323e e3bf 08be a8ec 0b3d
00000060: 7208 063e 4978 e0ba 36e2 91bd 0691 343e
00000070: f7bb 0b3f 6845 b03e 6c0d 143e 6953 4abe
00000080: cd3c 453e d58c 463c cd7f 90bc bc9b b1be
00000090: 89f4 713e c9bc fabc 0c63 36bd 0eff 2c3d
000000a0: c785 2bbc 9314 58be 9bbc 2f3e 13de d4bd
000000b0: ff88 21bd 0ff8 bdbd fdc1 bfbd 58e6 b3bd
000000c0: 64d1 8dbd e9d6 e13d a500 673e 7a4c 95bd
000000d0: 490e 773c 6b4f c43d 06d4 543c e94d 34bb
000000e0: 2992 dbbc 5962 333c fd95 25bb 361c 03bd
000000f0: 40a8 213e 6b3e 873e cc58 e43d eb66 1abe
00000100: 3ebe 443d 088b 6c3d b1cd 54bd b188 0fbe
00000110: 2fc2 be3d 8de4 11bd 8443 703d 26b6 f1bd
00000120: 347c 6f3d de39 7fbc 97d9 10be e0bc 213d
00000130: 154b 4e3c 099d 1f3d 131e 6bbd 1a5f 833d
00000140: 0aba 213e d022 593c cc08 413c 9a3b e1bd
00000150: 0f9f 873d 3b16 62bd 3570 fcbc db72 11be
00000160: fcdc 463d 4d2a e7bd ccc6 f83d 75d8 da3c
00000170: a46e 3a3d 0e8a a1bd 499e 45be b5c1 0bbe
00000180: 15ef 613e b1e1 9a3d 962a 42bd 306f 7a3e
00000190: 7b00 9e3e d2eb d33d 4350 623e 8aef 1cbe
000001a0: 3e61 84bd 5530 873d dfa9 a83c 8dbd e2bd
000001b0: a732 2f3e ca91 afbd 53b5 3abd 5bb1 343d
000001c0: eb86 b0bd ddc6 cbbd 17f0 d83d 735c 43bd
000001d0: 93a7 df3b a9d8 fcbd 557c 113e 073e ce3c
000001e0: 4a86 c3bd dad9 2bbe af0b 883e 8546 843d
000001f0: 25ac 033e a821 eb3d 764a 0e3e a2ba 8bbe
00000200: 49c5 3a3e 975d b9bd 4fa2 3e3e f922 cdbe
00000210: 905b 6dbe 0de8 5bbe a8f7 183f 5df7 1dbb
00000220: 6295 a9bc 09c0 91bc 7f9e f43d e895 2dbe
00000230: c3bd 9bbd 9bd6 a43c 95cd eabc 45de 233e
00000240: 2e1d d5bc 0097 afbc bf2b 2fbe 30d5 1d3e
00000250: 1cf7 253e f6b2 46be 4289 933d 262a f93d
00000260: 1026 0cbd 6488 363e 3891 ac3d da34 9bbd
00000270: 35b3 a33c 9fb1 ccbd 6f85 4abe 92b2 19be
00000280: 76bd 2bbe e6e1 98be f2b6 cc3b 3c63 113d
00000290: 84fd 0cbe cb22 9f3d 63ed f23d a593 57be
000002a0: e757 e2bd 28ca 4e3c 70d7 91be 291e 62bd
000002b0: 7b2e 43bb 460a c9bc 780c a03d 5f50 f0bc
000002c0: da43 383e 91c8 f23d 6c8e b53d b5c1 0cbe
000002d0: 3b40 463e 4d90 86bd 73a0 74be 2986 afbc
000002e0: b790 9f3c cce4 51be 0d2f aebd 8281 71be
000002f0: e3d2 72bd 0194 a6be 3abe 9ebd cc0c 40be
00000300: b9cd 4ebe 5a36 493d ede9 3e3d faec 68be
00000310: c840 e73d 1018 8f3d 844e 273d 2663 7dbc
00000320: c64c eaba 436b d0bd 3f97 c2bd 9237 acbd
00000330: 8919 84be a05e 4dbe 0056 48be 0181 93be
00000340: 62ac eebd 49a7 183d a8e5 d0bd 1eb4 91bd
00000350: 15cd a83d 40b1 b1bc a7ac 773e 9472 183e
00000360: 9986 dd3b 0a45 24be 257f 60be fb63 1e3e
00000370: f0fd 373d 0727 9cbd 9aad 563d 3647 f93d
00000380: 9657 293d 1934 74be 276d 82bd 5fa3 073d
00000390: 17a3 e5bc eaca 5c3d ab7e 243e 2bd0 04bd
000003a0: 3b48 9b3d 8e00 583e 4e89 5c3d 1641 7dbd
000003b0: 2a80 a3be 9820 123d 7aa4 73be 46a4 8abe
000003c0: dda3 a5bc c283 b5be 56e8 b4be 4bf8 873d
000003d0: 8417 a3bd 2ff3 8abe 8a94 693d 67be 30be
000003e0: ed05 87be e82d 9fbc c1ed 7cbd f984 62be
000003f0: db63 703d 466c bfbd e7cf 38bd c410 0e3e

seq32_2.1.conv.bias f4 [16]
0.10450064 -0.05679587 0.04572219 0.038313214 -0.029123073 0.104835935 0.023427084 0.08342227
-0.008838794 0.15811199 -0.27269375 -0.21213031 -0.041664958 0.15006976 -0.05445422 0.0708987
00000000: 6e04 d63d c9a2 68bd 3147 3b3d 51ee 1c3d
00000010: 8393 eebc 39b4 d63d 28ea bf3c 4cd9 aa3d
00000020: 97d0 10bc 1ce8 213e 849e 8bbe b038 59be
00000030: e0a8 2abd e3ab 193e 630b 5fbd 5633 913d

seq32_2.1.norm.weight f4 [16]
1.229727 0.89772 1.0392616 1.0210475 1.0293665 0.9904284 1.0917994 0.82942647
1.015245 0.94268674 0.9421485 1.0020394 0.9950534 0.7105221 0.95985365 0.89363605
00000000: b267 9d3f fad0 653f 8606 853f afb1 823f
00000010: 48c2 833f b78c 7d3f 15c0 8b3f 4b55 543f
00000020: 8cf3 813f eb53 713f a530 713f d442 803f
00000030: d2bb 7e3f c7e4 353f f8b8 753f 55c5 643f

seq32_2.1.norm.bias f4 [16]
-0.092766084 -0.086987846 -0.17971498 0.19955018 0.050953895 -0.16244122 0.024453001 -0.07139396
-0.07937551 -0.01852495 -0.09988747 0.04662156 0.21778141 0.045452442 -0.076583005 0.17946286
00000000: 25fc bdbd af26 b2bd 3407 38be e256 4c3e
00000010: 08b5 503d fe56 26be a951 c83c ff36 92bd
00000020: a18f a2bd a3c1 97bc cd91 ccbd 40f6 3e3d
00000030: 1702 5f3e 572c 3a3d 8dd7 9cbd 1dc5 373e

seq32_2.1.norm.running_mean f4 [16]
1.2575372 -1.881251 -0.052027605 -0.87704587 -1.1862075 -1.1625723 -0.89537007 -0.45555174
-0.72599185 0.4738604 -1.7573779 -0.6843665 -0.9731295 -0.02594778 2.519416 -1.238592
00000000: fbf6 a03f d5cc f0bf e61a 55bd 1486 60bf
00000010: a6d5 97bf 2bcf 94bf f936 65bf 143e e9be
00000020: 9ada 39bf d59d f23e c2f1 e0bf a532 2fbf
00000030: 041f 79bf 7090 d4bc 1d3e 2140 2f8a 9ebf

seq32_2.1.norm.running_var f4 [16]
2.775333 5.56378 3.9928117 1.5576103 7.691698 3.6774626 4.4414873 14.343545
4.1345987 3.4787967 3.7785397 2.0465934 1.8714195 3.7407856 7.880521 2.8361242
00000000: 0e9f 3140 7c0a b240 3a8a 7f40 c65f c73f
00000010: 6422 f640 8c5b 6b40 aa20 8e40 297f 6541
00000020: a24e 8440 9ba4 5e40 98d3 7140 63fb 0240
00000030: ad8a ef3f 0869 6f40 3a2d fc40 0f83 3540
